checkpoints2/beat_cls_layer.pth (torch_old, 7921 bytes, 2 tensors)

weight f4 [2, 256]
00000000: f26a 42bb 247c 6ebd c48b 553d d9d3 523d
00000010: 8d22 e6bc 4892 763d 291c 443d 9017 87bc
00000020: 05ee 363d 89ae b5bc 84ef a8bd 16af 073d
00000030: 1f7d b7bc f6c2 2fbc 31bb 833d a65b 5fbd
00000040: 44e2 1c3d 77ea f43c 1ec8 58bd 45d9 c8bc
00000050: 2429 02bd 4c01 b0bb 736e 463d 60a6 2ebd
00000060: b910 263d 9d68 673b 73f2 01bc 32bf 623c
00000070: 6b26 383d 0464 0b3d 56e8 51bc 5096 c8bb
00000080: 7c6b b6bd 5499 5f3c 8afd 7abb 7dca 8e3c
00000090: b664 f83d 320d a63b 5f94 143d beaf ae3a
000000a0: 21f6 0f3b 6038 f83c d88d 8dbc 4e9d bfbc
000000b0: 50e2 253b 7b13 a9bd ea2c 2abd b4c9 91bc
000000c0: 590a b0bc 43a1 803d 499f e0bd 264d 10bd
000000d0: 7ae4 2a3b d892 40bd 1045 85b6 fdd3 b739
000000e0: 1bbb 3bbc be56 adbc 533e 973a adba c7bc
000000f0: 32d8 a53c eb66 81bd 3087 a73c 80f3 0d3c
00000100: dfd1 1d3d a73f 90bd 0c00 303d 5f07 433d
00000110: c40b 23bd cc98 553d 23b4 1cbc 17e3 0d3d
00000120: 37a0 ea3c e71c 55bc 7687 3abd 87ed e03b
00000130: 6617 4bbd dc75 01bd b2f0 f93c 32a2 82bd
00000140: 31ac 253d ae8d 83bd 689b 2bbd 1e7f 44bc
00000150: a080 483c 7175 b43b f5e3 093d d303 d6bc
00000160: 41e5 89bb 7da8 29bd f1ee d73c 8e4c 7f3d
00000170: ed96 503d 7244 9dbd 9e65 1ebd 2297 793c
00000180: 15b1 e73b 66cb f7bc a734 933c 7a1e 96bc
00000190: 9cad 463d 7658 61bd ec3f 9f3d 3d18 2c3c
000001a0: 114a 9abc d4f0 fe3c 1a98 933c 5cfc b63b
000001b0: 9297 a93a 4c0e a9bc 2d7e 9fbc 5394 17bd
000001c0: 421a b33c 8b7d 5bbd 82f9 ff3c de9c 8a3d
000001d0: ae0b 493d b309 1b3d 4411 d33c 1a0d 66bd
000001e0: 6765 993d f9a1 633d bfa4 653d 5161 513b
000001f0: 4fe1 dd3c b63a f3bd c595 62bd 12b1 83bb
00000200: 8dd6 073d 7d69 48bd 2b09 99bc 154e 5cbd
00000210: a675 ff3c f37f f9bc 446b 82bd 11a8 1c3d
00000220: e891 5fbc 0e35 20bd f640 543c 404c f83c
00000230: e597 b4ba 0ce6 e23c a6a9 4b3d 5103 093d
00000240: ae59 10bd 84fc 813d 0fb7 0dbd 3f77 d03b
00000250: 4311 b43c ae04 5a3d a34c 28bd 0152 ac3c
00000260: 552a 283c add1 c1bc 4cb9 883d a01b 03bd
00000270: 4aa5 e03a 2eb0 54bd f662 643c 2606 d6bc
00000280: 4be0 7e3d 90b7 6a3c af02 48bc 9444 8ebd
00000290: da27 1cbd af02 91bd d693 5ebd 86a1 a63c
000002a0: 608e 2c3d d0b1 c73c f554 0b3d 0774 a33d
000002b0: 8c11 26bd dd43 233c 9b37 ab3c 74d4 4e3d
000002c0: 2f73 86bc a8d3 6a3d 515f cabc eb8c 253d
000002d0: 36d8 2f3d 246e 423d 8307 893d 4d89 7abd
000002e0: 9f16 08bd 4d57 9fbc f51a ce3c fc5f 4fbb
000002f0: 7954 7f3d 8bb2 143d 5135 74bc 23b8 263d
00000300: 337c 283d 6434 843d bfa0 8a3d 7f37 32bd
00000310: ab79 1cbd f986 443c 28ce c3bb 1668 e9bb
00000320: d0b4 0f3a fb3c ad3b e682 9a3c 6093 88bd
00000330: 034b 443d 44da 19bd 0499 823d 05d4 eabc
00000340: 9d9c b03c e8ff 20bd fb6b 01bd 134e 78bd
00000350: ff41 06bd d94d 30bb 60bd 9dbc 191b 003d
00000360: 91f9 8fbc 266d 833c f373 18bc f39d 813d
00000370: cccf 9d3d 37b1 e3bc 69fd 87bd 34d6 59bd
00000380: 7edd bfbc 71f6 6b3d 0131 ee3c 38df d3bc
00000390: b452 5ebd 979f dbbc 4681 15bd 8099 103b
000003a0: 2d1c 3ebd dcb5 4cbd c679 a7bc ec1d 33bd
000003b0: ab4a 78bd c803 1b3d db61 72bd dd35 42bc
000003c0: f608 3cbd 994c 683d 3ee0 a93c 27b0 adbc
000003d0: 60a6 0bbd 7e1e 023d 9982 613d 49a0 63bd
000003e0: 21b4 eabc 5894 00bb b0f3 933b e413 c93b
000003f0: 7d1c e1bc 18f9 5e3d a00b 08bc 9796 7e3d
-0.0029665795 -0.05822386 0.052135244 0.051471565 -0.028092647 0.0601981 0.047878418 -0.016490728
0.044660587 -0.022177951 -0.08248809 0.03312596 -0.02239853 -0.010727635 0.06432188 -0.054530762
0.03830172 0.029896958 -0.05292522 -0.024517665 -0.031777516 -0.0053712483 0.048445176 -0.042639136
0.04054329 0.0035310157 -0.00793134 0.01383953 0.044958513 0.03403093 -0.012811741 -0.0061214343
-0.0890722 0.013647396 -0.0038298094 0.017430538 0.12128584 0.005067491 0.03627431 0.0013327522
0.0021966773 0.03030032 -0.01727955 -0.023390438 0.0025311895 -0.08255669 -0.04154674 -0.017796375
-0.02148931 0.06280758 -0.10967881 -0.035229824 0.0026076124 -0.04701504 -3.971749e-06 0.00035062424
-0.011458184 -0.021159526 0.001153896 -0.024381006 0.020244692 -0.06318458 0.020450205 0.008664012
0.038530227 -0.07043391 0.042968795 0.04761445 -0.039806142 0.05214767 -0.009564432 0.034640398
0.02864085 -0.013007379 -0.045539342 0.006864253 -0.04958286 -0.03160654 0.03051028 -0.063785926
0.040447418 -0.06423508 -0.041896254 -0.011993198 0.012237698 0.005507164 0.033664662 -0.02612487
-0.0042082374 -0.04142045 0.026359053 0.062328868 0.050925184 -0.076790705 -0.03867113 0.015233787
0.0070706704 -0.030248355 0.017969443 -0.01832508 0.04850541 -0.055016004 0.07775864 0.010503826
-0.018834146 0.031120695 0.018016864 0.005584283 0.0012938848 -0.0206367 -0.019469345 -0.037006687
0.021863107 -0.053586524 0.031246904 0.06768201 0.049083404 0.037851047 0.025765069 -0.05616484
0.07490044 0.05557439 0.056065317 0.0031948874 0.027084975 -0.118764326 -0.055318613 -0.004018911
0.033163596 -0.048928726 -0.01868113 -0.053785402 0.031184029 -0.030456519 -0.063681155 0.038246218
-0.013645627 -0.039113097 0.012954941 0.030309796 -0.0013778178 0.027697586 0.049722336 0.03345043
-0.035241775 0.06346992 -0.034598406 0.0063618715 0.021980887 0.05322712 -0.04108871 0.021035196
0.010263999 -0.023659552 0.066759676 -0.032008767 0.0017139104 -0.05192583 0.01393961 -0.026125979
0.06222562 0.014325991 -0.012207671 -0.06946674 -0.038123943 -0.0708059 -0.054340206 0.020340692
0.042127967 0.02437678 0.03401657 0.07981115 -0.040544078 0.00996491 0.020900538 0.05049558
-0.016412346 0.057330757 -0.024703654 0.040417593 0.042930804 0.04746832 0.06690886 -0.061166096
-0.0332247 -0.019450808 0.025159338 -0.0031642905 0.06233642 0.036303084 -0.01490529 0.04070295
0.04113407 0.06455305 0.06768941 -0.043509956 -0.03820197 0.011995071 -0.0059755035 -0.0071230037
0.000548196 0.0052868105 0.018861245 -0.066687346 0.0479231 -0.03756167 0.06376842 -0.028665552
0.021559054 -0.03930655 -0.03159712 -0.060621332 -0.032777783 -0.002690187 -0.01925534 0.031275842
-0.017575057 0.016043257 -0.009304988 0.063289545 0.0770565 -0.027794464 -0.06640131 -0.053182796
-0.023421045 0.05760807 0.029076101 -0.025863275 -0.05427809 -0.026809497 -0.036500238 0.002206415
-0.04641359 -0.049978122 -0.020443808 -0.043729708 -0.060618084 0.037845403 -0.059175353 -0.011853662
-0.045906983 0.056713674 0.02073681 -0.02120216 -0.034094214 0.03176736 0.05505619 -0.05557278
-0.028650345 -0.001961967 0.004515134 0.0061364044 -0.027479405 0.054436773 -0.008303553 0.062155332

bias f4 [2]
00000000: 30a7 18bd f4aa c63c
-0.037268817 0.024251439
