checkpoints2/beat_decoder.pth (torch_old, 313322 bytes, 7 tensors)

weight f4 [16, 50]
0.6452355 0.92067313 0.7344557 0.5629786 0.0065785246 0.46486694 0.75227475 0.7207789
0.51674664 0.85378486 0.17747855 0.07230009 0.48700464 0.9474272 0.96425444 0.10190505
0.34318686 0.19889028 0.2189964 0.37553224 0.45515922 0.40458587 0.6602217 0.23388158
0.6370589 0.9800474 0.6569969 0.08926219 0.55091405 0.7755549 0.41207105 0.9673973
0.7820263 0.82659113 0.0053029805 0.64328957 0.42328322 0.41075188 0.7132453 0.098133326
0.74566406 0.1869925 0.95561534 0.9864171 0.2606423 0.8896436 0.3794568 0.37609398
0.67361563 0.70859295 -0.11448801 0.52335405 0.23218356 -0.20359914 -0.26669174 -0.028668739
-0.13579401 -0.3324461 -0.0210396 -0.20874858 -0.15901476 0.09531337 0.26848987 -0.1239717
-0.017648926 -0.119527325 0.20862703 -0.104175396 -0.49904063 -0.007301715 0.64460313 0.17309196
0.132371 -0.503634 -0.072191976 -0.61883736 0.22594763 0.0138380695 0.5546591 0.40858752
0.72333574 -1.0505095 0.54696476 0.16050403 -0.39738718 -0.40356907 -0.011629139 0.19119246
-0.2993636 -0.39420766 0.018858993 0.19882098 -0.114603 -0.12551732 0.37943986 -0.26427507
-0.2282186 -0.092952676 0.20224708 -0.4406372 -0.010332763 0.17824498 -0.38478807 -0.3888566
-0.1737782 0.2335416 -0.22647697 -0.5383876 0.5618507 0.5330798 -0.34242138 -0.5907067
-0.2490006 -0.49434733 0.032237332 0.3712685 -0.106337026 0.43825528 0.10730079 0.39082986
0.014636915 -0.19753824 -0.080682345 -0.31427205 -0.117836826 -0.27289417 0.5543394 -0.56749815
-0.22449942 0.46952567 0.16312376 -0.17784512 0.20583723 -0.27078113 -0.5486293 -0.27898055
-0.38558722 -0.31417468 -0.057311513 -0.11175184 -0.36389893 -0.057668712 0.09322205 0.29820132
-0.4031474 -0.29486787 -0.2626296 0.32663086 0.5002415 0.16252564 -0.59916645 0.20824055
0.17169385 -0.12359292 -0.491056 0.4416703 0.29559717 0.183331 0.06732042 -0.280793
0.2977231 -0.36581606 -0.16915418 -0.43848035 0.54824096 -0.2409551 0.33372387 0.19917434
0.32442242 -0.03555195 -0.22141549 0.22124292 -0.21909277 -0.04146602 0.10491619 0.15558958
-0.029558558 0.009609902 -0.30179635 0.12266764 0.060791902 0.07926446 0.11267865 -0.20280445
-0.032386318 0.25110078 -0.1578695 0.10004381 -0.33204296 0.4049596 -0.29799947 0.4201181
-0.39947486 0.33260775 -0.04928715 0.09505469 -0.25914443 -0.40578502 0.07306243 0.30686015
0.48414552 0.14399013 -0.61275584 0.17435576 0.044986304 -0.45900163 -0.4775688 -0.08651014
-0.08684531 0.54240274 -0.3415007 -0.23188165 0.30620363 0.10207651 -0.83047783 0.37631935
-0.23390587 -0.048733544 -0.19997641 -0.17655589 -0.104668684 -0.03890485 -0.15236923 -0.008320591
-0.3741356 -0.50978345 -0.09739242 -0.26704606 0.26741832 -0.093674526 0.30467534 -0.039922267
0.060875937 0.17936803 0.07903432 -0.58000755 0.15992038 0.047563788 0.26216352 -0.30424798
0.22305264 -0.25424466 0.6331168 -0.20792633 -0.28886008 0.29112706 -0.5482472 0.4541879
-0.1274077 -0.38891044 -0.27903944 0.44484472 0.046317652 0.18026057 0.12462334 0.028248567
00000000: 272e 253f 3cb1 6b3f 4a05 3c3f 5e1f 103f
00000010: aa90 d73b 0a03 ee3e 1495 403f f784 383f
00000020: 8249 043f a591 5a3f f0bc 353e 1212 943d
00000030: ac58 f93e 978a 723f 61d9 763f 98b3 d03d
00000040: 30b6 af3e e5a9 4b3e 9840 603e c345 c03e
00000050: a10a e93e e125 cf3e 4a04 293f a77e 6f3e
00000060: 4b16 233f 63e4 7a3f f330 283f 18cf b63d
00000070: b408 0d3f c48a 463f fafa d23e 59a7 773f
00000080: e032 483f 7a9b 533f a0c4 ad3b a0ae 243f
00000090: 94b8 d83e 124e d23e 3e97 363f 20fa c83d
000000a0: d7e3 3e3f f67a 3f3e 35a3 743f d585 7c3f
000000b0: e872 853e afbf 633f 2948 c23e 648f c03e
000000c0: 1372 2c3f 5966 353f b178 eabd 88fa 053f
000000d0: 87c1 6d3e 4b7c 50be d28b 88be b4da eabc
000000e0: 960d 0bbe 6036 aabe 3d5b acbc 30c2 55be
000000f0: c4d4 22be a833 c33d 8177 893e e0e4 fdbd
00000100: 7b94 90bc beca f4bd 53a2 553e e959 d5bd
00000110: 4182 ffbe 3a43 efbb b604 253f 053f 313e
00000120: 438c 073e 28ee 00bf 63d9 93bd 206c 1ebf
00000130: d15e 673e 12b9 623c 24fe 0d3f 6232 d13e
00000140: 882c 393f 1877 86bf e205 0c3f 2b5b 243e
00000150: 5576 cbbe 9ba0 cebe 2588 3ebc f5c7 433e
00000160: 3046 99be 96d5 c9be 2d7e 9a3c ba97 4b3e
00000170: fab4 eabd 9d87 00be f145 c23e 104f 87be
00000180: 23b2 69be f95d bebd dc19 4f3e 339b e1be
00000190: c04a 29bc da85 363e f102 c5be 3618 c7be
000001a0: eaf2 31be 8725 6f3e 94e9 67be c5d3 09bf
000001b0: 73d5 0f3f eb77 083f db51 afbe 8e38 17bf
000001c0: 03fa 7ebe 181b fdbe 4b0b 043d e816 be3e
000001d0: 3ac7 d9bd ff62 e03e 84c0 db3d da1a c83e
000001e0: accf 6f3c 7747 4abe c93c a5bd 44e8 a0be
000001f0: 6f54 f1bd c9b8 8bbe 30e9 0d3f 8f47 11bf
00000200: 2de3 65be ab65 f03e ea09 273e 081d 36be
00000210: ffc6 523e d3a3 8abe f872 0cbf 8ad6 8ebe
00000220: b06b c5be 81db a0be 7abf 6abd 26de e4bd
00000230: f650 babe 0736 6cbd 34eb be3d d8ad 983e
00000240: 5669 cebe ecf8 96be 6377 86be 293c a73e
00000250: d40f 003f 1f6d 263e f962 19bf 033d 553e
00000260: 83d0 2f3e 491e fdbd b16b fbbe 9c22 e23e
00000270: 8358 973e 1fbb 3b3e 4adf 893d 1ac4 8fbe
00000280: 2a6f 983e 3e4c bbbe c136 2dbe 7f80 e0be
00000290: 8559 0c3f efbc 76be dbdd aa3e 5cf4 4b3e
000002a0: b21a a63e ec9e 11bd beba 62be 818d 623e
000002b0: db59 60be 46d8 29bd 4dde d63d e052 1f3e
000002c0: ca24 f2bc da72 1d3c 0d85 9abe 2c39 fb3d
000002d0: ee00 793d 6855 a23d 10c4 e63d f8ab 4fbe
000002e0: 84a7 04bd 4890 803e 8ba8 21be c5e3 cc3d
000002f0: 8901 aabe dd56 cf3e 6393 98be b819 d73e
00000300: f887 ccbe 904b aa3e 53e1 49bd 09ac c23d
00000310: 94ae 84be 0ec3 cfbe c1a1 953d c61c 9d3e
00000320: ece1 f73e 2672 133e 91dd 1cbf 518a 323e
00000330: 8f43 383d 4302 ebbe e683 f4be 3a2c b1bd
00000340: f4db b1bd e8da 0a3f 2ed9 aebe 6272 6dbe
00000350: b9c6 9c3e 7d0d d13d 329a 54bf eeac c03e
00000360: 0585 6fbe d39c 47bd 9ec6 4cbe 11cb 34be
00000370: 895c d6bd b15a 1fbd ae06 1cbe 1753 08bc
00000380: b48e bfbe 2b81 02bf ad75 c7bd 43ba 88be
00000390: 0eeb 883e 6ed8 bfbd 68fe 9b3e 8885 23bd
000003a0: 0c59 793d 41ac 373e bfdc a13d 607b 14bf
000003b0: 2bc2 233e 3fd2 423d 4c3a 863e 64c6 9bbe
000003c0: e967 643e 5b2c 82be f113 223f a4ea 54be
000003d0: 78e5 93be 9b0e 953e ee59 0cbf 518b e83e
000003e0: 2a77 02be 451f c7be 42de 8ebe b0c2 e33e
000003f0: 94b7 3d3d 3a96 383e 863a ff3d 8a69 e73c

weight_ih_l0 f4 [384, 50]
-0.20042428 0.06769737 0.16393971 -0.16616935 0.055828612 -0.051384382 -0.10883517 -0.1578632
-0.2438923 -0.07001883 0.0041488702 0.43329623 0.21385649 -0.08801717 -0.088911586 -0.0783268
-0.0070899697 -0.29119658 -0.063054584 -0.027882257 0.3125761 -0.031071354 0.20434526 -0.122150645
0.15642115 -0.0121223265 0.04174215 -0.0036728897 0.3470452 0.2073536 0.17728494 -0.32431182
-0.1445403 0.16315041 0.12087719 -0.07152442 0.10669176 0.23646879 -0.0093344115 -0.085026495
0.14308192 -0.09432692 -0.084715486 -0.0595349 0.26127467 -0.10138562 0.024300728 -0.23175658
0.15377878 -0.18571632 0.12189492 0.0011268025 0.03610903 -0.11646133 0.2294745 -0.17458555
0.071908265 0.10027829 -0.037748013 -0.2791338 -0.27407452 0.22350949 0.35264033 0.20070432
0.13021822 -0.031352922 0.096147984 -0.2830988 -0.09479279 -0.09321157 -0.011587097 0.42178735
0.10613639 -0.037020206 -0.023537124 -0.001198167 -0.3900696 0.08002437 0.014969452 -0.15859702
0.01930602 -0.108989835 0.19294564 -0.06375139 0.11222168 -0.013700461 -0.23979889 -0.1692036
0.045582976 0.23628896 -0.03457998 -0.0114529785 -0.07319723 -0.043810643 0.42361587 -0.040320635
0.15835863 0.08016006 -0.2874036 -0.16782016 -0.024185322 -0.46631685 -0.026425613 0.012493751
0.5390745 0.080662735 0.21734554 0.11458018 0.12263199 0.029109823 0.045869183 -0.008226122
-0.28518116 0.069504164 0.11379813 0.18244146 -0.12765035 0.22584136 0.47617632 -0.009311325
-0.45973134 -0.008853625 -0.31385365 0.39180028 0.30005217 0.315453 -0.37669683 -0.021028018
-0.6729571 -0.31505024 -0.4517109 0.39086643 -0.5136142 -0.34128788 0.10406331 0.23883526
-0.02634939 -0.22240119 0.35978547 0.41599837 -0.17902377 -0.077340275 0.043050934 0.1826611
-0.2587182 0.19586755 0.20734744 0.12128058 -0.26124996 0.41256064 -0.31552318 0.51526284
0.3966467 0.16010943 -0.28563437 0.09735503 0.104951926 0.034864005 0.021741657 -0.13388719
0.13920623 -0.026087582 0.43396392 0.1172675 -0.006388934 -0.28965554 0.2994332 -0.04051757
-0.09277385 -0.44077256 0.058885336 0.27762374 -0.18839547 -0.33931735 -0.12850358 -0.20576604
-0.106907874 0.07384959 0.3074839 0.13746443 0.3617431 -0.12607914 0.47873357 0.27275863
-0.17123806 0.09435866 0.03191196 0.25386277 -0.39574838 -0.22285858 0.19612846 0.1322543
-0.25429356 -0.05653693 0.25523993 -0.020469937 -0.22099191 -0.14408715 -0.027183928 -0.40547708
0.073067926 0.13862766 0.016058043 0.008134311 0.17451197 -0.255945 -0.22590452 -0.12589327
-0.15775612 0.050248396 -0.16239798 0.15047738 0.028410533 -0.14007898 -0.20663524 -0.015761247
-0.31221536 -0.18390438 -0.33457384 0.025369177 0.50194633 -0.0920101 0.3684232 -0.021195874
-0.06323036 -0.20641078 0.14283544 -0.13732328 0.2852401 0.2495724 0.27460396 -0.4485
-0.06741076 0.21491827 -0.17962317 -0.12342976 -0.19373703 0.12051643 0.00958859 -0.36884186
0.038290303 -0.28594965 0.19310068 -0.11679337 0.0754697 -0.24146912 0.12985888 0.089760676
0.011446774 -0.20668508 -0.32008493 0.25784254 0.16212532 -0.123470224 -0.51304656 0.54399186
00000000: 063c 4dbe eba4 8a3d d0df 273e 4c28 2abe
00000010: 8bac 643d 6e78 52bd f9e4 debd e4a6 21be
00000020: e7be 79be 0866 8fbd 3ff3 873b 01d9 dd3e
00000030: 32fd 5a3e 5942 b4bd 4717 b6bd cd69 a0bd
00000040: fa52 e8bb b817 95be c322 81bd 5569 e4bc
00000050: f909 a03e 5a89 febc e23f 513e 1e2a fabd
00000060: de2c 203e b99c 46bc d1f9 2a3d ddb4 70bb
00000070: e9af b13e 8154 543e 2f8a 353e 330c a6be
00000080: 5f02 14be e710 273e 768e f73d 657b 92bd
00000090: 3681 da3d e024 723e 5cef 18bc 5f22 aebd
000000a0: 1184 123e 792e c1bd 507f adbd deda 73bd
000000b0: cbc5 853e 44a3 cfbd 5212 c73c 9951 6dbe
000000c0: 2f78 1d3e 6b2c 3ebe 0ba4 f93d 38b1 933a
000000d0: 10e7 133d 4783 eebd 5dfb 6a3e 8ec6 32be
000000e0: a444 933d b45e cd3d a99d 1abd a0ea 8ebe
000000f0: 7f53 8cbe acdf 643e 468d b43e 6f85 4d3e
00000100: ed57 053e ec6b 00bd 3ce9 c43d 53f2 90be
00000110: b922 c2bd b5e5 bebd cfd7 3dbc 83f4 d73e
00000120: 095e d93d 80a2 17bd edd0 c0bc d00b 9dba
00000130: 34b7 c7be d1e3 a33d 6f42 753c 4267 22be
00000140: a927 9e3c 1036 dfbd 8b93 453e 1790 82bd
00000150: 7bd4 e53d e677 60bc d78d 75be b543 2dbe
00000160: 37b5 3a3d bcf5 713e bda3 0dbd 46a5 3bbc
00000170: 6ee8 95bd ca72 33bd 2ee4 d83e 4027 25bd
00000180: c428 223e f52a a43d 9126 93be 0cd9 2bbe
00000190: 4c20 c6bc 15c1 eebe 877a d8bc 97b2 4c3c
000001a0: c900 0a3f 8132 a53d d48f 5e3e 03a9 ea3d
000001b0: 7b26 fb3d b977 ee3c 53e1 3b3d dbc6 06bc
000001c0: 4403 92be 3358 8e3d fe0e e93d efd1 3a3e
000001d0: c6b6 02be f542 673e 62cd f33e 878e 18bc
000001e0: e861 ebbe cb0e 11bc 6db1 a0be 0c9a c83e
000001f0: 70a0 993e 0e83 a13e 68de c0be f342 acbc
00000200: eb46 2cbf 444e a1be a746 e7be a51f c83e
00000210: 387c 03bf 49bd aebe 251f d53d 3b91 743e
00000220: adda d7bc 23bd 63be cd35 b83e bdfd d43e
00000230: 0252 37be 9464 9ebd 2d56 303d 830b 3b3e
00000240: b676 84be 8191 483e e352 543e f461 f83d
00000250: 8ec2 85be 263b d33e 418c a1be 44e8 033f
00000260: 4715 cb3e baf3 233e ab3e 92be 1362 c73d
00000270: 09f1 d63d 8fcd 0e3d 8f1b b23c b919 09be
00000280: 148c 0e3e a0b5 d5bc 8530 de3e f129 f03d
00000290: 435a d1bb bb4d 94be 4f4f 993e c0f5 25bd
000002a0: 3700 bebd f1ac e1be c031 713d b324 8e3e
000002b0: beea 40be 01bb adbe 7196 03be 55b4 52be
000002c0: 84f2 dabd 743e 973d 886e 9d3e 7ac3 0c3e
000002d0: 6436 b93e e41a 01be 911c f53e 05a7 8b3e
000002e0: 0859 2fbe 1d3f c13d 1eb6 023d 4dfa 813e
000002f0: 889f cabe 0a35 64be e6d5 483e ac6d 073e
00000300: c432 82be 4593 67bd cfae 823e 92b0 a7bc
00000310: b44b 62be 958b 13be d4b0 debc b19a cfbe
00000320: a3a4 953d 69f4 0d3e 288c 833c c645 053c
00000330: 44b3 323e 390b 83be 8453 67be 2aea 00be
00000340: d28a 21be 43d1 4d3d a84b 26be be16 1a3e
00000350: 35bd e83c dd70 0fbe 3098 53be bb1d 81bc
00000360: b1da 9fbe 6e51 3cbe 434d abbe 05d3 cf3c
00000370: 8e7f 003f cb6f bcbd f7a1 bc3e f8a2 adbc
00000380: eb7e 81bd 595d 53be 7443 123e 799e 0cbe
00000390: fe0a 923e e88f 7f3e e498 8c3e cba1 e5be
000003a0: a70e 8abd 8913 5c3e 23ef 37be bec8 fcbd
000003b0: 0063 46be 51d1 f63d 7619 1d3c d7d8 bcbe
000003c0: 4bd6 1c3d fe67 92be 2fbc 453e 5d31 efbd
000003d0: dc8f 9a3d ae43 77be baf9 043e 72d4 b73d
000003e0: 408b 3b3c 41a5 53be 2ce2 a3be f003 843e
000003f0: 2e04 263e f5dd fcbd 0557 03bf 0d43 0b3f

weight_hh_l0 f4 [384, 128]
0.016577555 -0.32187665 0.16780339 0.18278924 0.05066498 -0.04960107 0.28605446 0.20776251
-0.15027538 0.09587576 -0.0020596217 -0.18799396 0.4276619 0.0063700043 0.26965174 0.15159655
0.023881847 -0.1643943 -0.0056413524 -0.29343265 -0.05706895 0.2772813 0.0046847016 -0.12762445
0.10910825 0.17405812 -0.22812106 -0.36956468 0.015970416 -0.11107846 0.39765275 0.018371405
-0.3346921 0.07906006 0.076549076 0.17392032 0.10995209 0.15616165 0.03516323 0.10591932
0.29665747 -0.21624558 0.11224329 0.10916932 -0.14706887 -0.065352045 0.2185703 -0.16910337
-0.19664814 -0.19821069 -0.023304893 -0.5841611 0.17664786 0.23806614 -0.1796415 0.22698441
0.010310276 -0.09614239 0.14252879 0.0956181 -0.03967036 -0.068270676 -0.1667661 -0.20097351
0.016262505 -0.106231734 -0.0066214106 0.26514333 -0.11047758 0.2013312 0.03610737 -0.28113058
-0.022823878 -0.15209948 0.17383699 -0.5194201 -0.0070590437 0.17378548 0.31859323 0.038783778
0.23464917 -0.11424379 0.12250086 -0.074800655 -0.12184015 0.07529109 0.019971179 0.28179735
0.0739446 -0.10681524 -0.004792017 -0.18279152 -0.055730365 -0.033099115 -0.20389779 0.23112927
0.0060117193 0.11765115 -0.023697125 -0.14860786 0.14095499 -0.49117568 -0.046548042 0.08276223
0.3397623 -0.2976071 -0.26057708 0.0011931444 0.018166294 -0.08740249 -0.106179655 0.06857555
0.0959038 -0.07394541 -0.51771367 -0.27020547 0.027502904 0.1676706 -0.14374271 0.14434777
-0.2334022 0.017837366 -0.17211974 0.012923282 -0.085841164 0.34590113 0.53828114 -0.061860777
-0.04032937 -0.13385133 0.120685466 0.15891266 0.04397469 -0.22458789 0.20954725 0.48997447
-0.03896872 -0.09214862 0.031242538 -0.25992367 0.060174033 -0.06736208 0.18208854 0.13864736
0.01531305 -0.17769347 0.23089483 -0.17857018 -0.1601353 0.032105833 0.10672291 -0.10500001
0.25065222 0.21048963 0.021823535 -0.41112357 0.24006799 0.3592283 -0.31636906 -0.3758537
0.027035572 -0.042416755 -0.037469573 -0.0024161031 -0.08824262 -0.52800226 -0.102264866 0.14686629
-0.013832304 0.006986165 -0.44446737 -0.15067536 0.03447212 0.046095584 -0.28603026 -0.039280955
-0.118701875 -0.20306368 -0.06756839 0.26069775 -0.058580235 0.110267475 0.6336677 -0.11381095
0.23071073 0.25170767 -0.056094367 0.14204562 0.37360686 0.005969102 -0.08889056 -0.35826626
0.058700595 -0.21740592 -0.14902149 0.035173096 -0.3100474 -0.18424155 -0.23449193 -0.22094202
0.5708225 -0.20848435 -0.2605453 -0.09558547 0.17723407 0.030516297 -0.48906144 -0.14493194
0.13024825 0.16616736 -0.42623144 0.03935227 -0.041656263 -0.3357358 -0.08984133 -0.19788736
-0.36144322 0.042889554 -0.26933655 -0.2091354 0.36085093 -0.040343452 -0.07506765 0.06271734
-0.2706972 0.11572869 -0.4172695 -0.29174042 -0.08892667 -0.05153439 0.24187507 0.11891348
-0.21215346 -0.14450924 -0.09052411 -0.18555862 0.019747393 0.09953075 0.18828695 -0.13110678
0.23219685 0.2139941 -0.10041432 -0.06873017 0.10267582 -0.25099862 0.17170098 -0.029004883
0.18147346 0.18781883 0.26580077 0.09965897 -0.0020136053 0.07997873 -0.1311035 -0.24515237
00000000: a7cd 873c 04cd a4be a7d4 2b3e 1a2d 3b3e
00000010: 1586 4f3d 7e2a 4bbd bb75 923e b2bf 543e
00000020: cae1 19be 835a c43d b8fa 06bb 7d81 40be
00000030: 80f6 da3e 78bb d03b cb0f 8a3e 203c 1b3e
00000040: dda3 c33c fb56 28be 18db b8bb ce3c 96be
00000050: 22c1 69bd d1f7 8d3e 2082 993b fcaf 02be
00000060: 2574 df3d 4b3c 323e 9198 69be 9537 bdbe
00000070: 64d4 823c 1b7d e3bd 2499 cb3e a17f 963c
00000080: c35c abbe 3eea a13d c3c5 9c3d 2b18 323e
00000090: 902e e13d d7e8 1f3e 5207 103d 3aec d83d
000000a0: 7de3 973e 7b6f 5dbe cfdf e53d 2a94 df3d
000000b0: 3999 16be 4bd7 85bd e5d0 5f3e 6f29 2dbe
000000c0: 215e 49be bef7 4abe e7e9 bebc 958b 15bf
000000d0: 2de3 343e 9cc7 733e f1f3 37be 9a6e 683e
000000e0: 6fec 283c 4de6 c4bd 11f3 113e 6cd3 c33d
000000f0: 637d 22bd 7fd1 8bbd bcc4 2abe 00cc 4dbe
00000100: f238 853c 0690 d9bd 6bf8 d8bb dec0 873e
00000110: 1242 e2bd c429 4e3e 52e5 133d 59f0 8fbe
00000120: 24f9 babc f7bf 1bbe 5302 323e b7f8 04bf
00000130: 8d4f e7bb d2f4 313e a71e a33e bddb 1e3d
00000140: df47 703e a6f8 e9bd bbe1 fa3d 1631 99bd
00000150: 5487 f9bd 3732 9a3d 999a a33c be47 903e
00000160: 4470 973d f3c1 dabd 5a06 9dbb b32d 3bbe
00000170: 8645 64bd f092 07bd 95ca 50be 27ad 6c3e
00000180: f5fd c43b 16f3 f03d 7920 c2bc a92c 18be
00000190: 8156 103e 617b fbbe 29a9 3ebd 3e7f a93d
000001a0: 53f5 ad3e f55f 98be 5c6a 85be 4863 9c3a
000001b0: 7bd1 943c 1400 b3bd b874 d9bd 5771 8c3d
000001c0: 3669 c43d b170 97bd e288 04bf 5f58 8abe
000001d0: c54d e13c d7b1 2b3e 4a31 13be e7cf 133e
000001e0: fc00 6fbe ab1f 923c 2840 30be 2cbc 533c
000001f0: 7ecd afbd f419 b13e cbcc 093f ba61 7dbd
00000200: 6930 25bd 5310 09be f129 f73d 00ba 223e
00000210: ce1e 343d 5efa 65be 8e93 563e efdd fa3e
00000220: aa9d 1fbd 6ab8 bcbd 5af0 ff3c b714 85be
00000230: 0c79 763d 21f5 89bd 6b75 3a3e 93f9 0d3e
00000240: 96e3 7a3c 47f5 35be b26f 6c3e 1adb 36be
00000250: 82fa 23be 6881 033d 8b91 da3d 3f0a d7bd
00000260: 7d55 803e 988a 573e 45c7 b23c ca7e d2be
00000270: 62d4 753e c6ec b73e 20fb a1be e56f c0be
00000280: b479 dd3c 31bd 2dbd b279 19bd 7c57 1ebb
00000290: 8cb8 b4bd 282b 07bf 3e70 d1bd 1e64 163e
000002a0: e3a0 62bc 33ec e43b 3a91 e3be a44a 1abe
000002b0: a332 0d3d b9ce 3c3d 8f72 92be 11e5 20bd
000002c0: f819 f3bd edef 4fbe 4c61 8abd 2d7a 853e
000002d0: d4f1 6fbd ead3 e13d 0c38 223f b715 e9bd
000002e0: 6f3f 6c3e d4df 803e 35c3 65bd 6874 113e
000002f0: 6649 bf3e 7598 c33b 410c b6bd ad6e b7be
00000300: 0970 703d a89f 5ebe 1799 18be aa11 103d
00000310: 88be 9ebe d1a9 3cbe a71e 70be a03e 62be
00000320: 6c21 123f ec7c 55be 3266 85be 51c2 c3bd
00000330: d97c 353e 50fd f93c 4366 fabe 0a69 14be
00000340: cc5f 053e c727 2a3e 023b dabe d92f 213d
00000350: c29f 2abd 90e5 abbe bbfe b7bd fca2 4abe
00000360: 160f b9be f5ac 2f3d 7be6 89be 9727 56be
00000370: 74c1 b83e 2d3f 25bd 11bd 99bd f371 803d
00000380: d398 8abe 2a03 ed3d 59a4 d5be 005f 95be
00000390: 301f b6bd b915 53bd 19ae 773e e988 f33d
000003a0: c23e 59be 3bfa 13be b464 b9bd 1403 3ebe
000003b0: 49c5 a13c c7d6 cb3d 4bce 403e db40 06be
000003c0: 03c5 6d3e 4521 5b3e 06a6 cdbd 67c2 8cbd
000003d0: b347 d23d e482 80be 62d2 2f3e a69b edbc
000003e0: 2ed4 393e 9453 403e 0a17 883e 011a cc3d
000003f0: b1f6 03bb e3cb a33d ff3f 06be 3909 7bbe

bias_ih_l0 f4 [384]
0.17605038 0.13529623 0.113236696 -0.04159742 0.1826293 0.015807198 0.09079925 -0.032147065
0.14139162 0.12492006 -0.07216292 -0.05301187 -0.017689921 0.12790328 0.20072202 0.03639233
-0.009075324 0.03712169 0.18252032 0.11793727 -0.081706285 0.19124202 0.07213068 0.1236574
0.0008780367 0.12222936 0.16921763 0.030469613 0.014509096 0.042243265 0.26059332 0.20339866
-0.060506534 0.14024879 0.16572288 -0.015884813 -0.0032453325 0.042098768 0.16637759 0.31720322
-0.03269985 -0.07564337 -0.014642123 -0.03543036 0.11749347 0.040445723 -0.020947294 0.39193997
0.23408823 0.09377284 0.12921579 -0.18823373 0.08003821 0.27296653 -0.005383018 0.05786016
0.23629667 0.028191833 0.1377409 0.092923366 -0.10026408 0.33043173 0.10484222 0.09640655
0.14091824 0.13465512 -0.049389087 -0.009908718 0.13993424 0.13241193 0.15294537 0.1351227
-0.07102691 -0.048284203 0.11060411 -0.030012451 0.014482319 0.14438047 -0.13070211 -0.047069978
0.13069107 0.10518888 0.15619424 0.17708367 0.32831213 0.17506817 0.023404043 0.1394344
0.08977161 0.18940343 0.29106185 -0.07469914 -0.012033749 0.033913754 0.23265958 0.42967343
0.09918976 0.22630548 0.0911968 -0.14765298 0.10578788 0.06781157 -0.07853551 0.03957793
0.061660815 0.12024689 0.031860787 0.1917662 -0.018271811 0.19608167 0.17387185 0.14866616
0.13070528 0.22380584 0.015095655 0.13744406 0.05162295 0.11408922 0.037533607 0.28451818
0.20387742 0.16146612 0.19150724 -0.03005797 0.03753209 -0.05596124 0.10374133 0.04460157
0.072537445 0.0031329726 -0.116226956 -0.15215439 -0.19384047 0.0039690617 0.010143128 0.06608936
0.24790324 0.015939802 -0.066018924 0.13670981 0.16943595 -0.08250747 -0.048753597 -0.20444901
-0.1854304 0.1975622 -0.09848154 0.21379183 0.24178961 0.04569252 -0.17076671 -0.0232596
0.28965345 0.0040730895 -0.14721636 0.13629328 0.40066862 -0.11467604 -0.0470482 -0.34916022
0.52425885 -0.06529793 -0.15907788 -0.1028804 -0.091235645 -0.12360175 0.41245615 -0.03785186
-0.26211625 -0.2410563 0.09650814 0.37985778 0.2411771 0.0234953 0.30405024 -0.13666798
-0.27947378 -0.042209893 0.07181556 -0.06688116 0.20062186 0.46272126 -0.11340614 0.11303316
-0.012422771 0.14535736 -0.16435419 -0.056008693 0.012745684 -0.34909296 -0.19922033 -0.093077905
-0.27499047 0.58979744 0.17833228 -0.17323343 0.37887275 -0.123213954 -0.31289 -0.016602067
-0.06140025 0.12571965 -0.24430448 0.28396267 0.13950136 -0.2213316 -0.116736785 -0.33346346
-0.32807624 0.24137197 -0.108355306 -0.024403956 0.10221018 -0.29942825 -0.017758531 -0.057706684
-0.12188331 -0.07245506 0.22655433 0.10550716 0.39013004 0.1577303 -0.14491057 0.056843895
0.14754915 -0.24052982 0.34770223 0.001801979 -0.043223184 -0.15237191 0.064086325 0.018740332
0.23374158 0.18229596 -0.19604772 -0.39385828 0.008250658 -0.37689006 0.22248687 -0.18669334
-0.08561794 -0.3800568 -0.29369307 0.07062773 0.19010672 0.087392285 -0.13987862 0.43477535
0.23739786 0.257613 0.30074576 -0.011543494 0.33774573 -0.032570723 0.089362346 0.24527271
00000000: 8d46 343e 188b 0a3e a4e8 e73d 0e62 2abd
00000010: 2d03 3b3e 197e 813c f5f4 b93d a4ac 03bd
00000020: f7c8 103e 17d6 ff3d 27ca 93bd f922 59bd
00000030: 74ea 90bc 14f9 023e 138a 4d3e 2010 153d
00000040: abb0 14bc ea0c 183d 9be6 3a3e 1889 f13d
00000050: a055 a7bd f3d4 433e 40b9 933d 1740 fd3d
00000060: 0c2c 663a 6353 fa3d 6347 2d3e 699b f93c
00000070: 8fb7 6d3c 4607 2d3d 7d6c 853e bd47 503e
00000080: b3d5 77bd 619d 0f3e 42b3 293e de20 82bc
00000090: a5af 54bb c26f 2c3d e35e 2a3e 7668 a23e
000000a0: 47f0 05bd e9ea 9abd 84e5 6fbc 6d1f 11bd
000000b0: 6ba0 f03d 6aaa 253d a999 abbc 5bac c83e
000000c0: d3b4 6f3e fa0b c03d 2551 043e 58c0 40be
000000d0: 13eb a33d 45c2 8b3e 0764 b0bb c6fe 6c3d
000000e0: c1f7 713e 8ff2 e63c f30b 0d3e 9b4e be3d
000000f0: 4157 cdbd 592e a93e 85b7 d63d cc70 c53d
00000100: df4c 103e 08e3 093e 364c 4abd 2d58 22bc
00000110: ec4a 0f3e fe96 073e b69d 1c3e 9b5d 0a3e
00000120: 8e76 91bd a8c5 45bd 6884 e23d acdc f5bc
00000130: 4047 6d3c 79d8 133e c6d6 05be 73cc 40bd
00000140: e1d3 053e 446d d73d 62f1 1f3e 6c55 353e
00000150: 8718 a83e 1245 333e d6b9 bf3c e4c7 0e3e
00000160: 2eda b73d f9f2 413e 0f06 953e ddfb 98bd
00000170: 3429 45bc 26e9 0a3d 503e 6e3e 28fe db3e
00000180: 0024 cb3d a0bc 673e 63c5 ba3d 5832 17be
00000190: 51a7 d83d cbe0 8a3d 3ad7 a0bd 781c 223d
000001a0: 0d90 7c3d 0044 f63d 7580 023d 5c5e 443e
000001b0: c4ae 95bc a2c9 483e 760b 323e f13b 183e
000001c0: 9bd7 053e 5c2d 653e c453 773c 23be 0c3e
000001d0: 9672 533d 9ca7 e93d d7bc 193d 5eac 913e
000001e0: 3ec5 503e 6057 253e 791a 443e 223c f6bc
000001f0: 40bb 193d 9d37 65bd 5676 d43d 23b0 363d
00000200: 838e 943d 8f52 4d3b 6608 eebd 5cce 1bbe
00000210: 1e7e 46be e70e 823b 5d2f 263c dc59 873d
00000220: 59da 7d3e 3094 823c ee34 87bd a8fd 0b3e
00000230: 9e80 2d3e adf9 a8bd dab1 47bd 155b 51be
00000240: 77e1 3dbe bf4d 4a3e b1b0 c9bd 3fec 5a3e
00000250: b297 773e 1428 3b3d 78dd 2ebe eb8a bebc
00000260: 754d 943e 8d77 853b e3bf 16be 7790 0b3e
00000270: 7024 cd3e 46db eabd 9db5 40bd 21c5 b2be
00000280: d435 063f ecba 85bd 50e5 22be f6b2 d2bd
00000290: c1d9 babd ea22 fdbd 742d d33e 8d0a 1bbd
000002a0: 1a34 86be 76d7 76be 0fa6 c53d b87c c23e
000002b0: 21f7 763e 3779 c03c 79ac 9b3e b1f2 0bbe
000002c0: 3017 8fbe 48e4 2cbd 0914 933d fdf8 88bd
000002d0: d16f 4d3e cde9 ec3e 7a41 e8bd ee7d e73d
000002e0: e188 4bbc 8fd8 143e 774c 28be 5f69 65bd
000002f0: 46d3 503c 50bc b2be 6a00 4cbe a19f bebd
00000300: 8dcb 8cbe f7fc 163f bd9c 363e 1b64 31be
00000310: 9cfb c13e 9957 fcbd 1e33 a0be 0f01 88bc
00000320: d47e 7bbd a7bc 003e f42a 7abe 8e63 913e
00000330: 72d9 0e3e c0a4 62be b213 efbd b9bb aabe
00000340: 9cf9 a7be 372a 773e 63e9 ddbd ceea c7bc
00000350: 9253 d13d a94e 99be 577a 91bc d85d 6cbd
00000360: f59d f9bd 5263 94bd dcfd 673e 2314 d83d
00000370: 20bf c73e 0d84 213e 7063 14be 25d5 683d
00000380: 2017 173e 734d 76be 0706 b23e 6230 ec3a
00000390: cb0a 31bd 6207 1cbe b13f 833d 5385 993c
000003a0: f459 6f3e cbab 3a3e bcc0 48be cba7 c9be
000003b0: c52d 073c bcf7 c0be 99d3 633e 8a2c 3fbe
000003c0: 7558 afbd ce96 c2be f05e 96be 45a5 903d
000003d0: 56ab 423e bafa b23d 573c 0fbe e09a de3e
000003e0: 6d18 733e dae5 833e 59fb 993e ec20 3dbc
000003f0: 02ed ac3e e168 05bd 9b03 b73d c528 7b3e

bias_hh_l0 f4 [384]
0.15109853 0.20558587 0.109437734 -0.015330844 0.1814213 0.01275091 0.01789923 -0.060271885
0.09676715 0.019841762 -0.06780323 0.014730664 0.049592655 0.091318674 0.12465786 0.110490136
0.06957967 0.08619877 0.05584193 0.053144936 0.05062898 0.1894698 0.019861225 0.072894
-0.064724356 0.114056125 0.034467068 -0.05193226 -0.02615778 0.0029799435 0.18076347 0.11524346
-0.10525389 0.16597016 0.21868621 0.024613088 0.12323091 0.12811804 0.14480272 0.24061514
0.0078090737 -0.037706822 0.05448319 -0.083102636 0.14656283 0.033555977 0.11634698 0.3493862
0.21159604 0.1508 0.16351035 -0.06468502 0.119821265 0.15802567 -0.085535645 0.22143193
0.2541372 0.13886179 0.09517828 0.23647948 -0.1810267 0.17820497 0.068427205 -0.025336219
0.09454344 0.16912009 -0.038239628 0.034191806 0.087191954 0.045873027 0.28366762 0.16669272
0.02876601 0.07112584 0.19944711 0.032320127 -0.045241695 0.15495647 -0.050271217 0.041761078
0.1345174 0.053329483 0.15296859 0.07135726 0.21243697 0.26220393 0.036374655 0.24333
0.0064624106 0.11844875 0.2891529 -0.038597196 -0.122141644 0.033852592 0.10102499 0.40525973
0.12612194 0.2305933 0.07278942 -0.10599806 0.19057956 0.14692359 0.06863849 0.114924654
0.13643973 0.053683322 0.065331064 0.044952005 0.11094356 0.21950266 0.065886855 0.061811503
0.22431454 0.1405478 0.03451035 0.11052944 0.15843333 -0.017577756 0.0070640864 0.1978871
0.14331074 0.062012434 0.18000509 -0.050361354 0.12345149 -0.06700914 0.003025584 0.00043880293
-0.010621373 0.08778953 -0.2296261 -0.24163091 -0.15163012 -0.063224524 -0.0033068731 0.20081553
0.27290985 -0.039144587 -0.04495781 0.051330753 0.23553991 -0.038730346 -0.19963343 -0.1884742
-0.066264264 0.1847045 0.04103164 0.19625045 0.34191802 -0.016929207 -0.22705919 0.012673931
0.3382605 0.03164032 -0.083889455 0.19163397 0.30765575 -0.1022972 -0.13111699 -0.36722395
0.4434084 -0.02173018 -0.21458098 -0.091890186 -0.13012245 -0.20915368 0.52923924 -0.13460015
-0.26440695 -0.32256734 0.11564468 0.28785425 0.21806724 0.009025481 0.30258518 -0.073493324
-0.24270783 -0.07626833 0.015380962 -0.118834995 0.15519421 0.40350446 -0.025407633 0.018527372
0.0053972458 0.08078224 -0.17612894 -0.07298051 0.0011784412 -0.38418728 -0.20533442 -0.09813749
-0.2756477 0.6571724 0.06478472 -0.111562036 0.26783395 -0.13440838 -0.31099927 -0.102286555
-0.022606824 0.014465022 -0.19609614 0.4342904 0.09049212 -0.18460709 -0.06834314 -0.36150488
-0.17563003 0.09216388 -0.077207014 -0.01203547 0.08968198 -0.21751292 -0.06703038 0.019350473
-0.12223658 0.021459907 0.15876181 0.013206129 0.3766091 0.06934657 -0.051705293 0.0048783342
0.14551553 -0.31580874 0.2676624 0.022088679 -0.031704832 -0.18327546 0.06812161 0.048712432
0.114663 0.121390134 -0.2154926 -0.24528453 -0.03805699 -0.2607738 0.23674531 -0.17530876
-0.0007658236 -0.4508546 -0.34713048 0.09632723 0.22558281 0.060097996 0.012619999 0.40383708
0.30008313 0.28643876 0.3556004 -0.117481455 0.35141802 -0.044313777 0.23628373 0.2601904
00000000: 93b9 1a3e 1a85 523e e420 e03d 382e 7bbc
00000010: 81c6 393e 31e9 503c 68a1 923c a7df 76bd
00000020: db2d c63d 318b a23c 6bdc 8abd e258 713c
00000030: ab21 4b3d 4905 bb3d 9f4c ff3d a748 e23d
00000040: c97f 8e3d fb88 b03d 82ba 643d 81ae 593d
00000050: 5560 4f3d 5f04 423e 02b4 a23c 7349 953d
00000060: 348e 84bd 4296 e93d 572d 0d3d ecb6 54bd
00000070: d748 d6bc 284b 433b 0f1a 393e c304 ec3d
00000080: 5a8f d7bd 15f4 293e 47ef 5f3e 63a1 c93c
00000090: 7d60 fc3d 6031 033e 2a47 143e d163 763e
000000a0: 42e3 ff3b 7872 1abd c429 5f3d b731 aabd
000000b0: 9114 163e fe71 093d 5347 ee3d bfe2 b23e
000000c0: a2ac 583e 516b 1a3e 426f 273e 9479 84bd
000000d0: da64 f53d 7bd1 213e 502d afbd 0dbf 623e
000000e0: 451e 823e c931 0e3e d4ec c23d ad27 723e
000000f0: 105f 39be 5d7b 363e 9023 8c3d e78d cfbc
00000100: fe9f c13d d12d 2d3e 28a1 1cbd b50c 0c3d
00000110: b291 b23d 5be5 3b3d e23c 913e 7fb1 2a3e
00000120: b2a6 eb3c 6daa 913d dd3b 4c3e 1c62 043d
00000130: 5b4f 39bd e9ac 1e3e 31e9 4dbd aa0d 2b3d
00000140: eebe 093e 0470 5a3d cca3 1c3e c123 923d
00000150: 1489 593e 983f 863e 97fd 143d 802b 793e
00000160: a1c2 d33b 4295 f23d d90b 943e 1818 1ebd
00000170: 6625 fabd 04a9 0a3d 31e6 ce3d 347e cf3e
00000180: 1c26 013e a620 6c3e 9f12 953d 8315 d9bd
00000190: 4a27 433e 2373 163e 5692 8c3d 9e5d eb3d
000001a0: dbb6 0b3e 0be3 5b3d 4bcc 853d 981f 383d
000001b0: 6136 e33d 4ec5 603e b0ef 863d 0f2e 7d3d
000001c0: b6b2 653e c3eb 0f3e ba5a 0d3d 425d e23d
000001d0: 593c 223e 3aff 8fbc da79 e73b eaa2 4a3e
000001e0: 0dc0 123e c000 7e3d 4153 383e b547 4ebd
000001f0: 23d4 fc3d 173c 89bd e048 463b 220f e639
00000200: 4405 2ebc ffca b33d 1b23 6bbe 186e 77be
00000210: ed44 1bbe dc7b 81bd 20b8 58bb 96a2 4d3e
00000220: d7ba 8b3e 1356 20bd ae25 38bd 3240 523d
00000230: 6031 713e b6a3 1ebd b56c 4cbe 61ff 40be
00000240: 8fb5 87bd 2d23 3d3e cb10 283d e1f5 483e
00000250: e10f af3e 1faf 8abc 3482 68be 52a6 4f3c
00000260: 7b30 ad3e 4899 013d 3cce abbd b23b 443e
00000270: 0e85 9d3e 3281 d1bd 8843 06be c704 bcbe
00000280: 6d06 e33e 7e03 b2bc 1ebb 5bbe ec30 bcbd
00000290: d23e 05be 622c 56be 397c 073f 9fd4 09be
000002a0: 5960 87be 8c27 a5be 1ed7 ec3d a261 933e
000002b0: 054d 5f3e 9cdf 133c 72ec 9a3e ab83 96bd
000002c0: 6788 78be 9232 9cbd 6e00 7c3c c35f f3bd
000002d0: 3beb 1e3e 2398 ce3e ab23 d0bc b7c6 973c
000002e0: 61db b03b 2971 a53d 255b 34be ce76 95bd
000002f0: ed75 9a3a 32b4 c4be 3043 52be 4ffc c8bd
00000300: b221 8dbe 733c 283f daad 843d a37a e4bd
00000310: 8821 893e 5aa2 09be 4c3b 9fbe 9d7b d1bd
00000320: f231 b9bc b3fe 6c3c 6dcd 48be 505b de3e
00000330: ef53 b93d a409 3dbe 7df7 8bbd 2b17 b9be
00000340: 5cd8 33be 6bc0 bc3d b61e 9ebd 6c30 45bc
00000350: 30ab b73d b5bb 5ebe 3947 89bd e284 9e3c
00000360: 2c57 fabd b0cc af3c 7592 223e 855e 583c
00000370: e8d2 c03e 9305 8e3d eec8 53bd 6fda 9f3b
00000380: 0602 153e afb1 a1be 0c0b 893e 51f3 b43c
00000390: eddc 01bd 90ac 3bbe 5883 8b3d b086 473d
000003a0: 6fd4 ea3d 649b f83d 18aa 5cbe de2b 7bbe
000003b0: a5e1 1bbd 2584 85be 5d6d 723e 2484 33be
000003c0: 8dc1 48ba 6ad6 e6be 16bb b1be 3647 c53d
000003d0: 2eff 663e 5129 763d 1dc4 4e3c bcc3 ce3e
000003e0: 7fa4 993e 1aa8 923e 4111 b63e 1e9a f0bd
000003f0: 10ed b33e 5d82 35bd 5df4 713e ad37 853e

weight f4 [16, 128]
-0.4836356 1.093496 -0.59329283 -1.2210325 -0.34392408 0.30086395 0.29465386 -0.49281114
0.26914188 -0.4750335 0.06503691 -0.4221293 -0.208795 -0.2957824 -0.1835567 -0.26596373
0.025547719 -0.094365135 0.51163876 -0.6220097 -0.5639432 0.72856855 0.13634583 -0.82958233
0.91425383 0.23454723 0.7421871 0.27193987 0.21861821 0.48901948 -0.12196009 0.023890782
0.59664726 -0.07168479 0.46376222 -0.12942335 -0.18888594 -0.08930114 -0.8141886 -0.32021338
-0.7525939 0.18975732 0.21420638 -0.1331367 -0.18828933 -0.42250234 -0.12999216 0.23176321
0.9541981 0.1504152 -0.26364937 -0.052562993 1.0541911 0.7253849 -0.47371858 0.64334685
-0.28395537 0.111638285 -0.12124542 0.30099073 -0.19469886 -0.727513 0.18458663 0.09426445
0.68427134 0.8135559 -0.43258557 0.009054194 1.0584085 0.06999529 0.16354628 -0.6449085
0.0147050945 -0.69750154 -0.5835456 -0.1738732 -0.1353852 0.14873406 0.31814682 -0.42644623
0.3790765 0.8097679 0.6814692 -0.37937713 -0.18210196 -1.0509075 0.21759415 0.5316144
-0.17240857 0.19756128 0.26393598 0.110111065 -0.08640712 0.074332915 0.68939155 -0.9952907
0.51132166 0.65682995 0.46290708 -0.31971496 -0.2604432 -0.29917186 -0.061768807 -0.24207151
-0.5984292 -0.37329653 -0.5675772 -0.4731519 -0.7809244 -0.28296304 -0.40516144 0.7937778
0.044516057 -0.7663725 -0.41422534 0.007839551 0.20086789 0.4223681 0.74094975 0.3329149
0.15080965 -0.3555905 0.49920526 -0.013796398 -0.26938817 -0.55121106 0.53589725 1.0725085
0.15981725 -0.08960123 -0.1946284 -0.36654273 0.619052 -0.12581868 -0.20010406 0.39598215
0.21146931 -0.13706332 0.20746213 0.3888271 -0.22213255 -0.048712313 -0.36522672 0.2665966
-0.17790185 0.17086118 0.34281164 0.23211722 0.27071935 0.120477304 0.41672894 0.041746195
-0.042180587 0.2476704 0.3629034 -0.080605485 -0.19863527 -0.2972486 0.089512594 -0.26634848
0.26690805 -0.28461784 -0.44179013 -0.41204092 -0.22683577 0.19139715 0.19358188 0.031217044
0.24999486 0.11990073 0.36114365 -0.0022357558 0.07326229 -0.061445624 0.07937147 0.34555936
-0.4875076 0.3569786 -0.29919857 0.54331034 -0.13188681 0.40527695 -0.39229253 0.12550674
0.2983769 -0.24486639 0.46179253 0.07644328 -0.42011955 0.23389553 -0.30301473 -0.60482216
-0.4294693 -0.33307615 -0.13454859 -0.094911546 0.13252805 0.1254199 0.40548456 -0.34807062
0.25330368 0.7449429 -0.562722 0.030521981 -0.032617353 0.32181075 0.51079416 0.027417006
0.27439135 0.21648347 0.039249882 0.34304127 0.017438337 0.47671604 -0.33003104 0.44846162
0.4755716 -0.095230296 -0.18473414 0.0038102819 0.11315662 0.24073212 -0.38169107 0.0636453
-0.41454843 -0.2476176 -0.038051125 -0.1219826 0.24660535 -0.14287594 -0.50244826 0.0019576047
0.274185 0.3804165 -0.29058778 0.18004045 -0.124874175 0.09541489 0.06996257 -0.36757994
-0.18815061 0.30044487 -0.055837154 -0.39649272 -0.062726125 0.17015855 -0.5674207 -0.111555
0.07737532 -0.15805784 0.11286786 -0.18587379 0.26219562 0.16919976 -0.26594818 -0.19265373
00000000: 169f f7be adf7 8b3f 0ae2 17bf cb4a 9cbf
00000010: d116 b0be d70a 9a3e dfdc 963e be51 fcbe
00000020: f7cc 893e 9737 f3be 1232 853d 5521 d8be
00000030: 5bce 55be ca70 97be 4af6 3bbe 662c 88be
00000040: 7349 d13c 8242 c1bd c2fa 023f 073c 1fbf
00000050: 955e 10bf 7883 3a3f 3e9e 0b3e 825f 54bf
00000060: 8a0c 6a3f 262d 703e f9ff 3d3f b43b 8b3e
00000070: 74dd 5f3e c360 fa3e 36c6 f9bd 9ab6 c33c
00000080: e0bd 183f 7acf 92bd 3e72 ed3e 8e87 04be
00000090: 516b 41be 84e3 b6bd aa6e 50bf 02f3 a3be
000000a0: fea9 40bf be4f 423e eb58 5b3e fd54 08be
000000b0: ebce 40be 3a52 d8be aa1c 05be 5653 6d3e
000000c0: 5446 743f 7106 1a3e 0dfd 86be 4b4c 57bd
000000d0: bcef 863f d3b2 393f 3e8b f2be 61b2 243f
000000e0: 9962 91be 9da2 e43d 854f f8bd 751b 9a3e
000000f0: 235f 47be 4b3e 3abf 4704 3d3e b80d c13d
00000100: 682c 2f3f 3345 503f db7b ddbe 0b58 143c
00000110: ee79 873f b159 8f3d ad78 273e b918 25bf
00000120: a3ed 703c 768f 32bf 3f63 15bf d10b 32be
00000130: 6ba2 0abe be4d 183e 24e4 a23e 2957 dabe
00000140: 5116 c23e f34c 4f3f c474 2e3f b83d c2be
00000150: f078 3abe 2384 86bf 00d1 5e3e e217 083f
00000160: df8b 30be 814d 4a3e 9e22 873e e981 e13d
00000170: 37f6 b0bd db3b 983d f77b 303f 5fcb 7ebf
00000180: fae5 023f 0226 283f 2802 ed3e aeb1 a3be
00000190: d058 85be 0e2d 99be 4a01 7dbd 98e1 77be
000001a0: a832 19bf b920 bfbe bd4c 11bf f740 f2be
000001b0: a9ea 47bf 88e0 90be 5271 cfbe 0635 4b3f
000001c0: 7856 363d fd30 44bf 5815 d4be 7671 003c
000001d0: 50b0 4d3e a240 d83e e2ae 3d3f d273 aa3e
000001e0: d86d 1a3e f50f b6be d597 ff3e 4a0a 62bc
000001f0: 3fed 89be 2b1c 0dbf 9030 093f f547 893f
00000200: 22a7 233e da80 b7bd ab4c 47be 7dab bbbe
00000210: 317a 1e3f 9dd6 00be 14e8 4cbe 2cbe ca3e
00000220: 698b 583e 545a 0cbe f470 543e 5814 c73e
00000230: b776 63be 9086 47bd fffe babe 597f 883e
00000240: e72b 36be 3cf6 2e3e 0285 af3e 23b0 6d3e
00000250: ba9b 8a3e cebc f63d 7f5d d53e 0ffe 2a3d
00000260: 8dc5 2cbd 4f9d 7d3e 79ce b93e 7d14 a5bd
00000270: 0b67 4bbe f830 98be 6152 b73d d45e 88be
00000280: 2ca8 883e 6eb9 91be 5132 e2be 07f7 d2be
00000290: a347 68be 9dfd 433e 543a 463e e3ba ff3c
000002a0: a7fe 7f3e 848e f53d d2e7 b83e c285 12bb
000002b0: 8a0a 963d 68ae 7bbd 828d a23d 28ed b03e
000002c0: 999a f9be e6c5 b63e 8e30 99be 6316 0b3f
000002d0: 560d 07be 7680 cf3e 91da c8be d784 003e
000002e0: dbc4 983e 41be 7abe 1270 ec3e 4b8e 9c3d
000002f0: e919 d7be 4f82 6f3e bf24 9bbe a0d5 1abf
00000300: 66e3 dbbe f588 aabe 1bc7 09be fc60 c2bd
00000310: 6fb5 073e 136e 003e ac9b cf3e 5036 b2be
00000320: 05b1 813e 94b4 3e3f 8d0e 10bf 3c09 fa3c
00000330: c699 05bd 61c4 a43e 68c3 023f a199 e03c
00000340: 067d 8c3e d8ad 5d3e 7cc4 203d 1ba3 af3e
00000350: d8da 8e3c 2014 f43e d4f9 a8be c39c e53e
00000360: 1f7e f33e 1a08 c3bd f22a 3dbe ecb5 793b
00000370: a8be e73d 7b82 763e 036d c3be 7858 823d
00000380: b13f d4be 788f 7dbe 7fdb 1bbd 03d2 f9bd
00000390: 1d86 7c3e 124e 12be 73a0 00bf 284b 003b
000003a0: fa61 8c3e f4c5 c23e ecc7 94be 865c 383e
000003b0: 08be ffbd e268 c33d 8948 8f3d 7033 bcbe
000003c0: 8eaa 40be e9d3 993e 80b5 64bd 1801 cbbe
000003d0: 8e76 80bd 0b3e 2e3e 7c42 11bf f376 e4bd
000003e0: f476 9e3d ead9 21be 4427 e73d b355 3ebe
000003f0: 813e 863e b442 2d3e 5c2a 88be 0547 45be

bias f4 [16]
-2.2400537 0.015398202 0.16719206 0.028351236 -0.056917496 0.008541322 0.104649946 -0.344191
0.061802067 -0.04650222 0.042994875 -0.26099685 0.07964141 -0.18845749 -0.3537178 -0.7015172
00000000: 0a5d 0fc0 be48 7c3c 6534 2b3e da40 e83c
00000010: 5222 69bd e7f0 0b3c b652 d63d ce39 b0be
00000020: 2a24 7d3d 1d79 3ebd 651b 303d 61a1 85be
00000030: 091b a33d 00fb 40be 801a b5be a296 33bf
