checkpoints2/beat_encoder.pth (torch_old, 308661 bytes, 4 tensors)

weight_ih_l0 f4 [384, 64]
-0.0690762 0.14455925 0.19693369 -0.08798785 -0.051735524 0.10372448 -0.15308005 0.14389127
0.13607226 0.04133109 -0.15919234 -0.07180867 -0.020297617 -0.11200467 -0.11485524 -0.089314505
-0.052710693 -0.0009898097 0.10189041 -0.022111377 -0.101227745 -0.05438996 -0.14503846 -0.05183477
-0.0708718 0.008280077 -0.06540651 0.11198449 0.0001664188 0.16586526 -0.14257836 0.08523916
-0.20192781 0.13939506 0.09491415 -0.07795951 -0.15827906 0.12575714 -0.15419899 0.062972546
0.03142007 -0.12137043 0.015409526 -0.035965502 -0.1445206 0.034136508 -0.099562556 0.13173266
0.06898577 -0.02773409 -0.19542234 0.072127864 -0.08463536 0.0022799957 -0.1947861 0.04212423
-0.12079901 0.040510457 -0.074820794 0.13415913 -0.13856852 0.079629876 -0.1117716 0.08756552
-0.018016972 0.051662393 -0.100723945 -0.11817868 -0.09890533 -0.020731555 -0.18363126 -0.064930566
-0.14996882 -0.14668131 -0.13061313 -0.056899045 0.034976143 0.054824825 -0.033889797 0.024292612
0.066338524 0.08129879 0.062202387 -0.14404485 0.029270692 -0.16231705 0.09569373 0.039542146
-0.00964138 -0.07892964 -0.012840117 0.09505131 0.0014384849 0.09892374 -0.19009851 -0.00736827
-0.07457781 -0.017240316 -0.09369118 -0.032712556 -0.11921337 -0.027868526 -0.109504655 -0.15795875
-0.13105643 -0.046632428 -0.11012556 0.051618412 0.0086302385 0.045941122 0.0736433 0.096106365
-0.05255665 0.0020548226 0.05461596 -0.03069235 -0.10419206 -0.100718416 0.066511706 0.120522164
-0.09413103 -0.022345828 -0.073429465 0.057437148 -0.08113738 0.010971116 -0.082763575 0.00915917
-0.18460493 0.019311452 -0.027585529 -0.09576374 0.106850706 -0.2041568 0.05340903 0.15819526
0.016839372 -0.024356093 -0.12358299 -0.17780623 -0.044367455 0.18773758 0.13326518 0.13497262
0.015132099 0.039649874 0.001061268 -0.01076564 -0.06162323 0.16707632 0.15332656 -0.11343686
0.006830482 -0.093642265 0.09835403 0.04048763 0.009409175 0.16035925 0.08106088 -0.254219
-0.10491203 0.04107301 0.11203613 0.0188142 -0.0014258388 -0.251557 0.070976324 -0.07196649
-0.035992116 -0.06104269 -0.09226242 -0.23052743 0.016014332 0.09339106 0.14332497 0.015452326
-0.03739889 -0.06505039 -0.015269384 0.080326706 0.020289522 0.08424051 -0.05524881 -0.21568884
-0.011641801 0.025981352 0.11723655 0.045124173 0.06199567 0.15163575 -0.013950794 -0.18631914
0.30257216 0.02515849 0.053658556 0.08386261 0.024240656 0.09106556 -0.00724643 0.053448953
0.015210422 -0.0062279007 0.061101608 0.014056356 -0.00874794 0.2755024 0.023976283 0.010257951
0.015723405 0.07329273 0.22635196 -0.028884668 0.016148726 0.1006995 0.043665834 -0.0031854622
0.0058702733 0.117831975 -0.066496074 -0.046064004 4.778193e-05 -0.00071113644 -0.03916431 0.16732718
0.14897493 0.06611535 -0.06187795 0.009595876 0.098297186 -0.010998457 0.11566638 0.17777653
0.072534256 0.0050316122 0.044537682 0.044727154 0.023804788 0.09677073 0.07642841 0.17895238
-0.12412482 0.12547038 0.10334935 0.08525883 0.112222545 0.040209938 -0.12091941 0.16092879
0.044651855 0.09470489 0.123739734 0.066311374 0.1573308 -0.019905126 0.13061862 0.2416363
00000000: d377 8dbd 5707 143e fca8 493e f932 b4bd
00000010: a1e8 53bd 806d d43d 04c1 1cbe 3c58 133e
00000020: 8756 0b3e ca4a 293d 5103 23be 6d10 93bd
00000030: 3047 a6bc b462 e5bd 3939 ebbd 86ea b6bd
00000040: 2be7 57bd 81bc 81ba ebab d03d eb22 b5bc
00000050: 7e50 cfbd 02c8 5ebd f684 14be b250 54bd
00000060: 3c25 91bd 29a9 073c d9f3 85bd 2058 e53d
00000070: b580 2e39 95d8 293e 1000 12be de91 ae3d
00000080: 2ac6 4ebe 94bd 0e3e 5a62 c23d 3ca9 9fbd
00000090: e813 22be 7bc6 003e 57e6 1dbe c0f7 803d
000000a0: 55b2 003d 0f91 f8bd 3d78 7c3c 9050 13bd
000000b0: 35fd 13be b9d2 0b3d 74e7 cbbd ede4 063e
000000c0: 6948 8d3d 9a32 e3bc cb1c 48be c6b7 933d
000000d0: 4e55 adbd fb6b 153b 0276 47be 758a 2c3d
000000e0: 7965 f7bd 4bee 253d a53b 99bd 0361 093e
000000f0: e8e4 0dbe fd14 a33d 82e8 e4bd 8d55 b33d
00000100: 5498 93bc f29b 533d 5b48 cebd aa07 f2bd
00000110: e18e cabd 39d5 a9bc d509 3cbe 51fa 84bd
00000120: 6d91 19be a033 16be 73bf 05be f90e 69bd
00000130: 2543 0f3d ff8f 603d 07d0 0abd 4d01 c73c
00000140: 7edc 873d fb7f a63d eec7 7e3d 7e80 13be
00000150: 17c9 ef3c 7136 26be 13fb c33d f2f6 213d
00000160: e1f6 1dbc dda5 a1bd 5b5f 52bc 43aa c23d
00000170: 8b8b bc3a 8898 ca3d 2fa9 42be 8771 f1bb
00000180: 40bc 98bd 903b 8dbc 29e1 bfbd 9afd 05bd
00000190: 2426 f4bd 894c e4bc fa43 e0bd f0bf 21be
000001a0: a833 06be a501 3fbd 8289 e1bd d46d 533d
000001b0: d865 0d3c c22c 3c3d 4cd2 963d 6ad3 c43d
000001c0: a445 57bd 34aa 063b fcb4 5f3d 866e fbbc
000001d0: a662 d5bd 7545 cebd 4a37 883d 53d4 f63d
000001e0: c5c7 c0bd 990e b7bc 3062 96bd 3743 6b3d
000001f0: 5b2b a6bd 32c0 333c f37f a9bd 5810 163c
00000200: 1309 3dbe 0d33 9e3c 0cfb e1bc c81f c4bd
00000210: 8bd4 da3d 7b0e 51be 6dc3 5a3d f0fd 213e
00000220: b9f2 893c 6e86 c7bc 1419 fdbd d612 36be
00000230: a6ba 35bd 483e 403e ab76 083e 4336 0a3e
00000240: a0ec 773c e867 223d 3f1a 8b3a 5e62 30bc
00000250: a468 7cbd 0e16 2b3e a301 1d3e 9651 e8bd
00000260: 3cd2 df3b 84c7 bfbd d66d c93d 5bd6 253d
00000270: f128 1a3c 3735 243e 3f03 a63d fe28 82be
00000280: 1edc d6bd 2c3c 283d 3373 e53d 3d20 9a3c
00000290: 36e3 baba 14cc 80be 095c 913d 2b63 93bd
000002a0: 786c 13bd e607 7abd 14f4 bcbd 620f 6cbe
000002b0: 7d30 833c d043 bf3d c8c3 123e c12b 7d3c
000002c0: 942f 19bd 2439 85bd 702c 7abc 5482 a43d
000002d0: 3636 a63c 4a86 ac3d 944c 62bd 89dd 5cbe
000002e0: 41bd 3ebc d8d6 d43c b719 f03d 20d4 383d
000002f0: 2cef 7d3d 6746 1b3e df91 64bc 72ca 3ebe
00000300: bdea 9a3e 2d19 ce3c 13c9 5b3d 29c0 ab3d
00000310: 5794 c63c 9580 ba3d 7673 edbb 4aed 5a3d
00000320: 2235 793c 6b13 ccbb ae45 7a3d a14c 663c
00000330: 8553 0fbc a70e 8d3e e969 c43c f710 283c
00000340: 5fce 803c 801a 963d cfc8 673e 8a9f ecbc
00000350: 554a 843c 8a3b ce3d f2da 323d 30c3 50bb
00000360: 6c5b c03b e451 f13d 182f 88bd 9cad 3cbd
00000370: 7569 4838 8f6b 3aba c16a 20bd d157 2b3e
00000380: e28c 183e 7c67 873d bc73 7dbd 0538 1d3c
00000390: 0950 c93d df32 34bc 7fe2 ec3d 0d0b 363e
000003a0: d78c 943d 39e0 a43b 256d 363d d233 373d
000003b0: 4202 c33c bc2f c63d 8086 9c3d 4b3f 373e
000003c0: 2735 febd 4f7b 003e d3a8 d33d 2e9c ae3d
000003d0: efd4 e53d 2db3 243d 98a4 f7bd 84ca 243e
000003e0: dde4 363d a3f4 c13d 426b fd3d 42ce 873d
000003f0: 531b 213e 1310 a3bc e3c0 053e 826f 773e

weight_hh_l0 f4 [384, 128]
-0.11247926 -0.09947211 -0.15054737 0.013567671 -0.00996412 0.18015026 -0.08378022 0.058811724
0.10795655 0.07781696 0.14595953 -0.093739696 -0.023438595 0.023326898 -0.002277765 0.24647379
-0.015386681 -0.009237577 -0.16617732 0.062791474 0.1325589 0.1194232 -0.10299216 0.05439141
0.13696918 0.1266964 0.049455907 0.014207757 -0.15059334 0.105590455 -0.052235648 0.052309774
0.17549698 -0.005180454 0.1494327 0.041807696 0.0050451458 0.06673244 0.097861454 -0.05662417
0.286811 -0.026697591 0.22120856 0.02071801 -0.23416424 0.028854374 -0.11956437 -0.1641686
-0.15475461 -0.03245646 -0.06781978 0.0016604203 -0.08429758 -0.062457304 0.048680983 0.07847977
0.13257468 -0.10140757 0.005565839 -0.041262105 0.121250495 -0.02350558 0.14935908 -0.15540402
-0.18080641 -0.016056327 0.11256047 0.008801238 -0.1443938 0.08185265 0.001977138 0.14297006
0.048161924 -0.052078787 0.13374789 0.00527885 0.19280721 -0.04943742 -0.053389195 0.0712595
0.09234051 0.0466118 0.08670225 0.16680054 0.01832215 0.09772033 0.14069258 0.11901066
-0.05086921 0.22817062 -0.27670953 0.0051120133 -0.11001985 -0.17589775 -0.034846842 0.06893642
-0.019143282 -0.039693832 -0.08691056 -0.1165628 -0.075017445 0.012570451 0.005755004 -0.0022643816
0.07029388 0.006532354 0.12098343 0.2234502 -0.03528736 -0.10498539 -0.009996693 0.027022991
-0.005097948 0.02358668 -0.14482407 0.048008304 -0.035553183 -0.11398881 -0.083892144 -0.034770638
0.012315401 -0.00763166 0.07594382 -0.023680083 -0.22185406 -0.01110959 -0.03144433 -0.021461518
-0.109181814 -0.05090958 0.04311126 0.06757314 -0.15449788 -0.06553973 -0.022913022 -0.11183053
-0.08045575 -0.0084561575 0.088599265 0.08392902 0.015687918 0.045309965 -0.03983747 0.07760023
0.031326722 -0.1452592 0.022928864 -0.017054958 0.04394474 0.021669481 0.11570981 -0.027143652
-0.076899186 0.06130322 -0.0011658024 0.13425584 -0.042943347 -0.07895267 -0.07114565 -0.13598207
0.07589584 0.020332757 -0.060981583 0.09159165 0.047488373 -0.064990625 -0.0045270044 -0.14131494
0.014572225 0.010730448 -0.07504801 -0.057108607 -0.09798614 -0.072197564 -0.021723263 0.0845403
0.13779841 0.1312395 -0.04616082 -0.026582386 0.09377708 0.010536211 -0.024933264 -0.18428606
-0.12682131 -0.016128303 0.036349833 0.1303748 -0.091966935 0.034609973 0.03434299 0.07920182
0.0153563 -0.08750855 -0.0516795 0.07544612 0.0130324485 -0.0642277 0.03479554 -0.058329713
-0.03316954 0.023750717 0.053656418 0.057787005 -0.07070078 0.0721368 0.04813677 -0.003531017
-0.029972414 -0.025326123 -0.17767988 0.08536952 -0.003420656 -0.0029552656 -0.029961277 -0.018822793
-0.1006033 -0.05333734 0.08473954 -0.07436961 0.022643225 0.06301561 -0.023030028 -0.04252903
0.012110208 -0.07015438 0.018540666 -0.105621286 -0.015965493 0.03442102 -0.04629875 0.021708835
-0.05778252 0.068939134 0.0023984665 -0.13734446 0.007387078 -0.043963034 -0.07457465 0.045377605
0.045304768 -0.09930513 -0.04776567 -0.042105753 0.15824935 0.07091186 0.011709887 -0.059702348
-0.005602639 0.026807787 -0.051577393 0.09155922 -0.09271526 0.07698701 0.098827004 -0.07269449
00000000: 875b e6bd 09b8 cbbd 1729 1abe f04a 5e3c
00000010: 8c40 23bc 4f79 383e f794 abbd 90e4 703d
00000020: 5318 dd3d 805e 9f3d 6a76 153e 99fa bfbd
00000030: 4c02 c0bc 0d18 bf3c 8e46 15bb a063 7c3e
00000040: 6b18 7cbc 3559 17bc 632a 2abe d198 803d
00000050: 85bd 073e 2794 f43d 8eed d2bd 87c9 5e3d
00000060: a641 0c3e b3bc 013e 4792 4a3d a7c7 683c
00000070: 2435 1abe cf3f d83d 0cf5 55bd c642 563d
00000080: 7bb5 333e ccc0 a9bb e304 193e 8c3e 2b3d
00000090: c051 a53b 04ab 883d 966b c83d bfee 67bd
000000a0: e4d8 923e e8b4 dabc 7f84 623e d1b8 a93c
000000b0: c0c8 6fbe 0260 ec3c 2ade f4bd d01b 28be
000000c0: fe77 1ebe 11f1 04bd 19e5 8abd 76a2 d93a
000000d0: 36a4 acbd 3bd3 7fbd b665 473d 00ba a03d
000000e0: a8c1 073e c6ae cfbd a461 b63b 7402 29bd
000000f0: 2e52 f83d c68e c0bc 96f1 183e 3b22 1fbe
00000100: 5125 39be 8f88 83bc 1b86 e63d 1133 103c
00000110: f8db 13be 5da2 a73d df92 013b be66 123e
00000120: 7045 453d 9150 55bd 35f5 083e 34fa ac3b
00000130: 416f 453e e47e 4abd a1ae 5abd 80f0 913d
00000140: 051d bd3d 04ec 3e3d f390 b13d c3cd 2a3e
00000150: 5518 963c 9921 c83d b711 103e dcbb f33d
00000160: 3c5c 50bd 8fa5 693e dfac 8dbe ad82 a73b
00000170: 1652 e1bd 8a1e 34be 90bb 0ebd 8a2e 8d3d
00000180: 5fd2 9cbc 0096 22bd 2afe b1bd 7ab8 eebd
00000190: bfa2 99bd 4bf4 4d3c 7994 bc3b 0566 14bb
000001a0: 3df6 8f3d 5b0d d63b 29c6 f73d 21d0 643e
000001b0: 7b89 10bd 9502 d7bd 2bc9 23bc 525f dd3c
000001c0: b00c a7bb da38 c13c c34c 14be 5ba4 443d
000001d0: 37a0 11bd f772 e9bd a5cf abbd a86b 0ebd
000001e0: 89c6 493c 0113 fabb 6f88 9b3d bcfc c1bc
000001f0: b62d 63be ff04 36bc c5cb 00bd 11d0 afbc
00000200: b79a dfbd 9086 50bd 6f95 303d c963 8a3d
00000210: b134 1ebe b239 86bd 17b4 bbbc 6807 e5bd
00000220: fcc5 a4bd b28b 0abc 8873 b53d fae2 ab3d
00000230: f383 803c f196 393d 9d2c 23bd dfec 9e3d
00000240: 7350 003d d4be 14be 50d5 bb3c d7b6 8bbc
00000250: 66ff 333d 3284 b13c 44f9 ec3d 5d5c debc
00000260: 527d 9dbd 1619 7b3d d6cd 98ba 5d7a 093e
00000270: 5de5 2fbd f0b1 a1bd d0b4 91bd e23e 0bbe
00000280: 476f 9b3d e290 a63c d3c7 79bd 6794 bb3d
00000290: 2b83 423d ce19 85bd 4457 94bb ddb4 10be
000002a0: 57c0 6e3c c3ce 2f3c c5b2 99bd b7ea 69bd
000002b0: f5ac c8bd 51dc 93bd fcf4 b1bc 7723 ad3d
000002c0: 071b 0d3e a663 063e 2113 3dbd 4ec3 d9bc
000002d0: 330e c03d 12a0 2c3c d840 ccbc 7cb5 3cbe
000002e0: 72dd 01be 811f 84bc 90e3 143d f980 053e
000002f0: 2959 bcbd 30c3 0d3d 3cab 0c3d 9034 a23d
00000300: fe98 7b3c af37 b3bd e2ad 53bd 7f83 9a3d
00000310: 0d86 553c d089 83bd c585 0e3d 23eb 6ebd
00000320: c9dc 07bd dd90 c23c d5c6 5b3d 11b2 6c3d
00000330: 92cb 90bd 75bc 933d 102b 453d a368 67bb
00000340: b588 f5bc bb78 cfbc b7f1 35be 37d6 ae3d
00000350: 162d 60bb 21ad 41bb 5a71 f5bc 4232 9abc
00000360: 1a09 cebd 4178 5abd ed8b ad3d 184f 98bd
00000370: 497e b93c 540e 813d 78a9 bcbc ec32 2ebd
00000380: e569 463c 19ad 8fbd 98e2 973c f94f d8bd
00000390: 11ca 82bc 0efd 0c3d c2a3 3dbd bad6 b13c
000003a0: 5dad 6cbd f62f 8d3d 972f 1d3b 07a4 0cbe
000003b0: 4d0f f23b 9512 34bd 98ba 98bd dedd 393d
000003c0: 7e91 393d 7d60 cbbd efa5 43bd 1577 2cbd
000003d0: 1e0c 223e 3d3a 913d d3da 3f3c 738a 74bd
000003e0: 5896 b7bb 019c db3c d142 53bd 6683 bb3d
000003f0: 80e1 bdbd 5eab 9d3d d065 ca3d d9e0 94bd

bias_ih_l0 f4 [384]
0.07473294 -0.07861951 -0.009870122 0.0048322547 0.16110934 0.004398858 0.14446203 0.10518851
0.0413689 0.054165024 -0.010712618 0.10634277 -0.08314502 -0.08062479 -0.029041626 -0.15292259
-0.19510663 -0.009444628 0.21294709 -0.12032236 0.11727663 0.068989724 -0.036774468 0.05690234
-0.028243026 0.17281455 -0.058290824 -0.121764585 -0.0057079685 0.04829257 0.10121639 -0.02349553
0.028552106 0.15427087 -0.024231706 0.12420076 -0.06881752 -0.041031428 0.050108556 -0.06422639
0.11797519 -0.07341496 0.08120332 0.14924902 0.041455057 -0.038138263 -0.1814782 -0.0025284325
-0.11645826 -0.09278972 -0.02668049 -0.11233389 0.018921502 0.10915367 -0.057324298 -0.13502707
-0.14825542 0.07065335 0.062439688 -0.08198721 -0.17315152 -0.012952518 -0.035690486 -0.0921403
0.06112138 0.114006534 -0.14179936 0.104604915 0.004288973 0.05161395 -0.0120410435 0.03852105
0.13535783 0.03693041 -0.024149373 -0.117582545 0.09889199 -0.061698347 0.017682375 -0.114436425
-0.10282211 0.15643303 -0.13406669 -0.16012552 -0.064830735 -0.068920396 -0.018207045 0.12674208
-0.08530931 0.082801946 0.22787444 0.12913826 -0.031521842 -0.04711054 -0.070659906 -0.07837924
-0.14196283 0.06652824 -0.08724701 0.1254571 -0.0664489 -0.059044838 0.054458406 -0.03498633
-0.14380392 -0.03889583 0.0125951115 -0.11732125 -0.14063752 0.06244394 0.00561314 -0.13347153
-0.031925213 0.1758375 -0.15597014 0.10780817 0.015306473 -0.18406044 -0.071245685 -0.032245796
0.08690195 -0.013655399 0.11898201 0.12044251 -0.1381838 0.23022346 -0.02738024 0.0024676651
0.03580022 -0.10796078 0.053034965 -0.07250587 0.042350724 -0.07921507 0.07313075 -0.039599083
0.014844835 -0.039630983 0.16230716 -0.05887519 0.04998664 -0.054229815 -0.028061777 -0.057038683
0.060046334 -0.118881226 -0.016837133 -0.12123463 0.109736815 -0.09717043 0.050241202 -0.04233748
0.012975964 -0.084074475 -0.077289045 -0.1550708 -0.24192569 0.06823614 -0.120040946 0.11240209
-0.034842085 -0.050272774 -0.04484115 -0.038228583 -0.048320852 -0.023226067 -0.012565391 0.1320896
0.04851507 -0.061532613 0.088596046 0.13937858 0.07466859 -0.12719664 0.024743246 -0.07349436
0.03214463 -0.010676923 0.024147933 -0.0648534 0.086572014 -0.07331187 0.095536105 0.05907817
-0.03267544 0.06487243 0.16846082 -0.0007736398 -0.14147149 -0.2186336 -0.0709772 0.052719094
0.003339359 -0.11585896 0.03560588 -0.027234454 -0.10376833 -0.054494776 -0.079817526 0.024813619
0.04166224 -0.04631856 -0.07292097 -0.07884969 -0.1892101 -0.06916986 0.058913995 -0.05872504
-0.010342481 -0.03591718 -0.0049182074 -0.020120941 0.037028037 0.08363677 -0.0068556033 5.8290796e-05
0.0014637655 0.062240016 -0.2518263 0.019437712 0.065078564 -0.083607085 0.004477975 -0.04610936
-0.05574899 0.015029392 0.05360256 0.006953098 -0.119488165 -0.11009591 0.12119281 0.030641034
0.023659894 0.051683396 0.114060216 -0.09108154 0.12641656 -0.06866508 0.032896265 0.073385894
0.10394825 0.09507627 -0.119332254 -0.014255022 0.15683004 0.09464424 -0.10399486 0.0599364
-0.067143545 -0.118992664 -0.04789489 -0.040151753 0.0025372733 -0.104266964 -0.05085326 -0.18937689
00000000: 950d 993d 4403 a1bd 4bb6 21bc e457 9e3b
00000010: d9f9 243e 4c24 903b dbed 133e 136d d73d
00000020: 7072 293d 25dc 5d3d fa83 2fbc 3dca d93d
00000030: f047 aabd 9c1e a5bd b4e8 edbc bd97 1cbe
00000040: 08ca 47be a4bd 1abc cd0e 5a3e 926b f6bd
00000050: bb2e f03d 7c4a 8d3d d3a0 16bd 6e12 693d
00000060: eb5d e7bc 4cf6 303e 5cc2 6ebd b65f f9bd
00000070: e909 bbbb 6ece 453d 8a4a cf3d b379 c0bc
00000080: 1be6 e93c 2ff9 1d3e 9281 c6bc f85c fe3d
00000090: 33f0 8cbd 9210 28bd a13e 4d3d 2089 83bd
000000a0: fa9c f13d 955a 96bd ed4d a63d bcd4 183e
000000b0: c7cc 293d de36 1cbd 6cd5 39be 0fb4 25bb
000000c0: ab81 eebd 8908 bebd 0b91 dabc 4f0f e6bd
000000d0: 4401 9b3c f68b df3d e2cc 6abd 8944 0abe
000000e0: 45d0 17be b4b2 903d c2c0 7f3d e9e8 a7bd
000000f0: a24e 31be cc36 54bc 3030 12bd 0eb4 bcbd
00000100: 6a5a 7a3d 427c e93d da33 11be 1a3b d63d
00000110: 838a 8c3b 2669 533d cc47 45bc 40c8 1d3d
00000120: 3e9b 0a3e 5744 173d e8d4 c5bc 1ecf f0bd
00000130: e287 ca3d 68b7 7cbd a1da 903c a55d eabd
00000140: 6694 d2bd fb2f 203e c748 09be f2f7 23be
00000150: fac5 84bd 2326 8dbd f126 95bc adc8 013e
00000160: a6b6 aebd 1194 a93d eb57 693e d23c 043e
00000170: 0c1d 01bd fbf6 40bd 24b6 90bd 4c85 a0bd
00000180: b45e 11be f53f 883d 8fae b2bd d377 003e
00000190: 5c16 88bd 00d9 71bd c70f 5f3d d34d 0fbd
000001a0: 5641 13be 3c51 1fbd ba5b 4e3c 2046 f0bd
000001b0: 4803 10be 38c5 7f3d 6eee b73b c3ac 08be
000001c0: 03c4 02bd bf0e 343e a3b6 1fbe 88ca dc3d
000001d0: 00c8 7a3c 577a 3cbe 42e9 91bd 2b14 04bd
000001e0: a6f9 b13d e5ba 5fbc d7ac f33d 90aa f63d
000001f0: 0e80 0dbe b3bf 6b3e 864c e0bc 8db8 213b
00000200: 40a3 123d 8b1a ddbd 313b 593d f57d 94bd
00000210: f477 2d3d 833b a2bd 93c5 953d a632 22bd
00000220: c037 733c 1954 22bd d933 263e 1c27 71bd
00000230: cbbe 4c3d 1520 5ebd d0e1 e5bc 65a1 69bd
00000240: 25f3 753d 0078 f3bd 07ee 89bc dd49 f8bd
00000250: b2bd e03d 4a01 c7bd b8c9 4d3d 116a 2dbd
00000260: 2399 543c 3d2f acbd b849 9ebd e1ca 1ebe
00000270: 5ebb 77be 64bf 8b3d 07d8 f5bd 1133 e63d
00000280: 93b6 0ebd d3ea 4dbd 5bab 37bd 9395 1cbd
00000290: 16ec 45bd 9844 bebc 12df 4dbc 7f42 073e
000002a0: bdb7 463d 9f09 7cbd d871 b53d 42b9 0e3e
000002b0: d9eb 983d d63f 02be 59b2 ca3c 3684 96bd
000002c0: 16aa 033d 43ee 2ebc e3d1 c53c dcd1 84bd
000002d0: ab4c b13d 8924 96bd 6fa8 c33d f4fb 713d
000002e0: afd6 05bd d6db 843d fe80 2c3e 17ce 4aba
000002f0: e7dd 10be 7de1 5fbe 7f5c 91bd faef 573d
00000300: 26d9 5a3b 7647 edbd 79d7 113d ca1a dfbc
00000310: 7d84 d4bd ea35 5fbd 5f77 a3bd ee45 cb3c
00000320: 06a6 2a3d 88b8 3dbd 9757 95bd f27b a1bd
00000330: 4bc0 41be eda8 8dbd cd4f 713d ab89 70bd
00000340: 8273 29bc e51d 13bd ea28 a1bb acd4 a4bc
00000350: b6aa 173d c149 ab3d f8a4 e0bb 447d 7438
00000360: d2db bf3a 63ef 7e3d 60ef 80be d63b 9f3c
00000370: e947 853d 313a abbd fabb 923b 2bdd 3cbd
00000380: 0e59 64bd d73d 763c 5c8e 5b3d d0d6 e33b
00000390: 36b6 f4bd f779 e1bd f033 f83d e802 fb3c
000003a0: 65d2 c13c f8b1 533d 6798 e93d f588 babd
000003b0: 5873 013e 47a0 8cbd 3cbe 063d 584b 963d
000003c0: d2e2 d43d 59b7 c23d 7864 f4bd e58d 69bc
000003d0: 0e98 203e d7d4 c13d 42fb d4bd df7f 753d
000003e0: 8e82 89bd 6db2 f3bd 6f2d 44bd 2a76 24bd
000003f0: 6248 263b eb89 d5bd 824b 50bd 04ec 41be

bias_hh_l0 f4 [384]
-0.012798151 0.018757993 0.012658491 0.098119 0.039490003 -0.00560985 0.15701644 0.086877085
-0.073256694 0.051423732 0.043741606 0.08369207 -0.08920683 -0.05858374 -0.019959532 -0.1022825
-0.16391358 0.041513413 0.20024803 -0.16761294 0.10089384 0.06710404 -0.02721276 0.18901907
0.01295183 0.15775773 -0.016836703 -0.14231287 0.07585229 0.1088429 0.043785624 -0.031653557
0.0672708 0.04720903 -0.043643843 0.10659935 -0.051984873 -0.039021373 0.053821098 -0.09281662
0.09902475 -0.06859829 0.10504725 0.09845107 0.095363304 -0.16427626 -0.08104543 -0.009521086
-0.14098673 0.044778153 -0.1190115 -0.101394914 0.021189224 0.12313251 -0.16727237 -0.12661615
0.0044858675 0.046857458 0.13732325 -0.14265266 -0.038886663 -0.1509211 -0.014090346 -0.18605532
0.013588017 0.091018036 -0.116443686 0.12800133 0.053181544 0.094527155 -0.019096773 0.018827708
0.15129113 0.032655198 0.00045723197 -0.11382647 0.11577638 -0.071893744 0.04844966 0.020168923
-0.098291256 0.18014923 -0.059474867 -0.14363618 -0.15220731 -0.10416641 0.051759552 -0.00698607
-0.14305475 0.17702337 0.18450385 0.24056709 -0.021216303 -0.03880971 -0.055928893 -0.06064659
-0.11137755 0.11332832 -0.018194588 0.042428616 0.042611524 -0.075755894 -0.017237717 -0.0562861
-0.20950511 -0.08703707 -0.026153147 0.026645908 -0.023228334 0.043560278 0.030771786 -0.028790848
0.024908008 0.12631394 -0.08778822 0.042138945 0.03751363 -0.117611304 0.040178243 0.022137826
0.101343654 0.0040289843 -0.046031337 0.0070532155 -0.1693194 0.23084415 -0.06245831 0.10464548
0.02214549 -0.12258688 0.08499434 0.026543237 0.09011278 -0.21082261 -0.07852511 -0.04503017
0.1305749 0.03620458 0.095649585 -0.004410071 0.07982677 -0.005820675 -0.04973582 -0.116955526
-0.068540595 0.0036586754 0.049897924 -0.025403308 0.08114121 -0.010069193 -0.06359208 -0.004496661
-0.07720065 -0.0678075 -0.055182584 -0.12224442 -0.12816417 0.049945604 -0.06654034 0.076915674
0.08131339 0.03090141 -0.15689848 0.041192934 -0.03542883 -0.0053789928 -0.018793698 0.109631516
-0.037484605 -0.046400953 0.030921422 0.009686182 -0.057312302 -0.15322872 0.082653 -0.05151322
0.15211228 -0.0671101 -0.06941431 0.026353372 0.15217122 0.07307238 0.044439398 0.0956631
-0.061841544 0.05793499 0.156281 0.06686072 -0.11156683 -0.11227267 -0.064130895 0.0404864
-0.06658317 -0.076646164 0.12770921 -0.02275015 -0.15134458 -0.027143842 -0.0667561 -0.040826753
0.12174976 0.0003488817 0.034162678 -0.22194235 -0.06328341 -0.1309489 0.071717456 -0.06554312
-0.09738329 0.030078165 -0.035449646 0.03183658 0.15772505 -0.09156482 -0.07231324 -0.06448123
0.012808887 -0.088160925 -0.24314691 0.05984116 0.12369936 -0.08025222 -0.049108718 0.029826859
0.089395426 -0.08264818 0.073778346 0.10336843 -0.10276082 -0.16754921 0.10741081 -0.049934804
0.0041252994 2.8772782e-05 0.13009144 -0.07828271 0.023049723 -0.023074182 -0.03732383 0.021228798
0.0071571474 0.069233485 -0.22218578 0.011470948 0.13903372 -0.011368095 -0.08817756 -0.018905042
0.05087061 -0.031272985 -0.01348554 0.0017797279 -0.010970726 -0.1816322 -0.06907199 -0.03504959
00000000: 56af 51bc 5daa 993c 8f65 4f3c 9df2 c83d
00000010: 45c0 213d d5d2 b7bb ebc8 203e 9dec b13d
00000020: 9b07 96bd b1a1 523d 662a 333d bf66 ab3d
00000030: 12b2 b6bd 81f5 6fbd 2c82 a3bc 7d79 d1bd
00000040: f6d8 27be f809 2a3d d20d 4d3e baa2 2bbe
00000050: 6ea1 ce3d d86d 893d 4bed debc 378e 413e
00000060: ea33 543c 3e8b 213e 20ed 89bc 77ba 11be
00000070: 7258 9b3d 07e9 de3d 8e58 333d 29a7 01bd
00000080: 46c5 893d 415e 413d e3c3 32bd c350 da3d
00000090: 17ee 54bd e0d4 1fbd 8373 5c3d a416 bebd
000000a0: 7dcd ca3d 437d 8cbd 0323 d73d b7a0 c93d
000000b0: d64d c33d 0938 28be 25fb a5bd 54fe 1bbc
000000c0: d35e 10be 4c69 373d 4dbc f3bd 23a8 cfbd
000000d0: 0695 ad3c e62c fc3d 7349 2bbe aaa7 01be
000000e0: 2ffe 923b 9bed 3f3d 779e 0c3e 8a13 12be
000000f0: 9f47 1fbd 108b 1abe 32db 66bc 4985 3ebe
00000100: 46a0 5e3c aa67 ba3d 077a eebd c812 033e
00000110: e4d4 593d 7497 c13d d670 9cbc 913c 9a3c
00000120: 10ec 1a3e 75c1 053d a3b8 ef39 da1d e9bd
00000130: 2b1c ed3d 073d 93bd 2773 463d 4c39 a53c
00000140: ed4c c9bd 0a79 383e eb9b 73bd 5d15 13be
00000150: 3cdc 1bbe 3355 d5bd d301 543d 67eb e4bb
00000160: f27c 12be 9d45 353e 94ee 3c3e 3857 763e
00000170: d0cd adbc eef6 1ebd b215 65bd 8f68 78bd
00000180: ea19 e4bd ae18 e83d d10c 95bc a1c9 2d3d
00000190: 6c89 2e3d e825 9bbd 1d36 8dbc 418c 66bd
000001a0: 8288 56be 7e40 b2bd 203f d6bc 8548 da3c
000001b0: 5949 bebc 436c 323d 1d15 fc3c c9da ebbc
000001c0: e10b cc3c 7158 013e 4fca b3bd e399 2c3d
000001d0: e4a7 193d 32de f0bd f191 243d 635a b53c
000001e0: 438d cf3d 9205 843b 5b8b 3cbd a91e e73b
000001f0: 1162 2dbe 6962 6c3e 49d4 7fbd 5f50 d63d
00000200: 756a b53c d50e fbbd 8311 ae3d 3471 d93c
00000210: 0d8d b83d e2e1 57be c6d1 a0bd 8e71 38bd
00000220: 6db5 053e 414b 143d eee3 c33d 5b82 90bb
00000230: 387c a33d 5cbb bebb cab7 4bbd 6186 efbd
00000240: 035f 8cbd 63c6 6f3b c461 4c3d 991a d0bc
00000250: 5d2d a63d 42f9 24bc 903c 82bd ba58 93bb
00000260: 601b 9ebd a9de 8abd 2207 62bd 485b fabd
00000270: 783d 03be c393 4c3d 4d46 88bd f785 9d3d
00000280: a287 a63d f424 fd3c ffa9 20be ecb9 283d
00000290: d21d 11bd 4342 b0bb 3ef5 99bc 7d86 e03d
000002a0: 7589 19bd ed0e 3ebd ec4e fd3c cbb2 1e3c
000002b0: 4ec0 6abd fde7 1cbe fa45 a93d 87ff 52bd
000002c0: 52c3 1b3e 0571 89bd 1729 8ebd 07e3 d73c
000002d0: c6d2 1b3e f9a6 953d 1606 363d 04eb c33d
000002e0: 8f4d 7dbd 3d4d 6d3d 2008 203e 46ee 883d
000002f0: 267d e4bd 37ef e5bd 0f57 83bd 11d5 253d
00000300: c25c 88bd aaf8 9cbd 34c6 023e 865e babc
00000310: 13fa 1abe c35c debc 6cb7 88bd f439 27bd
00000320: f057 f93d 1cea b639 2aee 0b3d db44 63be
00000330: bc9a 81bd 7817 06be 9ae0 923d 793b 86bd
00000340: e470 c7bd 7c66 f63c a633 11bd 1367 023d
00000350: ad82 213e 5686 bbbd f718 94bd bc0e 84bd
00000360: 5edc 513c b78d b4bd 81fb 78be 011c 753d
00000370: 1756 fd3d 475b a4bd 3926 49bd 7557 f43c
00000380: f314 b73d 7343 a9bd 1a19 973d d4b2 d33d
00000390: 4474 d2bd 0592 2bbe 33fa db3d 7088 4cbd
000003a0: 852d 873b 145d f137 b136 053e af52 a0bd
000003b0: c6d2 bc3c 1106 bdbc dfe0 18bd 04e8 ad3c
000003c0: 8186 ea3b 49ca 8d3d ab84 63be a5f0 3b3c
000003d0: db5e 0e3e 3f41 3abc 7096 b4bd bfde 9abc
000003e0: b35d 503d 1a18 00bd 74f2 5cbc c245 e93a
000003f0: 8fbe 33bc cbfd 39be 9e75 8dbd 2990 0fbd
