checkpoints2/encoder_ln1.pth (torch_old, 308661 bytes, 4 tensors)

weight_ih_l0 f4 [384, 64]
-0.04420494 0.0011352752 -0.015622436 0.073058516 -0.061856765 -0.045336697 0.056414433 0.067058355
0.06445925 0.021739015 0.018403562 0.06760274 0.009022025 -0.053584237 -0.0434755 -0.0048277546
0.023416564 0.030426009 -0.01670801 -0.11564824 -0.15024075 -0.09846667 0.06664704 0.041134737
-0.050566036 -0.09492142 -0.065663286 0.019421658 -0.010741114 -0.10533661 -0.07676412 0.04052211
0.07479597 -0.03880536 -0.0015471362 -0.06451756 -0.119433925 -0.010007349 0.02857259 0.08250569
-0.0015513989 0.05197918 -0.005777155 -0.03418138 -0.0658494 -0.07624385 0.0736194 0.027839936
0.08456915 0.10352516 -0.06914644 -0.07109124 -0.065218896 0.0852763 -0.012750319 -0.09222571
-0.005602765 -0.09559003 0.018419815 0.022864107 -0.11589534 -0.058394346 0.062402904 -0.013573286
-0.005009328 0.011474647 -0.039809942 0.006419423 0.01430616 0.06737641 -0.1094736 -0.12192009
-0.093872815 -0.036618397 -0.18189739 -0.030436791 -0.093938306 -0.024878353 -0.063292935 -0.16442029
-0.13590829 -0.0126415165 -0.06645487 -0.06825335 -0.05772138 0.017776625 0.087580785 0.119584195
-0.028702134 -0.026280899 -0.05614477 0.07520977 -0.0012762875 0.12352751 0.0013279691 -0.063994765
0.08618376 0.10741557 -0.009801515 0.061787013 -0.014381126 -0.04786032 -0.05709787 -0.015154885
-0.18200824 0.0021566686 -0.16351657 -0.0841776 0.0034890745 -0.0025077169 -0.047004063 -0.14568512
-0.09839588 0.08123974 9.344451e-05 0.066570655 -0.10887836 -0.035880573 -0.026165104 0.06202166
0.04566353 0.06834019 0.01462921 0.05589554 -0.09335344 0.0034096695 0.02281254 -0.09471233
0.028851405 -0.07468133 -0.009178151 -0.011551087 0.0724387 -0.0036550844 0.045261975 0.04266403
-0.109216325 -0.038199138 -0.0078083165 -0.026537886 -0.052172173 -0.13619414 -0.0569663 -0.05216399
-0.060258295 -0.08687648 -0.071547836 -0.04537058 -0.052610345 0.0039026467 0.033442825 -0.054275673
-0.060050003 -0.0800487 0.022319285 -0.05706689 0.08487839 -0.07461545 -0.011489794 0.03205503
0.002329664 -0.072151385 0.107412905 -0.06918171 -0.05831571 -0.047277912 0.016183052 0.05055829
-0.02156603 0.045742337 0.08796554 0.028173642 -0.06593269 -0.03071435 0.0019856442 0.014656425
-0.07347112 0.041713916 -0.07579526 -0.052227687 -0.04169467 -0.08387948 -0.01888483 -0.029669195
0.004648466 -0.023341296 0.09499031 -0.021464683 0.027875228 0.015361168 0.006475694 0.050094683
0.043644216 0.0051064277 0.14421776 0.0042458037 -0.07477129 -0.001269132 -0.018521875 0.06547709
-0.027665783 0.08521756 -0.047331847 0.09399129 -0.069972545 -0.056064367 -0.020389186 0.029822009
0.12954527 0.012923731 -0.066993676 0.0632298 0.010968117 0.03688477 -0.10125548 -0.025578927
-0.036196247 -0.063594446 -0.0076580695 0.10645819 -0.06077218 -0.03512779 -0.072530605 0.09129749
0.0034790882 -0.0077808844 0.07748226 -0.026210742 0.054638367 0.13960865 -0.03491581 -0.058314852
-0.06605799 0.039874766 0.024976863 -0.08473898 -0.024961501 0.0026380545 0.02289281 0.07463185
0.029041512 -0.007150235 -0.07207857 0.012501476 0.0782933 -0.015813708 -0.13008349 -0.07596276
-0.03923422 0.083071895 0.010304708 -0.06431324 -0.039854474 0.05261482 -0.008300649 0.062054854
00000000: 3d10 35bd 84cd 943a 3ff5 7fbc b49f 953d
00000010: 855d 7dbd f9b2 39bd d212 673d e455 893d
00000020: 3603 843d 0516 b23c 11c3 963c 4e73 8a3d
00000030: 1ed1 133c 257b 5bbd 5e13 32bd 2432 9ebb
00000040: 18d4 bf3c f73f f93c 3ddf 88bc fcd8 ecbd
00000050: b6d8 19be e5a8 c9bd 3e7e 883d e67c 283d
00000060: 551e 4fbd 2966 c2bd 797a 86bd 2b1a 9f3c
00000070: 7ffb 2fbc b8ba d7bd 8236 9dbd 83fa 253d
00000080: a12e 993d 5ff2 1ebd 47c9 caba c821 84bd
00000090: c699 f4bd ddf5 23bc 1011 ea3c bef8 a83d
000000a0: 4f58 cbba 1fe8 543d 4a4e bdbb c601 0cbd
000000b0: 0ddc 86bd bc25 9cbd c5c5 963d 9410 e43c
000000c0: 9732 ad3d 0005 d43d a69c 8dbd 4998 91bd
000000d0: 7c91 85bd 57a5 ae3d b7e6 50bc d5e0 bcbd
000000e0: 6697 b7bb b5c4 c3bd 27e5 963c 824d bb3c
000000f0: 895a edbd e92e 6fbd 309a 7f3d 7d62 5ebc
00000100: 4a25 a4bb 2800 3c3c c00f 23bd 065a d23b
00000110: 6264 6a3c a5fc 893d b233 e0bd 3db1 f9bd
00000120: 6440 c0bd 2cfd 15bd 4f43 3abe 9456 f9bc
00000130: ba62 c0bd b0cd cbbc ba9f 81bd cb5d 28be
00000140: 8b2b 0bbe 5d1e 4fbc 7e19 88bd 6ac8 8bbd
00000150: 416d 6cbd 49a0 913c 8e5d b33d 8fe8 f43d
00000160: bd20 ebbc 0a4b d7bc 0ff8 65bd 9407 9a3d
00000170: 1a49 a7ba fefb fc3d 400f ae3a b00f 83bd
00000180: 1c81 b03d b2fc db3d 8996 20bc 6114 7d3d
00000190: d09e 6bbc 2f09 44bd 75df 69bd 324c 78bc
000001a0: 5e60 3abe e556 0d3b e370 27be 4e65 acbd
000001b0: f5a8 643b 8258 24bb 5587 40bd 7b2e 15be
000001c0: c783 c9bd 0561 a63d a4f7 c338 3256 883d
000001d0: 9efb debd 82f7 12bd 3358 d6bc 6d0a 7e3d
000001e0: ae09 3b3d f1f5 8b3d 5baf 6f3c b9f2 643d
000001f0: 1730 bfbd c374 5f3b 5de1 ba3c 8af8 c1bd
00000200: c859 ec3c 86f2 98bd f55f 16bc c540 3dbc
00000210: be5a 943d 248a 6fbb 9f64 393d 7ac0 2e3d
00000220: cfac dfbd b376 1cbd e8dc ffbb fb65 d9bc
00000230: 7db2 55bd 7a76 0bbe 7f55 69bd e8a9 55bd
00000240: 67d1 76bd 4cec b1bd ac87 92bd 80d6 39bd
00000250: f27d 57bd 8cc3 7f3b 58fb 083d 2b50 5ebd
00000260: fef6 75bd 93f0 a3bd efd6 b63c f9be 69bd
00000270: b9d4 ad3d fccf 98bd b03f 3cbc 234c 033d
00000280: 47ad 183b 1bc4 93bd 4cfb db3d 24af 8dbd
00000290: 74dc 6ebd 7ca6 41bd 5292 843c 3616 4f3d
000002a0: 3eab b0bc 515c 3b3d 4727 b43d 69cc e63c
000002b0: b807 87bd a99c fbbc 9521 023b 8121 703c
000002c0: 0778 96bd 36dc 2a3d 8c3a 9bbd b3ec 55bd
000002d0: 08c8 2abd 01c9 abbd 5cb4 9abc d00c f3bc
000002e0: 2952 983b 3f36 bfbc 488a c23d b4d6 afbc
000002f0: 975a e43c 69ad 7b3c 0f32 d43b 1530 4d3d
00000300: 47c4 323d d253 a73b d2ad 133e 6220 8b3b
00000310: b121 99bd 0159 a6ba 30bb 97bc da18 863d
00000320: 5aa3 e2bc 8b86 ae3d 0adf 41bd 817e c03d
00000330: c44d 8fbd c0a3 65bd 3907 a7bc 494d f43c
00000340: 84a7 043e 0ebe 533c fb33 89bd a07e 813d
00000350: 9eb3 333c 7c14 173d 085f cfbd e68a d1bc
00000360: 8442 14bd ce3d 82bd 8bf0 fabb c006 da3d
00000370: 40ec 78bd 28e2 0fbd ed8a 94bd 2efa ba3d
00000380: 6a01 643b caf6 febb 05af 9e3d e9b7 d6bc
00000390: 7bcc 5f3d 92f5 0e3e e103 0fbd 8edb 6ebd
000003a0: 6949 87bd b953 233d 479c cc3c a18b adbd
000003b0: 107c ccbc 36e3 2c3b b489 bb3c 95d8 983d
000003c0: 77e8 ed3c 854c eabb ee9d 93bd fed2 4c3c
000003d0: 3d58 a03d c08b 81bc 9b34 05be 5d92 9bbd
000003e0: 10b4 20bd 9921 aa3d 14d5 283c a9b6 83bd
000003f0: 723e 23bd a382 573d 72ff 07bc 3b2d 7e3d

weight_hh_l0 f4 [384, 128]
0.009840385 -0.026553081 0.094032735 -0.011372548 0.06241489 0.11102429 0.04904158 0.08511833
0.017739475 -0.07661516 0.035915595 -0.05510465 0.02994736 -0.0034114711 0.0047171386 -0.002505401
-0.089874245 -0.07456323 0.08915676 0.044866398 0.044819664 0.020578753 -0.020964028 -0.089502655
-0.09836054 0.017368652 -0.068683 -0.008697846 0.070876546 0.0014279049 0.09991438 0.019628808
-0.0125356885 -0.020227877 0.08692711 0.0019449418 -0.059130117 0.094174355 -0.073927835 -0.11549282
-0.02060451 -0.08490926 -0.12824097 -0.0766531 -0.030661171 0.054387394 0.08222157 0.06358783
0.042645626 0.043903954 0.04016459 -0.0074653667 0.05665548 0.024487808 -0.09358782 0.030218355
-0.03705315 0.05812881 0.050210357 -0.07887284 -0.022292461 -6.015954e-05 -0.05546223 -0.0015482451
0.07671525 0.057479154 -0.042134672 0.034286823 -0.04820424 0.025662117 -0.07753256 0.009498423
-0.037949797 -0.061396383 0.0439149 -0.08338874 0.09125712 0.018718585 -0.05676619 0.007706896
-0.058960963 0.008711555 0.0045597535 -0.084110685 -0.052644745 -0.065599054 0.14537762 -0.007974247
0.090218015 0.08195504 -0.082167864 0.02765993 -0.055384092 -0.015191582 0.054085407 0.001879968
-0.010382103 0.058861595 0.002737788 -0.0473765 0.022193408 0.085333414 -0.016991148 -0.051457573
-0.019857867 -0.003573609 0.016784998 -0.027496614 0.0061561284 -0.05415055 -0.045941845 -0.033988215
0.09148615 -0.025078269 -0.015977573 -0.010451515 -0.021232292 0.051617727 -0.108870044 0.04526093
-0.043724332 0.06487852 -0.06404337 -0.082038194 -0.016737105 0.053382397 -0.012936386 0.040416315
0.06387585 0.14517058 -0.0550354 0.04200073 -0.048101343 -0.025171963 0.09372476 0.01817963
-0.14507163 0.08812624 0.087646246 -0.09979222 -0.014489377 -0.024793338 -0.036101047 0.04469109
0.016710473 0.036442205 0.1634292 0.13246246 0.048865236 0.023572162 -0.0849787 0.028869921
-0.12755199 -0.022006746 -0.0315774 -0.06655488 0.043262366 0.06725252 0.015295509 -0.010655362
0.08559107 0.07399134 0.032358203 -0.05985656 -0.10174538 0.012892545 -0.0452701 0.008730911
0.09736886 -0.047612004 -0.10486444 0.07654648 -0.12052628 -0.015927844 0.010059921 -0.105947435
-0.04560789 -0.06728891 -0.12698637 -0.0063655195 -0.03919386 0.038268514 0.09670742 0.03639973
-0.05578461 -0.04265191 0.03840488 0.030636063 0.01872068 0.15329419 0.016463844 0.007879168
0.11129701 0.07884132 0.027018156 -0.17301501 0.07556941 0.0155775715 0.09151459 -0.004422844
0.0006543278 0.037067115 0.0031068411 -0.06492336 0.17804207 0.012660816 0.0018908266 -0.008514797
-0.002434337 -0.039435618 -0.0070205783 -0.016860465 -0.05111924 -0.021770384 -0.0099985795 -0.038694017
0.05789158 0.08858331 0.055117123 -0.08759742 0.014871564 -0.026001735 0.06539491 0.17198469
-0.058532756 -0.058582235 0.028517805 -0.08176622 -0.06544203 0.097459294 -0.0396112 0.069126055
0.03605242 -0.044004086 0.04855836 0.032869782 -0.08663167 -0.04769857 -0.07889316 0.07581323
-0.05211828 0.09010962 0.07116746 -0.14141478 0.17347962 0.011656638 0.10171734 -0.018918639
-0.01858159 -0.0627969 0.026419783 0.024780776 -0.08108036 0.01837362 -0.1577728 -0.015728671
00000000: 9139 213c d985 d9bc 3c94 c03d ec53 3abc
00000010: c1a6 7f3d b460 e33d d3df 483d 8552 ae3d
00000020: 6052 913c 69e8 9cbd 3b1c 133d 6ab5 61bd
00000030: 2a54 f53c fd92 5fbb 3a92 9a3b a731 24bb
00000040: fd0f b8bd 9bb4 98bd d297 b63d d4c5 373d
00000050: d394 373d c694 a83c c1bc abbc 2b4d b7bd
00000060: 4071 c9bd b448 8e3c aca9 8cbd 6981 0ebc
00000070: b927 913d 8a28 bb3a e99f cc3d 98cc a03c
00000080: 7d62 4dbc efb4 a5bc d706 b23d 6bed fe3a
00000090: 6c32 72bd 7cde c03d 7a67 97bd 8087 ecbd
000000a0: caca a8bc e8e4 adbd 9a51 03be 4dfc 9cbd
000000b0: 232d fbbc 51c5 5e3d c863 a83d 563a 823d
000000c0: 2ead 2e3d a2d4 333d a083 243d 09a0 f4bb
000000d0: 940f 683d a89a c83c f9aa bfbd 7c8c f73c
000000e0: 0bc5 17bd 7a18 6e3d 60a9 4d3d 1588 a1bd
000000f0: ae9e b6bc d053 7cb8 5d2c 63bd 7cee caba
00000100: e31c 9d3d 436f 6b3d 6895 2cbd 5770 0c3d
00000110: cf71 45bd 5c39 d23c 64c9 9ebd 469f 1b3c
00000120: 3f71 1bbd c67a 7bbd 1ce0 333d b7c7 aabd
00000130: 03e5 ba3d b857 993c aa83 68bd 218a fc3b
00000140: 0d81 71bd e9ba 0e3c fc69 953b 3942 acbd
00000150: 04a2 57bd cc58 86bd dfdd 143e 6ba6 02bc
00000160: 39c4 b83d 0bd8 a73d a047 a8bd 1497 e23c
00000170: 6eda 62bd 1de6 78bc a988 5d3d 4269 f63a
00000180: b219 2abc db18 713d 766c 333b dc0d 42bd
00000190: f3ce b53c 49c3 ae3d 0531 8bbc 2dc5 52bd
000001a0: f7ac a2bc 3633 6abb b180 893c 9440 e1bc
000001b0: 59b9 c93b f8cc 5dbd 842d 3cbd 3a37 0bbd
000001c0: 175d bb3d f170 cdbc 66e3 82bc d53c 2bbc
000001d0: 58ef adbc 1c6d 533d 42f7 debd 8663 393d
000001e0: 4918 33bd 08df 843d 2c29 83bd a403 a8bd
000001f0: 411c 89bc 80a7 5a3d 23f3 53bc 948b 253d
00000200: 57d1 823d 99a7 143e cd6c 61bd f508 2c3d
00000210: ea05 45bd 6f35 cebc c4f2 bf3d 73ed 943c
00000220: a88d 14be 887b b43d e07f b33d dd5f ccbd
00000230: da64 6dbc 661b cbbc b1de 13bd 010e 373d
00000240: 67e4 883c 6c44 153d fc59 273e 3da4 073e
00000250: ea26 483d 681a c13c 5009 aebd 9d80 ec3c
00000260: fd9c 02be 7e47 b4bc 4e57 01bd ed4d 88bd
00000270: e133 313d b0bb 893d 049a 7a3c d493 2ebc
00000280: 5f4a af3d c688 973d 098a 043d 272c 75bd
00000290: e25f d0bd 413b 533c 246d 39bd 180c 0f3c
000002a0: 5369 c73d ce04 43bd 2bc3 d6bd 67c4 9c3d
000002b0: 7bd6 f6bd 1c7b 82bc 5ed2 243c f8fa d8bd
000002c0: 57cf 3abd c5ce 89bd b708 02be d995 d0bb
000002d0: be89 20bd 72bf 1c3d 8a0e c63d e217 153d
000002e0: 677e 64bd c5b3 2ebd 6f4e 1d3d 7bf8 fa3c
000002f0: 1d5c 993c 27f9 1c3e 2fdf 863c a017 013c
00000300: b0ef e33d 8f77 a13d 2e55 dd3c d92a 31be
00000310: 23c4 9a3d 1239 7f3c 006c bb3d 81ed 90bb
00000320: 3287 2b3a b0d3 173d 259c 4b3b 8af6 84bd
00000330: a950 363e 506f 4f3c 9dd5 f73a a681 0bbc
00000340: 6689 1fbb 3e87 21bd e10c e6bb f51e 8abc
00000350: 6862 51bd ce57 b2bc 15d1 23bc 9e7d 1ebd
00000360: b91f 6d3d 2b6b b53d 7ec2 613d 4766 b3bd
00000370: dca7 733c 9701 d5bc c4ed 853d c11c 303e
00000380: 0bc0 6fbd edf3 6fbd 2c9e e93c 0c75 a7bd
00000390: 7906 86bd bd98 c73d 5b3f 22bd f691 8d3d
000003a0: b4ab 133d a13d 34bd 22e5 463d 77a2 063d
000003b0: f26b b1bd 935f 43bd bd92 a1bd f743 9b3d
000003c0: fa79 55bd 648b b83d 3fc0 913d 09cf 10be
000003d0: a4a4 313e 7cfb 3e3c 2e51 d03d 43fb 9abc
000003e0: 6b38 98bc a99b 80bd 4d6e d83c 0e01 cb3c
000003f0: 760d a6bd 4684 963c 318f 21be 6ad9 80bc

bias_ih_l0 f4 [384]
-0.06571575 0.03791851 -0.0038584839 -0.048894774 -0.043881036 0.046050627 0.046997193 -0.028458262
-0.14928791 0.008307515 0.01749815 -0.041665472 -0.02793961 0.0018861025 0.08215813 -0.08417165
-0.048323218 -0.034808982 -0.07240596 -0.054306947 0.025007991 -0.0067931013 0.02212376 -0.11246634
0.04103427 0.10018967 -0.049911726 -0.07814861 0.06926096 -0.096589416 -0.076758675 0.033621542
-0.013553852 0.092583105 0.10518898 0.08008821 -0.024418842 0.08636901 -0.08194075 -0.07142431
0.05665354 0.0013147843 0.027966358 0.11023876 0.09213707 0.07459918 -0.059033338 -0.03773091
-0.0025729751 0.09173238 0.14163998 -0.071571335 0.014011589 -0.009397368 0.096804634 -0.0034931721
-0.08108731 -0.043732386 0.10093125 -0.0037346273 -0.10294993 -0.010259602 -0.0033640582 0.059256084
0.09721063 -0.0380581 -0.12200124 0.07197965 0.030138262 0.030308338 0.029510122 -0.046295516
0.040900003 0.07562881 -0.0051955264 -0.061002977 0.000407406 -0.04002871 0.01989526 0.012750892
-0.008424409 -0.06887268 0.11387788 -0.027179198 0.024251975 -0.06856978 -0.006734103 -0.12834443
-0.015528356 0.016880287 -0.085305244 -0.09859088 0.11049559 0.009364067 -0.06419207 0.063424945
0.02574803 0.043240514 -0.06007372 0.069556676 -0.067749806 0.04981412 0.0018053687 -0.1274426
0.07157547 0.05952834 -0.008693481 -0.04156552 -0.04352239 -0.040324353 -0.008643713 -0.110851906
0.041275468 -0.08331113 -0.033134416 0.058129378 -0.05506367 -0.03952738 0.063698344 0.06929724
0.08320331 0.04017581 -0.008176823 0.07121958 -0.025056843 0.010892147 -0.08034829 -0.039352085
0.0432176 -0.000133055 -0.027632564 0.10093445 -0.004467449 -0.029022522 0.09051927 0.062104378
-0.011811395 -0.018656868 -0.040986273 0.12015373 -0.020135364 -0.033785373 0.08043342 -0.059732985
0.09423889 0.004715823 0.007519885 -0.08336029 0.04101997 0.04264577 0.0015159103 -0.062046185
0.03823209 0.05983509 -0.086741276 -0.052282833 0.01585377 0.06277203 0.074366555 0.011464651
0.048517097 -0.10756445 0.07408889 0.005364732 -0.0743108 -0.019959513 -0.061001953 0.0771978
0.07033626 -0.0047354577 0.08816196 0.005525471 0.076494925 0.10324841 0.031162461 -0.06501237
-0.065167055 0.029055204 0.06336573 0.035513785 0.046815075 -0.03312164 0.0061845877 0.019050298
-0.009717512 0.046807125 0.015162782 -0.056064427 0.056843046 0.003767627 0.02849896 -0.004189177
0.02455381 0.012138245 0.08429498 -0.019721104 -0.050865978 0.02228426 0.015301824 0.027916446
0.021476747 0.020903144 0.049150173 0.054641463 -0.04036795 -0.042548407 0.05629235 0.0077795596
0.040147223 0.053668257 0.06777832 -0.0072725797 0.015120578 0.011404472 0.016885355 0.020685328
0.06040492 0.04705712 -0.06165674 0.051855594 0.0804833 -0.014235152 0.0655038 0.05284522
-0.076576434 0.03089328 0.08685724 -0.04702089 0.04610076 0.016583197 0.04741485 -0.06864702
0.007873153 0.0008208046 -0.10360241 0.114578046 0.074980475 -0.025010096 0.046358623 0.11247625
0.00592528 0.008195565 0.013265869 0.08040233 -0.05699887 0.04685286 -0.0426914 0.08500949
-0.03149003 -0.009503867 0.118609674 0.1056779 -0.08436349 0.04944782 0.08304561 0.00848198
00000000: fb95 86bd 7150 1b3d 9ede 7cbb e345 48bd
00000010: 9abc 33bd 959f 3c3d 2180 403d 4d21 e9bc
00000020: eede 18be 3e1c 083c 4858 8f3c 6aa9 2abd
00000030: 9ce1 e4bc 1937 f73a 8642 a83d 3062 acbd
00000040: 91ee 45bd dd93 0ebd 9349 94bd f670 5ebd
00000050: 8fdd cc3c aa98 debb e33c b53c c154 e6bd
00000060: 8d13 283d 3e30 cd3d 3d70 4cbd 610c a0bd
00000070: b1d8 8d3d acd0 c5bd a733 9dbd beb6 093d
00000080: fa10 5ebc 369c bd3d 526d d73d 4a05 a43d
00000090: 060a c8bc 3ce2 b03d 8dd0 a7bd e946 92bd
000000a0: 8b0d 683d d754 ac3a b419 e53c dcc4 e13d
000000b0: 5cb2 bc3d 74c7 983d f1cc 71bd ba8b 1abd
000000c0: 5c9f 28bb 30de bb3d 120a 113e fe93 92bd
000000d0: dd90 653c 6bf7 19bc 8241 c63d b4ed 64bb
000000e0: 1b11 a6bd bb20 33bd 0bb5 ce3d a6c0 74bb
000000f0: 6ad7 d2bd e417 28bc 8877 5cbb 82b6 723d
00000100: 5e16 c73d cfe2 1bbd c9db f9bd 116a 933d
00000110: 84e4 f63c 3149 f83c 36bf f13c 5ea0 3dbd
00000120: c386 273d 47e3 9a3d 3c3f aabb 42de 79bd
00000130: 1c99 d539 25f5 23bd 62fb a23c 1ee9 503c
00000140: 8806 0abc 1f0d 8dbd ce38 e93d e9a6 debc
00000150: 14ac c63c 506e 8cbd c0a9 dcbb b96c 03be
00000160: a56a 7ebc 8748 8a3c 84b4 aebd 04ea c9bd
00000170: 834b e23d be6b 193c 2277 83bd f0e4 813d
00000180: 88ed d23c f71c 313d dc0f 76bd bb73 8e3d
00000190: 69c0 8abd e409 4c3d 1fa2 ec3a 5080 02be
000001a0: 2996 923d fdd3 733d 1a6f 0ebc 9b40 2abd
000001b0: 8944 32bd 262b 25bd 5c9e 0dbc 5306 e3bd
000001c0: 7710 293d 079f aabd f4b7 07bd 1219 6e3d
000001d0: 718a 61bd 76e7 21bd 4774 823d b6eb 8d3d
000001e0: 7f66 aa3d 648f 243d 15f8 05bc 92db 913d
000001f0: 0244 cdbc fa74 323c a58d a4bd a72f 21bd
00000200: f004 313d ae84 0bb9 b05d e2bc b9b6 ce3d
00000210: ae63 92bb a4c0 edbc 2b62 b93d 2961 7e3d
00000220: 9584 41bc 4ad6 98bc 39e1 27bd 2913 f63d
00000230: ebf2 a4bc 8862 0abd 47ba a43d 93aa 74bd
00000240: 5200 c13d 3187 9a3b 5e69 f63b cdb8 aabd
00000250: 8e04 283d 55ad 2e3d 82b1 c63a 2424 7ebd
00000260: 4199 1c3d a415 753d 69a5 b1bd 8626 56bd
00000270: c4df 813c 9f8e 803d 7e4d 983d 3bd6 3b3c
00000280: ddb9 463d c04a dcbd eabb 973d a2ca af3b
00000290: 4330 98bd 2282 a3bc 2fdd 79bd e119 9e3d
000002a0: 750c 903d e62b 9bbb 428e b43d 030f b53b
000002b0: 5fa9 9c3d e773 d33d 6b48 ff3c 3525 85bd
000002c0: 4e76 85bd 2e05 ee3c e4c5 813d e776 113d
000002d0: 2ac1 3f3d 8faa 07bd 15a8 ca3b 5f0f 9c3c
000002e0: 3336 1fbc d4b8 3f3d 516d 783c d0a3 65bd
000002f0: 41d4 683d 4bea 763b a776 e93c 5d45 89bb
00000300: 1225 c93c 7ddf 463c d9a2 ac3d 278e a1bc
00000310: d858 50bd 7b8d b63c 80b4 7a3c 08b1 e43c
00000320: 01f0 af3c 123d ab3c b151 493d bacf 5f3d
00000330: dd58 25bd 3d47 2ebd cf92 663d adeb fe3b
00000340: 6a71 243d 3fd3 5b3d 5ccf 8a3d d24e eebb
00000350: 4dbc 773c d3d9 3a3c 2853 8a3c 4774 a93c
00000360: 266b 773d f7be 403d c78b 7cbd 8866 543d
00000370: 6ed4 a43d 8e3a 69bc db26 863d 3b74 583d
00000380: 1bd4 9cbd e713 fd3c 35e2 b13d fa98 40bd
00000390: 27d4 3c3d 7cd9 873c 1336 423d cf96 8cbd
000003a0: 66fe 003c 442b 573a 802d d4bd e5a7 ea3d
000003b0: 5d8f 993d f9e1 ccbc 8ae2 3d3d f359 e63d
000003c0: da28 c23b b146 063c 1659 593c faa9 a43d
000003d0: a677 69bd c9e8 3f3d 2ddd 2ebd 7519 ae3d
000003e0: b1fb 00bd 1bb6 1bbc a1e9 f23d a86d d83d
000003f0: c4c6 acbd cc89 4a3d d113 aa3d 01f8 0a3c

bias_hh_l0 f4 [384]
0.004608177 0.052338373 -0.00011703248 0.062430654 -0.14959818 0.13367485 -0.03084622 0.10660966
-0.088503264 -0.079129055 0.11377767 -0.03723108 -0.049962945 -0.09563044 0.036689337 0.0053099734
-0.032179307 0.0294882 0.009494744 -0.031382468 0.05422457 0.055548023 0.11686107 -0.06282489
0.038683176 0.015766788 0.00021157252 -0.06673658 0.064947225 0.046183605 0.029327786 0.09908093
0.03689239 -0.033274982 0.02077555 0.06802873 0.027921919 0.11404212 0.036024638 -0.017160358
0.01940009 0.078880884 0.014133359 0.023050208 0.060657173 0.04735049 -0.1086892 0.053120263
0.113890514 -0.036827944 0.120166704 0.028247565 -0.057554513 0.061077483 0.07412283 -0.07774035
-0.065503165 -0.07300825 0.08723088 -0.0017073865 0.019079996 0.06268358 -0.08289551 0.06702367
0.07379134 -0.07055867 -0.052379172 0.06160774 -0.040366817 0.029691951 -0.03899018 0.060726196
-0.0021708852 0.07817388 -0.0077726394 0.056940176 0.05211063 -0.041517545 0.054855682 0.055861186
-0.056840673 0.04105714 0.046147004 -0.029695965 0.07408753 -0.09124624 0.04322028 -0.08076823
0.030171521 0.025577653 0.050447952 0.07527737 0.14196292 -0.0063917553 -0.036696866 0.013925939
0.05116297 0.03263249 0.05827875 0.10168584 -0.06398773 0.09071085 -0.06707181 -0.09286454
0.012008673 -0.015622961 0.027595688 -0.09370123 -0.045277167 -0.07102266 0.030188879 0.04886743
-0.05452575 -0.11981138 0.013597504 -0.06437809 0.06085963 -0.073073834 0.08557904 0.069951296
0.015404654 0.028664885 -0.083886355 0.117041335 0.016252328 0.04289783 -0.10794253 -0.10212286
0.070382155 -0.03974955 0.06702846 -0.02601187 0.06597954 -0.033990137 0.109646834 0.089309834
0.04021392 0.08853646 0.083152995 0.08201571 0.088532425 0.08570405 -0.0441749 -0.055709828
0.10173082 0.034263555 -0.051606506 -0.0623445 0.033060562 0.086385034 -0.078640476 -0.07055454
0.08578546 0.018460011 0.030370662 -0.0038311847 -0.06404419 0.024824105 -0.061583586 -0.023811482
-0.033703525 0.0134489415 -0.07379991 0.011483205 -0.017088976 -0.05671423 0.02185627 0.09952428
-0.034706507 -0.0489197 0.017873632 0.008994147 -0.092975214 -0.052152522 0.023554878 0.0015489127
0.06992011 0.0882835 -0.030973092 0.02551141 -0.04654591 -0.040158767 0.069167696 0.047699917
-0.0125880465 0.020700242 0.13495654 -0.058685683 -0.018901795 0.10372254 -0.03018691 -0.04347752
0.09834511 0.115922526 0.102867685 -0.03798629 0.00075970916 -0.07789387 0.046113353 -0.0014890415
0.097205415 0.011005873 0.014412831 -0.045807064 0.0075721843 0.054212116 -0.116657205 0.10492145
0.0328009 -0.0035601584 0.101496644 -0.049824305 0.0056635137 0.04167429 0.08525247 -0.09590387
0.050152697 -0.040030655 -0.05522125 0.08094859 -0.06335339 0.08082709 0.029816039 0.07819603
-0.00418194 -0.04478967 0.028127672 -0.05709734 -0.0075184447 0.036013827 0.079569824 -0.0937907
0.06876311 -0.09103158 -0.0070387865 -0.027055314 9.443232e-06 0.11709584 -0.006218076 0.15073131
0.052254397 0.009227908 0.031577952 0.046542548 0.020766234 0.055476423 0.053955626 0.09796216
-0.0223403 0.0784955 0.0022534528 0.00048691873 -0.0012187688 0.043591663 0.12689212 0.07453007
00000000: 3100 973b c360 563d 566f f5b8 49b7 7f3d
00000010: 4430 19be 0fe2 083e 36b1 fcbc 2a56 da3d
00000020: 3341 b5bd 6a0e a2bd 4404 e93d 9e7f 18bd
00000030: f2a5 4cbd e4d9 c3bd 8f47 163d 49ff ad3b
00000040: 73ce 03bd 3d91 f13c d88f 1b3c e78a 00bd
00000050: 951a 5e3d 5386 633d db54 ef3d 56aa 80bd
00000060: 4072 1e3d 5a29 813c 91d9 5d39 30ad 88bd
00000070: 0d03 853d 052b 3d3d d340 f03c f1ea ca3d
00000080: 7a1c 173d 594b 08bd 7c31 aa3c a652 8b3d
00000090: 82bc e43c ea8e e93d 928e 133d e193 8cbc
000000a0: f0ec 9e3c 4d8c a13d 9b8f 673c cad3 bc3c
000000b0: a873 783d 96f2 413d 7198 debd a294 593d
000000c0: 6e3f e93d e6d8 16bd f619 f63d 7067 e73c
000000d0: 48be 6bbd 622c 7a3d b6cd 973d 5536 9fbd
000000e0: 8626 86bd 5985 95bd 1ba6 b23d 62ca dfba
000000f0: a74d 9c3c 4060 803d 1fc5 a9bd b543 893d
00000100: ea1f 973d 1081 90bd 8b8b 56bd 6658 7c3d
00000110: ad57 25bd 893c f33c 2bb4 1fbd 08bc 783d
00000120: 6945 0ebb a119 a03d a0b1 febb 1a3a 693d
00000130: f571 553d 4d0e 2abd 5ab0 603d b3ce 643d
00000140: c4d1 68bd 882b 283d a404 3d3d f444 f3bc
00000150: 34bb 973d 4fdf babd c007 313d d069 a5bd
00000160: 442a f73c 3a88 d13c 83a2 4e3d 062b 9a3d
00000170: ba5e 113e ee71 d1bb 744f 16bd 9f29 643c
00000180: 4390 513d a5a9 053d b3b5 6e3d aa40 d03d
00000190: 000c 83bd 9cc6 b93d f25c 89bd c42f bebd
000001a0: 06c0 443c 73f7 7fbc 5a10 e23c 6ee6 bfbd
000001b0: 8d74 39bd 5474 91bd ab4e f73c 3729 483d
000001c0: 6556 5fbd ab5f f5bd 11c8 5e3c a9d8 83bd
000001d0: f347 793d bca7 95bd 1044 af3d a042 8f3d
000001e0: cd63 7c3c 9fd2 ea3c 9ccc abbd 5eb3 ef3d
000001f0: 9a23 853c a3b5 2f3d f910 ddbd ca25 d1bd
00000200: 8524 903d 6dd0 22bd 3846 893d d816 d5bc
00000210: 4820 873d 3e39 0bbd 858e e03d 13e8 b63d
00000220: 5ab7 243d 9b52 b53d 1e4c aa3d daf7 a73d
00000230: 7d50 b53d 9b85 af3d bdf0 34bd fd2f 64bd
00000240: 4058 d03d f157 0c3d 5861 53bd f25c 7fbd
00000250: 836a 073d a3ea b03d 420e a1bd e67e 90bd
00000260: 4ab0 af3d 7339 973c e5cb f83c 9d14 7bbb
00000270: 9a29 83bd ec5b cb3c 123f 7cbd 4c10 c3bc
00000280: b50c 0abd f358 5c3c 6824 97bd 0d24 3c3c
00000290: 2efe 8bbc 2e4d 68bd ec0b b33c 63d3 cb3d
000002a0: 6928 0ebd 0660 48bd b96b 923c 305c 133c
000002b0: ca69 bebd e29d 55bd 29f6 c03c e304 cb3a
000002c0: 4632 8f3d fbcd b43d 48bb fdbc 4efd d03c
000002d0: eda6 3ebd 857d 24bd cba7 8d3d fd60 433d
000002e0: 183e 4ebc 8e93 a93c 0c32 0a3e 6660 70bd
000002f0: f0d7 9abc 7c6c d43d 8a4a f7bc 7c15 32bd
00000300: 2969 c93d ca68 ed3d 4bac d23d 8397 1bbd
00000310: 3827 473a d286 9fbd 5be1 3c3d f12b c3ba
00000320: a213 c73d fa51 343c cb23 6c3c 30a0 3bbd
00000330: 1620 f83b 860d 5e3d f9e9 eebd 0fe1 d63d
00000340: 3d5a 063d 8c51 69bb 79dd cf3d 9214 4cbd
00000350: ff94 b93b a9b2 2a3d d998 ae3d 4069 c4bd
00000360: ea6c 4d3d 2ff7 23bd ad2f 62bd 60c8 a53d
00000370: 6cbf 81bd ac88 a53d c440 f43c 3d25 a03d
00000380: a808 89bb 5f75 37bd 016c e63c e6de 69bd
00000390: 495d f6bb 3c83 133d 81f5 a23d 5715 c0bd
000003a0: acd3 8c3d c46e babd 9fa5 e6bb 1ba3 ddbc
000003b0: 5f6e 1e37 f2cf ef3d 01c1 cbbb 4f59 1a3e
000003c0: b508 563d a730 173c e257 013d 66a3 3e3d
000003d0: f31d aa3c 3f3b 633d 9300 5d3d 63a0 c83d
000003e0: 0103 b7bc 40c2 a03d aaae 133b 2049 ff39
000003f0: 18bf 9fba 2c8d 323d 02f0 013e 39a3 983d
