checkpoints2/encoder_ln2.pth (torch_old, 308725 bytes, 4 tensors)

weight_ih_l0 f4 [384, 64]
00000000: 22e5 22bc d43b 70bc 3a5c 9dbb 8e49 5bbd
00000010: bf2a dabc 7557 a1bd 6b47 fabc 4902 d8bd
00000020: 911f fbbc 4f0c 3bbd 9336 f8bd b390 01be
00000030: d7f7 aebd c8f5 84bd 235f 01be 6a84 513d
00000040: 8af9 acbd 5a83 6cbd 7f3f b9bd b372 e03d
00000050: 389b fdbb 71cd 58bc c39f 72bd 0f49 9cbd
00000060: 0678 c5bd 6016 97bd 7e44 603d 38af 2a3d
00000070: 56c3 35be fa43 afbc 9c0f 553b 8e1d 2a3d
00000080: cd94 893d d964 d03d a08b e43c 67a7 5dbc
00000090: cbe9 d83d 066b 223d c78e 3cbd 00ac 6ebd
000000a0: 25b8 91bd 11e8 3cbd 9ed2 06bd a2d1 a8bd
000000b0: 09fb 78bd 278f 9cbd 7537 5c3d edc3 b83d
000000c0: 5b0f 97bd c5ac efbd 8877 31be fa2a bb3d
000000d0: 38e9 743d caa6 80bd afa2 843c 883f 17bc
000000e0: 1d55 4cbd fe84 e83d b830 953b 8445 5b3d
000000f0: a8df f53c b92e c4bc 44ff 25bd da3d d7bd
00000100: 0ad6 e2bd dd97 17bd d8af bb3d fcc3 03bd
00000110: e061 ecbc 2da9 15bc d895 f2bc d60b 983d
00000120: ad91 1dbd 3c1f 19bd 92bc 603d f8d8 19bc
00000130: 9b80 a13c 5c5c a9bd da53 1ebd ec4b b83c
00000140: 4688 dcbc e9a1 a13c d170 563d 2b0e e83c
00000150: 1bb3 a23c a609 f43a 43ee 04be 13df eabc
00000160: f579 83bd 9fe5 323d fa59 34bd e1fe ad3d
00000170: d9ac eb3c 8688 95bd 5ad5 bbbd f61a 943d
00000180: 25d0 dfbd 5c98 aebd 5739 b43d 8ae9 c63d
00000190: e119 bd3d fabe b83d dbe5 b8bb 88e4 febc
000001a0: ad40 ec3a c749 713d 045b 813d 62f5 8e3d
000001b0: 9250 49bd 6515 813c 8d64 4b3d 9977 d43c
000001c0: 2db8 033d 4d7b 2f3d c604 f73b 55a3 713b
000001d0: 586b 6a3d c819 3abc 1c68 98bc 4dcf 393d
000001e0: 19ea aabc 1d57 5b3d bc87 bcbd c9a2 a2bd
000001f0: 268b 60bd 3f00 a9bd af14 35bd 7ce0 1a3d
00000200: fa03 96bd 1227 fdbd b345 b3bd fce3 87bd
00000210: 29ba 57bd 3781 b73c d8e3 1dbe 4a81 91bc
00000220: 7a8d 94bd 88ab 873c f636 163d b395 853b
00000230: 8c21 f8bc a7aa 993c f709 763d b877 9a3d
00000240: 95ec 06bd 3a59 65bc 9f9d 653e ab29 503d
00000250: e560 c33a 85e8 23bd 238b 37bc c8bb dabd
00000260: 028b cd3c 98fd 983c 9d0c 213c e795 d03d
00000270: 2288 1d3d 501a 0abd 300e 833d 8228 363d
00000280: f360 c53d 5298 e7bc aa36 8dbd ff28 82bd
00000290: 20f6 c2bd 4d19 98bd 8715 133c 1f6c 4cbd
000002a0: a015 b8bd 0fa1 9bbc 33f7 00bd 5227 923d
000002b0: f3d5 263d 1f0a 1abe 46d4 2a3e 101e 1d3c
000002c0: da57 1e3c 7334 893c 38a9 1b3d 92dd 723d
000002d0: f55f 913d eb80 33bd 1e6d b03c 397a 2fbd
000002e0: bf04 0c3e 08e4 363d ce1d 753c c545 613d
000002f0: eb71 993d 340d 663d 4407 d8bd 91b0 963a
00000300: b6e3 903d d29c 2dbd 1afc 05be ccd2 da3d
00000310: 2a87 2f3e b1b3 583d bee3 28bc eb54 4fbd
00000320: 61be 043e 289c 60bc 8454 96bb f1b8 84bd
00000330: ac0b 503d c77b 12bc fb09 31bd 7f78 6abd
00000340: da96 b7bd 1a90 143d 183d ab3b 7bb8 b7bd
00000350: 1c10 713d d3f0 323d 5588 24bc aefd 50bd
00000360: dab6 1bbc e53f c13c 5522 65bd 1c75 cfbc
00000370: 20ea 923d 6db8 cb3c 557f 2c3d c751 ffbb
00000380: 0cc7 a13d 8e4a 1b3b 042e 3abb 62bb b73d
00000390: 6afd bd3d c907 593d d933 0b3d 71bd 51bd
000003a0: 78be 1d3d ee87 59ba 9e9a 953d cfbe 0b3c
000003b0: 86c6 003c 4b98 f9bd a5bc 2d3c 32b0 cfba
000003c0: 9a34 cc3c 586a 133d 0abd 31bd afee 2cbd
000003d0: 14cd 843d 049e aebb e2a9 573d 8270 11bd
000003e0: 21dd 943d 7aa3 1c3d b7ff 74bd 2ec4 bdbd
000003f0: 6ab7 073e 2c8a 2dbd 5f24 a7bd c94e f43c
-0.009942325 -0.014662702 -0.004802254 -0.053536944 -0.026631711 -0.07878009 -0.030551633 -0.10547311
-0.0306547 -0.045666035 -0.12119784 -0.12652855 -0.085433654 -0.064921916 -0.12633948 0.05115167
-0.08446033 -0.057742454 -0.09045314 0.10959377 -0.007739451 -0.013232575 -0.059234392 -0.07631122
-0.09642033 -0.073773146 0.05475282 0.041671008 -0.17750296 -0.021394718 0.0032510525 0.04153209
0.067178346 0.10175485 0.02789861 -0.013528681 0.105914675 0.039652847 -0.0460346 -0.0582695
-0.07115201 -0.046119753 -0.032915704 -0.08243109 -0.06078628 -0.07644492 0.053763825 0.09021745
-0.07375976 -0.11702875 -0.17330754 0.091390565 0.059792727 -0.062818125 0.016190855 -0.009231456
-0.049885858 0.11353491 0.004552927 0.053533092 0.030013874 -0.02394806 -0.040526643 -0.10509844
-0.11075981 -0.037010062 0.09164399 -0.032169327 -0.028855264 -0.009134573 -0.029612467 0.074241325
-0.038469005 -0.037383303 0.054867335 -0.009390108 0.019714644 -0.08269569 -0.038654186 0.02249714
-0.026920449 0.019730525 0.052353684 0.028327068 0.019860795 0.0018618598 -0.12981515 -0.028670823
-0.06419746 0.043676015 -0.04403112 0.0849588 0.028768944 -0.073014304 -0.09171553 0.07231705
-0.10928372 -0.08525154 0.08799999 0.09712513 0.09233452 0.09020801 -0.0056426353 -0.031114832
0.0018024646 0.05890825 0.06316188 0.06980397 -0.049149103 0.015757272 0.04965644 0.025935935
0.032158066 0.0428422 0.007538411 0.0036871035 0.057231277 -0.011358686 -0.01860433 0.045363713
-0.02086358 0.053549875 -0.09205577 -0.07941205 -0.054820202 -0.08252 -0.04420918 0.03781174
-0.07324977 -0.12360968 -0.087535284 -0.066352814 -0.05266777 0.022400482 -0.15418947 -0.017761845
-0.07253547 0.016561285 0.03667351 0.0040766834 -0.030289434 0.018758131 0.060068097 0.07542366
-0.032940466 -0.013998324 0.22423409 0.050820988 0.0014906196 -0.04001667 -0.011202606 -0.10680348
0.025090698 0.01867561 0.009829667 0.101848416 0.038459904 -0.0337165 0.063991904 0.044472225
0.09637632 -0.028270874 -0.06895192 -0.06355476 -0.09519601 -0.07426701 0.0089773005 -0.0499078
-0.089885 -0.018997697 -0.031485748 0.07136406 0.04073138 -0.15042923 0.16682538 0.009589687
0.0096645 0.016748643 0.038003176 0.059293337 0.070983805 -0.043824118 0.021536406 -0.04284117
0.13673685 0.04465106 0.014960719 0.054998178 0.07492431 0.056164935 -0.10548261 0.0011496713
0.070746824 -0.042385884 -0.1308445 0.106847376 0.17141405 0.052905742 -0.010308204 -0.050618093
0.12963249 -0.013709106 -0.0045877118 -0.06480587 0.05079238 -0.008940644 -0.04322241 -0.05724382
-0.089643195 0.03627024 0.005225789 -0.08970734 0.058853254 0.0436867 -0.01004227 -0.051023178
-0.009504044 0.023590038 -0.055940945 -0.025324397 0.07173562 0.024868215 0.04211362 -0.007791731
0.07899293 0.002369556 -0.0028408775 0.08971287 0.092768505 0.05298594 0.033984993 -0.051206056
0.038511723 -0.0008298148 0.073048815 0.008529379 0.007859832 -0.12187251 0.010604058 -0.0015845357
0.024927426 0.03599009 -0.043393172 -0.042219814 0.06484428 -0.0053288955 0.052652247 -0.035507686
0.072687395 0.03824184 -0.05981418 -0.09265934 0.1325356 -0.0423681 -0.08161234 0.029822724

weight_hh_l0 f4 [384, 128]
00000000: e05f 833d 050f 7e3d 71b1 053e e46f 2fbd
00000010: 09cd cf3c 61c7 64bc ff31 c73d 930a 4bbd
00000020: 179c d43c 839f 023d 1ae9 76bd ea2d d5bc
00000030: e2e6 96b9 9a5c a1bc e26a 103d 270c 2d3d
00000040: 6721 1a3e 1923 46bd 125c b0bd 92f5 02bd
00000050: d15e 233c ad97 af3b 580b 8e3d c7f9 ad3d
00000060: 3d0a 043d 0f8b 733d 62db 863d 7ccb 4ebc
00000070: 3e47 d6bb 5dfb 923d b5de 203d bb62 203e
00000080: 2a20 2dbd 6ccb 243d bbac d1bb 1c44 0ebd
00000090: 8e1b cc3d 08e2 ae3d e387 5abb 32b9 9f3d
000000a0: 6873 003d 855b 223d 881b c4bc 2c65 43bd
000000b0: 2934 d5bc f291 d0bc 4731 55bd e95c adbd
000000c0: 3088 1c3d 4372 303d 0b88 1b3e 2823 afbd
000000d0: 6b74 5d3d c841 00bd 131a 813c b8a1 7a3d
000000e0: dc44 243e 466c e23d d82e a23d e222 b83d
000000f0: b917 083e ad0c b2bc b5af 3c3d 4afe 933d
00000100: bf62 2dbc 6ce4 4b3d 0223 a1bd d1ae 973c
00000110: 280a 3b3d d142 8cbd 206f f7bd 1fe4 13bd
00000120: 99f3 c53c 065a 2ebd 3604 763d 2169 5d3d
00000130: e616 f33c 77d0 dd3d 84cf 323c 7c57 9cbd
00000140: 0f3a 67bd a26b f2bd 7d47 53bd e2a3 3ebd
00000150: 8fb5 6c3d e59c 33bd 57c5 be3d c5aa a9bd
00000160: 58a0 08bd 72eb 72bb bee3 d03c 7781 57bd
00000170: 5c7b 2c3e 2612 7e3d cc6f b9bd 1eff 4fbd
00000180: ec40 88bd f4d1 2ebd 53f7 bbbd 8de0 23be
00000190: 231d 4b3d c6e5 343d dfce 59bd fb5b 1b3c
000001a0: d822 8a3d 58b4 563d 7dcb ca3c b855 c93c
000001b0: 7c00 8abd 79a6 9a3d 8eb8 b83b 8e2b 63bd
000001c0: 1872 60bc 0878 f4bd 1991 f3bd f3d5 0c3d
000001d0: f05e b8bc ba62 793b e22c 3a3b 960d 6f3d
000001e0: 182a c73d d6d5 2dbd ab48 d33b 8788 dd3c
000001f0: 7a1f 4d3d 53cb 4abd 3b56 2cbd 5a72 673d
00000200: d8af d1bd ce43 51bd 0b2c 6abd eea0 c8bc
00000210: 72a3 723d 9658 8ebd b70d 31bd 7f0b 1bbd
00000220: b47b 2e3d c720 073c 2978 c7bc 81bc dcbd
00000230: 55ec cf3d 3117 1f3c 9329 20be 430a 3cbe
00000240: 8614 ec3c edeb 9bbc 0348 a1bd 54ec a13d
00000250: 43cb 72bc 431b b53d 3066 823c aa06 09bd
00000260: 47af 0c3d d349 1d3e 3a5b e13b 3198 63bc
00000270: 1e93 ac3c 740c 983c b633 443d daf5 8c3c
00000280: b201 743c 083b 2abd e090 fbbc 611b eebc
00000290: f62f 0c3d 0fc6 ec3d 634e 623d 3578 76bd
000002a0: c746 d73c c565 4ebd 9976 073c 1109 64bd
000002b0: 2fcc 893d ff96 303e 54e1 c13c 7572 963d
000002c0: 033e f53d ef19 213d 4102 393e 2883 a3bc
000002d0: cc21 aabd 52e9 c23d 41f3 ae3d 4425 243d
000002e0: e93f c3bd c35f 5fbd 9a5e 8f3d 9916 943d
000002f0: 2e53 b0bd 77cc 433d b9a6 013e 6ce9 10bd
00000300: d216 a23d 834f d3bd 4f04 5d3d c21e 613d
00000310: a5db b73d f5e1 a5bd e0f4 03bd ba72 973d
00000320: 9349 003e e315 e3bb c561 843d 6891 b83d
00000330: 76b7 95bc 7a24 1ebd 4c3d 64bd 77bb 0abe
00000340: 7e2b 1abe befb 21be 007b 69bd 798d f6bd
00000350: e8e4 85bd 7da8 a73b 8c57 69bd 39ac 50bc
00000360: 4721 82bd 187d 76bd c710 81bc cd3a 153d
00000370: ee28 353d 86d5 16be 8853 ff3c c982 553d
00000380: eaee 98bd 0962 4dbd 6601 76bd a1d2 e93c
00000390: 1636 083e f4ba a6bd 5411 ae3d eb35 4abc
000003a0: 37f9 923d e5f0 62bd d64d d3bc 1143 2a3d
000003b0: 6aff 8a3d dada e73b f01c 00be 3c9c c3bc
000003c0: db55 6e3d 8469 08bc 5f8d 913c ce1d df3d
000003d0: 9f15 ecbd 5806 533d b2cb f7bd 6b80 94bc
000003e0: 3feb 0abe 4ebc 293d ce6e 333e 4441 203d
000003f0: bfab 0abd dc26 2e3c 509a 873d a202 10bd
0.06414771 0.062026042 0.1305597 -0.042831317 0.025366323 -0.013963551 0.09726333 -0.04957063
0.025953336 0.031890403 -0.060280897 -0.02602287 -0.0002878225 -0.019697476 0.03525818 0.042247918
0.15051804 -0.048373315 -0.08611311 -0.031972475 0.009971336 0.0053586573 0.069357574 0.08494907
0.032236326 0.05945879 0.06584813 -0.012621757 -0.0065392544 0.0717685 0.03927489 0.15662663
-0.042267002 0.04023306 -0.006398765 -0.034732923 0.09966193 0.08539206 -0.0033345155 0.07798995
0.03136006 0.03963806 -0.02393891 -0.047703907 -0.026025848 -0.025460217 -0.052048948 -0.08464987
0.038215816 0.04307772 0.15188615 -0.085516274 0.054066103 -0.031312734 0.015759503 0.061189383
0.16041893 0.11055808 0.07919091 0.08991028 0.132903 -0.02173456 0.046066005 0.07226236
-0.010582625 0.049778387 -0.07868005 0.018515976 0.045663983 -0.06848682 -0.12081742 -0.036106225
0.024164008 -0.04256632 0.06006261 0.054055337 0.029674005 0.10830777 0.010913733 -0.07633874
-0.056451853 -0.118369356 -0.05158185 -0.04654301 0.057790335 -0.0438508 0.09314983 -0.08284525
-0.03335604 -0.0037066606 0.025499221 -0.0526137 0.16843933 0.062029026 -0.09054527 -0.050780408
-0.06653008 -0.042680696 -0.09178033 -0.16003628 0.049588334 0.04416444 -0.053175803 0.009482379
0.06744927 0.052418083 0.024755234 0.024577007 -0.06738374 0.075512834 0.005637235 -0.05546146
-0.013699077 -0.11936957 -0.118929096 0.034383725 -0.022506207 0.003805323 0.00284081 0.058362566
0.097248256 -0.042440258 0.0064478717 0.02704264 0.050078847 -0.04951031 -0.042074423 0.05650554
-0.10238618 -0.051090054 -0.05717091 -0.0244908 0.059237905 -0.0695049 -0.04322597 -0.03785276
0.04259844 0.008247561 -0.024349289 -0.10778142 0.10152499 0.009710119 -0.1564086 -0.1836329
0.02881838 -0.019033397 -0.07875063 0.07906404 -0.014818969 0.088430904 0.015917867 -0.03345362
0.034346845 0.15360193 0.00687733 -0.013891266 0.021066245 0.018560626 0.047900878 0.017207075
0.014892982 -0.041560203 -0.03070873 -0.02906579 0.034225427 0.11561214 0.055250537 -0.060173232
0.026278866 -0.050390024 0.008268022 -0.05567271 0.06728398 0.172451 0.023667015 0.0734605
0.119747184 0.039331373 0.18067266 -0.019960001 -0.083072275 0.095171586 0.08542491 0.0400746
-0.09533674 -0.054534685 0.07000466 0.07230873 -0.08609615 0.047802415 0.12661256 -0.03537886
0.07914509 -0.103179 0.053959187 0.054960974 0.08977441 -0.080997385 -0.032215953 0.07394929
0.12528066 -0.0069300993 0.064639606 0.09012109 -0.018275958 -0.038609006 -0.05572252 -0.13548075
-0.15055653 -0.15818688 -0.057002068 -0.120387025 -0.06537801 0.005116521 -0.056968257 -0.012736374
-0.063540034 -0.060177892 -0.01575507 0.03643303 0.044228487 -0.1472989 0.03116776 0.05212668
-0.07467444 -0.05014232 -0.060059927 0.028542819 0.13301882 -0.08141127 0.08499399 -0.012341957
0.0717644 -0.055405516 -0.025793951 0.041567866 0.067869976 0.0070756497 -0.12511039 -0.02387821
0.058187347 -0.008325938 0.017767606 0.10894357 -0.115275614 0.05151972 -0.12099399 -0.01812764
-0.13566302 0.041439347 0.17522737 0.039124742 -0.033855196 0.010629382 0.0662123 -0.03515876

bias_ih_l0 f4 [384]
00000000: a3ba 62bd 8dab b23d 3821 303c f8fa 4dbd
00000010: c0f4 37bc 37a7 713c df1d e63b 699a 0c3e
00000020: df83 d6bb eee0 813c 28ae 413d 19ee 5e3c
00000030: e179 84bd 2823 8d3d 0591 263e b3af 323c
00000040: 3151 ed3d 7d51 663c bd7e c038 5cae 9a3d
00000050: b959 913a 5f8f 9f3d 031b 013c 431d b4bc
00000060: 1dde 8e3c ccc1 d73d 25ae 963c 36b0 f4bc
00000070: d2f6 11bd c647 8f3d 76f9 36bd c276 57bd
00000080: 597a cf3c 2378 39bc cece 003d 1928 d73d
00000090: 0343 f8bc 535e eb3c 9b7c 133d 7aa3 ef3d
000000a0: 2247 57bd 211f 0e3d cbdf 8a3d 3eb9 853d
000000b0: 63d1 a23c 6128 033e 4ac8 233d 5d9a 01bd
000000c0: 4773 013e 65e4 6fbb 6ca5 803d 339e d43d
000000d0: d83d 8abd df6f e43d ecb3 bb3c 2831 213d
000000e0: 4973 403d f85f c83d 8e3b 543c ed9d 483c
000000f0: 235c 053d 3e8d aebc bc97 603d 1e86 893d
00000100: c0ea 90bd 275d c73d 9b75 973d a265 5fbd
00000110: c587 0a3e f3e1 3f3b 5ced 0e3d 7f12 be3c
00000120: 8c76 ec3b 684d b33d 8af5 48bd 2f6b 9f3c
00000130: 3904 b0bd 42ad 49bd 5477 3c3c bf76 2f3d
00000140: 775d 72bd 4907 02bd 3943 933d 6f30 403d
00000150: 1787 2fbd 0758 4a3d 4744 abbd 6b84 75bd
00000160: 57eb 74bd 50f9 133d b1e6 c93d d2f9 863d
00000170: fae7 18bd b6b6 debc b5f1 813b 8a76 f6bc
00000180: 94e0 6f3d 6c78 4e3d 9beb 4abd 83a8 a93d
00000190: e0e3 b33d feff ba3c 62cc 99bc 5587 e5bc
000001a0: 5e0e aa3b f1dc 8abb f896 873d 955b 953c
000001b0: 5428 c1bd 8082 69bc 1e1f bc3b 480e dcbd
000001c0: 719f 4a3d 8eb7 cd3d 02cb cd3d ab7e 02bd
000001d0: 90f0 13bd 69c0 b03d 3cc3 bfbd 7da1 913d
000001e0: 0a7a 1fbd 32e4 533d efc0 623c f416 0d3e
000001f0: e0f1 423d 6e35 76bd 1ef2 2bbd 78ff a7bd
00000200: b0b8 0abd 2d0d 96bd ec51 2c3d 0c1f 2bbd
00000210: 630a 24bd d950 973c 37de a93c 56b3 38bd
00000220: 7bc8 afbc 9677 463d 96cf 9dbc 0922 763d
00000230: 57df edbc 9543 363d fa3b a63d 169a 433d
00000240: cb02 c43c c0d7 653d c4f2 5c3d 0a55 663d
00000250: 3bfd 183d a2a6 29bd c03c 043e 8b91 96bd
00000260: eaf1 be3c 5e0e b73c 0090 d93c d631 10bd
00000270: 06e1 5a3d 82b2 da3a 7e19 5bbc f22a 9f3d
00000280: b910 38bd 6b31 9bbd 0ec7 c23c 1260 68bd
00000290: 0130 7fbc 0481 853d aa6c 2b3d 5499 8abd
000002a0: 0c68 84bd 94a0 d23d 4c14 a3bc 3d86 b53d
000002b0: 36f5 b73a fa36 81bd c45f 633c e699 58bd
000002c0: f451 dbbc 0c75 6abc d569 06bc 2aac ce3d
000002d0: 548a 98bd 9e7e e93d edb5 a83d dc2e c7bd
000002e0: d2d1 ac3d 21a8 693d 6abc 953d 4a69 09bc
000002f0: 2234 863c 58d1 05bc 2b69 d83d 292d ce3d
00000300: 8a2e 2abd efbc 87bd e2ec 853d 45ef e83c
00000310: b05c e43b 47b0 383c 07f3 853d a97c 31bd
00000320: 21bc 44bd a597 acbc 489f 19bd d774 dc3d
00000330: 7a7c 1d3d 67f8 9f3c 2da0 aa3d e3e5 6ebd
00000340: 97e2 b23d f44b b23d 2ae5 a93d 0cc9 7ebc
00000350: 4ea4 86bb f9b8 67bc a2c4 abbb 1ac4 3c3a
00000360: 5a60 423d 03f3 e63c 3d00 a83c b5e5 0d3d
00000370: 6172 fb3c ecf3 863d 0ef8 923d 02a5 5e3d
00000380: cc9b d03d b022 0dbd f798 d73d 4fd5 673d
00000390: 9c6c e93c 1fa5 1fbd 92ba 0dbd 37a9 3d3c
000003a0: 1776 493d 1b7b 62bd e42a 0b3c e601 debc
000003b0: bfbb b13d ff9f 363d 4a12 bfbc e0db 1bbd
000003c0: aff0 bd3c 4cbe 4c3d 29b7 5e3c 4017 e23c
000003d0: bde6 5a3d a29c 20bb a7b2 d03d f3b5 cabc
000003e0: 17ff a93d f3d5 8c3d c371 9dbc 9e02 1b3b
000003f0: 1dd3 44bd 8ac5 ecbb 681e 80bd 5aea d3bc
-0.055353772 0.08724127 0.0107501075 -0.05028817 -0.011227787 0.01474934 0.007022604 0.13730778
-0.006546482 0.015854325 0.04728523 0.013606572 -0.06468559 0.06891471 0.16266258 0.010906148
0.11587752 0.014057514 9.17888e-05 0.07552788 0.0011089362 0.07791018 0.007879975 -0.02198661
0.017439896 0.10535011 0.018393585 -0.02986918 -0.035635777 0.069961116 -0.0446715 -0.05260349
0.025326895 -0.011320147 0.031447224 0.10505695 -0.030305391 0.0287315 0.036007505 0.117011026
-0.052558072 0.034697656 0.06780966 0.06529473 0.019875234 0.12808372 0.039985932 -0.031641353
0.12641631 -0.003660464 0.06281552 0.103817366 -0.06750077 0.1115415 0.022912942 0.03935352
0.046984944 0.097839296 0.012953652 0.012244684 0.03255857 -0.021307584 0.054832205 0.06715034
-0.07076025 0.09734564 0.07395478 -0.054540284 0.13528354 0.0029278963 0.034894332 0.023202179
0.0072162803 0.087549984 -0.04906229 0.019460289 -0.085945554 -0.049237497 0.011503059 0.042837854
-0.059171166 -0.03174523 0.07190556 0.04692119 -0.04285344 0.049400356 -0.08362632 -0.059940737
-0.05979475 0.036126435 0.09858454 0.06590618 -0.037330605 -0.027186733 0.0039655813 -0.03008582
0.058563784 0.050407812 -0.049541097 0.08284094 0.08783698 0.022827145 -0.018774215 -0.028018633
0.005189701 -0.004237764 0.06620592 0.018232146 -0.0943152 -0.014252305 0.005741014 -0.107449114
0.04946846 0.10044776 0.10048486 -0.03185908 -0.03611809 0.08630449 -0.0936341 0.071108796
-0.038934745 0.051731296 0.013839944 0.13778287 0.04759395 -0.06010955 -0.041978948 -0.08203024
-0.033867538 -0.07326732 0.042070314 -0.041777655 -0.040048968 0.018471168 0.020735843 -0.045092903
-0.021457901 0.04845389 -0.019264024 0.060091052 -0.02903716 0.044498045 0.08116908 0.04775437
0.023927113 0.05611396 0.053942457 0.056233443 0.037350874 -0.04141868 0.129138 -0.07351979
0.023308713 0.022345718 0.026557922 -0.035203777 0.053437255 0.001668528 -0.013372777 0.07771863
-0.044937823 -0.07577785 0.023776557 -0.056732245 -0.01557541 0.065187484 0.041851677 -0.06767526
-0.06465158 0.10284534 -0.01990714 0.088634945 0.001403487 -0.06309314 0.013877813 -0.052881144
-0.026772477 -0.014310133 -0.008203943 0.100914314 -0.07448259 0.114011034 0.082378246 -0.097257346
0.084384575 0.057045106 0.07311328 -0.008386919 0.01638228 -0.008167587 0.10566934 0.10067207
-0.04154829 -0.06627833 0.065393224 0.028434405 0.006969057 0.011272497 0.065404944 -0.043331776
-0.048030976 -0.021068403 -0.037505418 0.10764473 0.03844879 0.019527627 0.08331332 -0.058324706
0.08734625 0.08705893 0.08295663 -0.015550863 -0.004108942 -0.014143222 -0.0052419463 0.0007200852
0.04745517 0.028192049 0.020507926 0.034642894 0.030694189 0.06589493 0.07176219 0.054356582
0.10185966 -0.03445691 0.105272226 0.05659991 0.028494172 -0.03897583 -0.034601755 0.0115759885
0.049184885 -0.055293184 0.008494113 -0.027100515 0.08678388 0.044586178 -0.02332415 -0.038051486
0.023186056 0.04998617 0.0135934735 0.027598977 0.053442705 -0.0024507423 0.10190325 -0.024744963
0.08300608 0.06876745 -0.019219285 0.0023652683 -0.048052896 -0.007225697 -0.062557995 -0.025868583

bias_hh_l0 f4 [384]
00000000: d9d7 9a3d 37c6 893d a189 c4bd 2123 60bd
00000010: f8d2 43bc 42d8 b33d 92b4 003d de6b 313d
00000020: af9d 7bbd 3115 883d cc06 5fbd 3c79 393d
00000030: 661d 1dbd 681b 143c 3983 463e 2806 57bd
00000040: b969 06bd 8a0d 5bbc 7b6c 003d 1fc6 ba3d
00000050: 26de 5fbd e8d5 52bd d566 c13c c8c6 333c
00000060: 726b 6dbd afd7 44bd 9aee a83c 1055 0cbd
00000070: 5196 f4bc 7b93 c8bc acc5 85bb 4408 3fbd
00000080: 6e2e 343d 8d92 23bb 7211 0d3c d7bf b33d
00000090: 0666 99bd 1855 1f3d d10e d9bd e248 b3bb
000000a0: 2f76 abbd 35ee c0bd c24c d43c d672 c3bc
000000b0: 4eeb 43bc 4ca7 273d 3c15 0a3e 7a7c 7e3d
000000c0: 03d2 5d3d 3505 f4bc 187b 703d de80 1e3c
000000d0: b861 c6bd ea8f 993c b1b2 813d 5a81 cbbd
000000e0: 27df a73d 549f aebc 2532 78bd f3ba 04bd
000000f0: e1c2 40bd e27d 5a3d 907a f43c 16ec 413d
00000100: 3fdf c6bd c72d 9e3d 7154 0cbd 9144 c13d
00000110: 7b73 933d 4f22 e43c 2008 5f3d 881f 243c
00000120: 5657 b6bc 597e e6bc 83e2 9d3d c129 c2bb
00000130: d2f7 34bc a05e dc3b 1d81 533b 0955 be3b
00000140: 3810 ca3d 0161 e0bd e5c0 193c 051e 103d
00000150: 46dc c5bd 8318 86bb 4029 a33c 85b1 3f3d
00000160: 2c2f 70bd 6fc7 923d 3100 e3bc cbce 6fbc
00000170: c0f0 443d 6208 b63c 6569 0b3d 14e0 173d
00000180: 2b8d 903d 8fb7 9e3d acb3 bdbd 9df2 833d
00000190: 6e9d 983d a8a0 863d 4bb5 2abd d2af 8c3d
000001a0: ea7b 233d 44c3 6abd ecc2 853c 2f54 e0bc
000001b0: cb2e 063d 6b1b a2bd 6117 dd3d 440b 64bc
000001c0: 9799 3cbd 5369 f6bc 80da e93d 9dd2 5abd
000001d0: 4f4f e4bb 541e a43d 5fd2 c2bc 3c97 023e
000001e0: d522 75bd e9f0 633b e46e 5fbd 87ef a53d
000001f0: 0030 803d c225 4b3d c47f 12bd 265c b4bc
00000200: 1012 7b3d ea90 18bc 7222 47bd 7f48 e43d
00000210: e71b 993c 6940 f73d 261b 2abd 26d1 2ebd
00000220: 4d41 52bd c1d3 ae3d 864e 2fbd 82fb 6d3d
00000230: c2b9 8e3d f756 453c 5be7 493d 8615 ac3c
00000240: 071d e3bb 51ac 64bc c195 f1bb dfcc 773d
00000250: 7c9b f9bc c66b 633d 3d1d ce3d 585b 82bc
00000260: 9ca6 ea3c e670 b73d 39ca 4e3d 141c 373d
00000270: c2a6 053d 6f8f 55bd e098 d03c 0171 50bd
00000280: 6899 2fbd add4 763c 0c74 5ab9 3028 efbc
00000290: 0f86 8d3d 60d9 a83c efee 96bd bc73 fb3b
000002a0: b9f4 803d 4995 833d 0367 7c3d 357a ca3d
000002b0: 6f7c 40bd a1fa 3e3b 02bc ce3c 6364 96bd
000002c0: 626e 96bd a37b 813d 7175 ef3c 5095 f7bc
000002d0: 534b a13d a286 b93d 4167 b4bd 144a 973c
000002e0: 7691 013d 3f85 053d dfa4 7abd 5d4c 043d
000002f0: 15aa b8bd 1175 ce3b 1736 aa3d 219f e43d
00000300: 21e0 c7bc a139 97ba a383 ab3c 3908 433c
00000310: f056 993c e8a3 183e aacd 963d e112 cabc
00000320: af2d 18bd 8e24 4cbd 91e5 dfbc 09dc 8d3d
00000330: f44c 183e 89c0 f93c c31b 8f3d c4f4 883d
00000340: 60d7 3abd a294 9fbc e79b 1d3d a364 403d
00000350: b65e 0d3d f17d c4bd 37bf c3bd d1d4 1fbd
00000360: 5d96 5dbc c13b 9cbc cdcf 96bd 363e 21bd
00000370: 4956 b33d 84f0 3b3d fd2f d2ba a785 98bd
00000380: c047 233d 843f 753d f71d c03d f14c 87bc
00000390: 4a6f 32bb 186c 11bd 3c6b cb3d 5d08 89bd
000003a0: da73 bf3b ba7f e2bb 1da2 233d 35c5 24bd
000003b0: 5d5e f6bb a8cf 0b3d 209b 50bd 8afa 013c
000003c0: a35a e2bc 3493 833c a2c5 a73d e1aa 91bc
000003d0: e8fa 9bbd e461 be3c 1d8e f13d bb45 52bd
000003e0: 6644 b23c 24a6 b23c 7eb6 e43d 75a2 e53d
000003f0: df37 c13b 1301 5ebc 1cfd c03d 77d4 84bd
0.07560701 0.067272596 -0.09596563 -0.054721 -0.011952154 0.08781482 0.031422205 0.04331576
-0.061429676 0.06644667 -0.05444984 0.045281634 -0.038358115 0.009039737 0.19385995 -0.052496105
-0.03281567 -0.013369927 0.031353455 0.0911982 -0.054655217 -0.05147353 0.023608604 0.010972686
-0.057963796 -0.048057254 0.020621587 -0.03426081 -0.029856833 -0.024484387 -0.004082402 -0.046638742
0.04398959 -0.0024959177 0.008610116 0.08776825 -0.074901626 0.03889951 -0.10598529 -0.005471335
-0.08372151 -0.094204344 0.025915507 -0.023858469 -0.0119579565 0.04093103 0.13484663 0.06213043
0.05415536 -0.02978764 0.05871114 0.009674279 -0.09686607 0.018745381 0.06332911 -0.09936781
0.0819686 -0.021316208 -0.060594697 -0.03240485 -0.04706085 0.053342707 0.029843599 0.04734429
-0.097105496 0.07723575 -0.034260217 0.09436906 0.071997605 0.02784839 0.054451108 0.010017283
-0.022258442 -0.02813642 0.07709219 -0.0059253876 -0.011045413 0.0067251474 0.0032273002 0.005808477
0.09866375 -0.10956002 0.009384369 0.03518488 -0.096611544 -0.0040922775 0.01991713 0.046800155
-0.058638737 0.07166945 -0.027710052 -0.014636706 0.04808116 0.022220794 0.03403606 0.037078932
0.07058176 0.07749855 -0.09262785 0.06442759 0.07451902 0.065736115 -0.0416768 0.068694726
0.039913096 -0.057315126 0.016328298 -0.027383892 0.03275947 -0.07915386 0.10795475 -0.013918702
-0.046044912 -0.03007952 0.11418629 -0.053423513 -0.006967462 0.08013597 -0.023781953 0.12753004
-0.05984767 0.0034781045 -0.054549113 0.08102327 0.06259155 0.049596556 -0.035766378 -0.022016596
0.061296523 -0.009311894 -0.048616834 0.1114664 0.018690063 0.12072832 -0.041529797 -0.04267993
-0.051331807 0.085364826 -0.042799495 0.058101185 0.06969024 0.01204466 0.049292903 0.021006357
-0.0069309506 -0.013957099 -0.0073725884 0.060498115 -0.030469649 0.055522703 0.100641705 -0.015912697
0.028643899 0.089570805 0.050485823 0.04470451 0.032629736 -0.052138742 0.025463521 -0.05088902
-0.04287091 0.015065354 -0.00020833331 -0.029193968 0.06910335 0.020611465 -0.07369792 0.0076737087
0.06296677 0.06424958 0.061621677 0.098865904 -0.04699367 0.0029141086 0.025236133 -0.07343366
-0.073452726 0.0632241 0.029230805 -0.030222565 0.07875695 0.09058882 -0.088087566 0.01846794
0.031632863 0.032597777 -0.06119239 0.03229939 -0.090168156 0.0063005765 0.08311098 0.11163164
-0.024398865 -0.001153756 0.020936793 0.011903816 0.018718213 0.14906275 0.07363446 -0.024667205
-0.037152942 -0.04983955 -0.027331145 0.06926734 0.14873105 0.030487316 0.06987717 0.0668731
-0.045615554 -0.019480053 0.03847876 0.046970975 0.03451415 -0.09594334 -0.09557956 -0.039021317
-0.013524619 -0.019071462 -0.073638536 -0.03936597 0.08756692 0.04588367 -0.001603603 -0.07447367
0.039863348 0.059875026 0.09380715 -0.01651618 -0.0027226978 -0.035503477 0.09932563 -0.06691048
0.005842668 -0.006912199 0.039949525 -0.040227134 -0.007518573 0.034133583 -0.05092919 0.007933268
-0.02763111 0.016061403 0.08191992 -0.017781677 -0.07616216 0.023240037 0.11794684 -0.05133603
0.02176113 0.021807738 0.1116762 0.11212627 0.005896553 -0.013550061 0.09423277 -0.06485837
