checkpoints2/encoder_beat1.pth (torch_old, 308661 bytes, 4 tensors)

weight_ih_l0 f4 [384, 64]
0	0x3c2ff3bd	0.010739264
1	0x3c937329	0.017999249
2	0x3db4bb55	0.08824793
3	0x3d730943	0.059335005
4	0xbd6d71e7	-0.057969954
5	0x3d898085	0.06713966
6	0x3b7acb22	0.003826805
7	0x3c527ef0	0.012847647
8	0xbd7bc4c5	-0.06146695
9	0x3b901dff	0.004398107
10	0xbd664551	-0.05621845
11	0x3c9e60d9	0.01933329
12	0xbda19375	-0.07889453
13	0xbd6b6ada	-0.05747495
14	0x3d6c1bdf	0.057643767
15	0xbd625d49	-0.055264745
16	0x3d3d459b	0.04620896
17	0x3d9afbd4	0.07567564
18	0xbd7bbe2a	-0.06146065
19	0xbd20a0d7	-0.03921589
20	0xbd9275d2	-0.07151379
21	0x3dc00ec1	0.09377814
22	0xbd2231da	-0.039598323
23	0x3c152db1	0.009105132
24	0xbd559d90	-0.052152216
25	0x3c8f9473	0.01752684
26	0x3d34f1d5	0.04417594
27	0x3deec0a7	0.11657839
28	0x3d34957d	0.044087876
29	0x3d8e2671	0.06940926
30	0xbd6ea35c	-0.05826126
31	0xbe058f7c	-0.13043016
32	0xbd8e87ac	-0.06959471
33	0xbd16219d	-0.03665315
34	0xbd96e22e	-0.07367359
35	0xbd60359c	-0.054738626
36	0x3c496dbf	0.012294232
37	0x3db33d7c	0.087519616
38	0x3bb8da84	0.0056412835
39	0x3cc928dc	0.024555616
40	0xbc01e3be	-0.007927833
41	0xbd968c44	-0.07350972
42	0x3afca68f	0.0019275713
43	0x3d4be4f3	0.04977889
44	0xbd11de13	-0.035612177
45	0xbccc3781	-0.02492881
46	0x3ceedece	0.029158976
47	0x3beb896a	0.007188012
48	0x3d68fe30	0.056883037
49	0x3d9d5f6f	0.07684218
50	0xbc8f28be	-0.017475482
51	0x3c8b6cdf	0.017019687
52	0xbcfd2362	-0.03090066
53	0x3d5634e7	0.052296545
54	0x3d68278a	0.056678332
55	0x3c35ac4e	0.011088444
56	0xbd20033c	-0.039065585
57	0x3cd9930a	0.026559372
58	0xbdc891f7	-0.097934656
59	0xbc3d6050	-0.011558607
60	0x3d1c0240	0.038088083
61	0xbcb3368a	-0.021876592
62	0x3d139b14	0.036036566
63	0xbd9c3ce6	-0.07628803
64	0x3db355e9	0.087566204
65	0xbba5f701	-0.0050648456
66	0xbb8176c8	-0.0039509274
67	0x3dae8f22	0.08523394
68	0xbc5734d6	-0.013135156
69	0xbcd7a638	-0.026324376
70	0x3c31d07a	0.010852927
71	0x3d8e7970	0.06956756
72	0xbd1ffc72	-0.03905911
73	0x3dd6e199	0.10492248
74	0xbd081c72	-0.033230253
75	0x3d016240	0.03158784
76	0x3907255c	0.0001288852
77	0xbda57bfe	-0.0808029
78	0xbc064bc6	-0.008196777
79	0xbb3a32ff	-0.0028411744
80	0xbd927b7b	-0.07152458
81	0x3b4dda2c	0.0031410558
82	0x3c563bba	0.013075763
83	0x3dbced9e	0.092250094
84	0xbb1aefe1	-0.0023641514
85	0x3d22d24f	0.039751347
86	0xbd9892ff	-0.07449912
87	0xbc2d4cc3	-0.010577383
88	0x3cec6b35	0.028859714
89	0x3d0772de	0.03306853
90	0x3d126580	0.03574133
91	0xbd640458	-0.055668205
92	0xbc8a3186	-0.016869318
93	0xbbbaebb8	-0.0057043694
94	0xbc92d505	-0.017923841
95	0x3d590377	0.05298182
96	0xbd7ea0cf	-0.062165078
97	0x3c2938a2	0.010328444
98	0xbd49e05e	-0.04928624
99	0x3d182893	0.03714807
100	0x3bd02bc6	0.0063528745
101	0xbb0e084d	-0.0021672428
102	0xbd23aa7d	-0.039957512
103	0xbd1033e4	-0.035205737
104	0xbd3ebeb7	-0.0465686
105	0x3d2dc1e6	0.042421244
106	0xbc3eebc2	-0.011652889
107	0x3d0c2ae6	0.0342206
108	0xbd8df0c3	-0.06930687
109	0x3d2a4e81	0.041578773
110	0x3cbd24fe	0.023088928
111	0x3cf4f952	0.029904041
112	0x3c99151c	0.018686824
113	0xbb856515	-0.004070888
114	0xbdc5778f	-0.096419446
115	0x3d75701a	0.05992136
116	0xbd030770	-0.031989515
117	0x3cc4bf19	0.024016904
118	0x3d078aef	0.03309148
119	0x3d5b77f4	0.053581193
120	0x3d07556a	0.03304044
121	0xbd09f87a	-0.03368423
122	0x3d4e84a7	0.050419476
123	0x3d2c295e	0.04203164
124	0xbd98bf7d	-0.074583985
125	0xbd117637	-0.03551313
126	0xbc84a8da	-0.016193796
127	0x3d8da644	0.06916478
128	0xbc97e086	-0.018539678
129	0x3b28c744	0.0025753537
130	0xbd99b717	-0.07505625
131	0xbdf3f624	-0.11912182
132	0xbd3ab258	-0.045580238
133	0xbdfe1e95	-0.12408177
134	0xbd065081	-0.03279162
135	0xbe0a0894	-0.13479835
136	0x3d1d2d92	0.038373537
137	0xbd245361	-0.04011858
138	0xbd03fce2	-0.03222359
139	0xbd171e91	-0.036894385
140	0x3ddaaf14	0.10677925
141	0x3cb2ebcb	0.02184095
142	0xbdbcc88a	-0.09217937
143	0xbde57225	-0.11203412
144	0xbcffa756	-0.031207722
145	0xbe08c29e	-0.1335549
146	0x3d2522a4	0.04031624
147	0xbd34a57b	-0.044103127
148	0xbc32f85c	-0.010923471
149	0x3d99c09d	0.07507441
150	0x3d3903fd	0.04516982
151	0xbdc73278	-0.09726423
152	0xbd9edeaf	-0.07757317
153	0xbce018be	-0.027355548
154	0x3cf29134	0.029610254
155	0xbcf289d5	-0.029606739
156	0xbdaa84c0	-0.08326101
157	0xbbef6884	-0.0073061604
158	0x3d23882b	0.03992478
159	0x3c0fe725	0.0087831365
160	0x3d10c283	0.03534175
161	0xbd6aa10c	-0.057282493
162	0xbdd5f7e9	-0.10447676
163	0xbd80655d	-0.062693335
164	0x3ccf3773	0.025294995
165	0xbdcc190a	-0.09965713
166	0xbd8c6d77	-0.06856816
167	0xbc6bc9e0	-0.0143913925
168	0xbd01a336	-0.03164979
169	0xbde6db3f	-0.112722866
170	0xbd5a645f	-0.053318378
171	0xbc2064d4	-0.009789664
172	0x3d58e704	0.05295469
173	0x3db0ef88	0.08639437
174	0x3d8a3f0e	0.06750308
175	0xbd18f53f	-0.03734326
176	0x3d0ff11c	0.03514205
177	0xbd7af1da	-0.061265804
178	0x3d9e1222	0.07718302
179	0x3cbf9102	0.023384575
180	0x3db740ab	0.08947881
181	0xbd601a52	-0.0547126
182	0x3d51cfac	0.051223442
183	0x3c0c5cf7	0.008567086
184	0x3dc0ddeb	0.094173275
185	0x3d8706e8	0.06593114
186	0xbd24bc26	-0.040218495
187	0x3c3b593c	0.011434849
188	0xbd3ba42d	-0.045810867
189	0x3da13d71	0.07873047
190	0x3dd4312e	0.10360943
191	0x3d8456f2	0.06461896
192	0x3cd8fda0	0.026488125
193	0x3da06a24	0.07832745
194	0xbd5e35c5	-0.054250497
195	0x3d6caca5	0.057781834
196	0xbd15bb2a	-0.036555447
197	0xbd1ab523	-0.0377704
198	0xbd8cb9b5	-0.06871358
199	0xbd6c5c3f	-0.05770516
200	0xbd6ba56d	-0.05753081
201	0x3e251a98	0.16123426
202	0xbc339b0a	-0.010962257
203	0x3c7889e5	0.015169595
204	0xbe0df918	-0.13864553
205	0xbdc06fcb	-0.09396323
206	0x3d810a04	0.063007385
207	0x3ad8dfe6	0.0016546219
208	0xbde6d89e	-0.11271785
209	0x3d5c5aef	0.05379766
210	0x3c187671	0.009305582
211	0xbd51da83	-0.05123378
212	0x3d9e799f	0.07738041
213	0xbd9420c8	-0.07232815
214	0x3a666f96	0.00087904313
215	0x3d12786a	0.035759367
216	0xbcec9e77	-0.028884156
217	0xbc8d8d86	-0.017279398
218	0xbde78100	-0.11303902
219	0x3cf7fe7f	0.03027272
220	0x3d86ddd4	0.06585279
221	0x3d6db137	0.058030333
222	0xbbadf221	-0.005308405
223	0xbcad3659	-0.021144079
224	0x3c110fad	0.008853835
225	0x3d301083	0.042984497
226	0x3ce6917f	0.02814555
227	0xbd06377e	-0.032767765
228	0x3ddcd296	0.107823536
229	0xbcf6f44f	-0.030145792
230	0x3d9bcd97	0.076075725
231	0x3d78a19d	0.060701
232	0xbb60b67c	-0.0034288457
233	0x3a69d5ea	0.00089201203
234	0xbcf14298	-0.0294507
235	0x3d4523cd	0.048129845
236	0xbdcf5b91	-0.10124887
237	0xb96a6a53	-0.00022355588
238	0x3a0ad154	0.00052954745
239	0x3c384ddc	0.011249032
240	0x3d2c7df7	0.042112317
241	0xbcfb6bd1	-0.03069106
242	0xbd2ccbf1	-0.04218668
243	0xbd27e594	-0.040990427
244	0x39bcfb12	0.00036045216
245	0x3d95228f	0.07281982
246	0x3c3d69ac	0.011560839
247	0x3ce91e5e	0.028456863
248	0xbdbb95bf	-0.09159421
249	0x3ca192af	0.019723265
250	0xbc18b666	-0.009320831
251	0x3d4323ba	0.047641493
252	0x3da6883e	0.08131455
253	0x3e4a98f4	0.1978491
254	0xbd617272	-0.055040784
255	0x3d0ac871	0.033882562

weight_hh_l0 f4 [384, 128]
0	0x3dbd6a40	0.09248781
1	0xbd905404	-0.07047275
2	0xbd4bc13b	-0.049744826
3	0xbcc3ed4e	-0.023916867
4	0xbcb0cad6	-0.021581095
5	0x3c09c232	0.008408116
6	0xbc8915dd	-0.016734058
7	0xbc6ed7bd	-0.014577803
8	0x3d8bc340	0.0682435
9	0xbd39c04e	-0.04534941
10	0xbcc5a453	-0.024126207
11	0xbd5129b6	-0.05106517
12	0xbd6b4dc8	-0.057447225
13	0x3dd20816	0.102554485
14	0xbc324a09	-0.010881909
15	0xbd2a31c2	-0.04155136
16	0xbd5689e1	-0.052377585
17	0x3d05b859	0.03264651
18	0x3d80f9db	0.06297656
19	0x3d4eaaec	0.050455973
20	0x3bec4126	0.0072099147
21	0xbd6f94f1	-0.05849165
22	0xbd233455	-0.03984483
23	0x3e1a831d	0.15089078
24	0xbd38f876	-0.045158826
25	0x3d0af597	0.03392562
26	0x3de15078	0.11001676
27	0x3db12e41	0.086514
28	0xbcf787dd	-0.030216152
29	0x3cbeb5bf	0.023280023
30	0x3d9c50a3	0.07632568
31	0xbd31e60d	-0.043432284
32	0x3da075b3	0.07834949
33	0x3cf4c127	0.029877258
34	0xbdb1c16e	-0.08679472
35	0x3d764093	0.060120177
36	0xbd2acf77	-0.04170176
37	0xbde02be0	-0.109458685
38	0xbdb34973	-0.08754244
39	0x3d17d073	0.037064027
40	0x3d2411c7	0.040056016
41	0xbccd744b	-0.025079867
42	0xbd417a0c	-0.047235534
43	0x3c5a0ba8	0.013308443
44	0xbd74eef5	-0.0597982
45	0xbcfd2163	-0.03089971
46	0xbcb6ab9a	-0.022298623
47	0x3c4b53b9	0.012410098
48	0xbd4ceef0	-0.050032556
49	0x3dd2fbb4	0.10301915
50	0x3d069e2a	0.03286568
51	0xbc7769d9	-0.01510092
52	0xbc92378b	-0.01784875
53	0x3d6ce626	0.057836674
54	0x3d501bd4	0.05080779
55	0xbc984c9f	-0.018591223
56	0xbdaa9744	-0.08329633
57	0x3caece98	0.021338746
58	0xbd072c93	-0.033001494
59	0xbcfc2ad4	-0.03078214
60	0xbd86f800	-0.06590271
61	0xbcf88eed	-0.03034159
62	0x3cf6d5fe	0.030131336
63	0x3c969478	0.018381342
64	0xbd5b966a	-0.053610243
65	0xbd883f84	-0.0665274
66	0x3c991edf	0.018691478
67	0x3c2b3685	0.01045001
68	0xbcbf724e	-0.023369934
69	0xbdf9cb1d	-0.12196944
70	0x3dc88776	0.09791462
71	0x3d5ba39a	0.05362282
72	0x3d160541	0.036626104
73	0xbd8d285d	-0.06892464
74	0x3cc217be	0.023692962
75	0xbdc6cf52	-0.09707512
76	0xbda791f4	-0.08182135
77	0x3df4a38f	0.11945259
78	0x3d0627cd	0.0327528
79	0x3dbb50ff	0.09146308
80	0xbcc58d45	-0.024115214
81	0x3d44ef22	0.048079617
82	0x3c98ee94	0.01866845
83	0x3d553a78	0.052057713
84	0x3db60daa	0.08889325
85	0xbd83d6f8	-0.064374864
86	0x3d75292a	0.05985371
87	0x3c81805f	0.015808282
88	0x3d098f12	0.033583708
89	0xbd6e369b	-0.058157545
90	0x3ce99206	0.028512012
91	0x3d0dcd3d	0.03461956
92	0x3de5721d	0.11203406
93	0xbc80e124	-0.015732355
94	0x3d317e29	0.043333206
95	0x3cf54089	0.029938
96	0xbd2e9e6b	-0.042631548
97	0xbd3f41e1	-0.046693686
98	0x3d73bc44	0.059505716
99	0x3cbb9798	0.022899434
100	0x3d9f0a83	0.07765677
101	0x3df930ef	0.121675365
102	0xbdbdcc1b	-0.09267446
103	0x3d54ebeb	0.0519828
104	0xbd8d1914	-0.06889549
105	0xbdd5eac9	-0.10445172
106	0x3dea6a7b	0.11446091
107	0x3c48610d	0.01223017
108	0x3d0a6eda	0.033797123
109	0xbbcbf2f7	-0.006224032
110	0x3c7daa8e	0.015482558
111	0xbde4cfdf	-0.11172461
112	0xbd9fd1c4	-0.078036815
113	0xbd83ad0e	-0.06429492
114	0x3daebaa8	0.085316956
115	0xbc1b664f	-0.0094848415
116	0xbd81379a	-0.06309433
117	0x3cd44c98	0.025915429
118	0xbcd008ed	-0.025394881
119	0x3d7c5e6d	0.06161349
120	0xbc94f7b8	-0.018184528
121	0xbdfdacab	-0.123864494
122	0xbd3e6471	-0.046482507
123	0x3d8db92d	0.06920085
124	0xbd5c8f61	-0.053847674
125	0x3da64776	0.08119099
126	0x3cb124fd	0.021624083
127	0xbcba9962	-0.022778217
128	0x3c9c6825	0.019092629
129	0xbba9ffb1	-0.0051879515
130	0x3d053d4c	0.03252916
131	0xbdc6b64f	-0.09702741
132	0x3d990fb1	0.07473696
133	0xbd29dff1	-0.041473333
134	0xbd2570ed	-0.040390898
135	0xbd7b0e0c	-0.061292693
136	0xbd658660	-0.056036353
137	0xbb1c0832	-0.0023808596
138	0xbdc38e59	-0.09548635
139	0x3b972066	0.0046120165
140	0x3ce94b31	0.028478237
141	0xbd84c85a	-0.064835265
142	0xbd5f932e	-0.05458372
143	0xbbce8ec8	-0.006303642
144	0x3cf2fde5	0.029662082
145	0xbcf6afae	-0.030113067
146	0x3c89c331	0.016816707
147	0xbcf9f1b2	-0.030510757
148	0xbd2b4b21	-0.041819695
149	0x3daff3ce	0.08591424
150	0xbb06d02b	-0.0020570855
151	0xbcc3ac84	-0.023885973
152	0xbd032096	-0.0320135
153	0xbccbec23	-0.024892872
154	0x3d17c2b9	0.037050936
155	0x3c3419ab	0.010992448
156	0xbda3c610	-0.07996762
157	0x3d3eae04	0.046552673
158	0x3dbc1dd8	0.0918538
159	0x3d0ee9bd	0.03489088
160	0xbcd8c0fc	-0.02645921
161	0xbb42ea66	-0.0029741763
162	0xbdb73425	-0.08945493
163	0x3d8a3087	0.06747537
164	0x3d0c27d4	0.03421767
165	0xbda863f8	-0.082221925
166	0x3d9a1af7	0.075246744
167	0x3d7f7b70	0.06237358
168	0xbbd09c71	-0.0063663055
169	0x3cdaacf0	0.026693791
170	0xbd4a01af	-0.04931801
171	0xbce54b8a	-0.027990121
172	0x3d2e4917	0.042550173
173	0xbd993f6e	-0.074828014
174	0x3cfdd658	0.030985996
175	0xbd12a675	-0.035803277
176	0xbce4eb16	-0.027944129
177	0xbcc9c6a9	-0.024630861
178	0xbd4d06a8	-0.050055176
179	0x3de97565	0.11399344
180	0x3cb6a129	0.022293644
181	0x3c21b830	0.009870574
182	0xbd91ee3a	-0.07125516
183	0x3b7ff82b	0.0039057832
184	0xbd9f650a	-0.077829435
185	0x3da03e0c	0.078243345
186	0x3d877264	0.06613615
187	0xbdc68f75	-0.09695331
188	0xbd664919	-0.056222055
189	0x3c96eefc	0.018424504
190	0x3d449f38	0.048003405
191	0x3d1595ac	0.03651969
192	0xbc2f079a	-0.010682965
193	0x3d2b5168	0.041825682
194	0x3d030412	0.031986304
195	0xbdafaaed	-0.085775234
196	0x3cd8763e	0.02642357
197	0xbc9f7435	-0.019464592
198	0x3dcca188	0.09991747
199	0x3ca3b97d	0.019985909
200	0xbca2cb95	-0.019872466
201	0x3d815248	0.06314522
202	0x3d81d6f1	0.06339825
203	0xbda9e208	-0.08295065
204	0xbd9594b3	-0.07303753
205	0xb9c19c91	-0.0003692848
206	0x3d5fa840	0.054603815
207	0x3cc2cc96	0.023779195
208	0x3b5c7480	0.0033638775
209	0x3d5350fb	0.0515909
210	0x3cce1638	0.02515708
211	0x3dde78c7	0.1086288
212	0x3d62a959	0.055337284
213	0x3d748877	0.059700456
214	0xbc741163	-0.014896723
215	0xbd9675d7	-0.07346695
216	0xbcf4ddd3	-0.02989093
217	0xbd523ad2	-0.051325627
218	0x3d84d8c1	0.06486655
219	0x3da24d0e	0.07924853
220	0x3c890598	0.0167263
221	0xbcc19ced	-0.023634398
222	0x3d3c39fc	0.045953736
223	0x3cfcc5be	0.03085601
224	0x3c9b0b23	0.018926209
225	0x3d6b9c2d	0.057521988
226	0xbdaeea33	-0.08540764
227	0xbc47fd71	-0.012206421
228	0xbda8896e	-0.08229338
229	0x3cf7b650	0.0302383
230	0xbc9653dd	-0.018350536
231	0xbd441f99	-0.047881696
232	0xbd634a88	-0.055491
233	0xbdd09e69	-0.10186464
234	0x3da1145e	0.07865213
235	0x3d34383b	0.043998938
236	0xbd9e2c6f	-0.07723319
237	0xbcd7c9c0	-0.02634132
238	0x3d130e3d	0.03590225
239	0x3da199c9	0.0789066
240	0x3c7bd3a0	0.01537028
241	0xbd977836	-0.07395975
242	0x3d45dfb4	0.048309043
243	0xbba8df22	-0.0051535526
244	0xbd8ecfb0	-0.06973207
245	0xbd674ecb	-0.056471627
246	0xbd827b2e	-0.06371151
247	0x3d8d3bf6	0.06896202
248	0xbdad306f	-0.084565036
249	0x3d42b4a5	0.047535557
250	0x3c819412	0.015817676
251	0xbd1b692d	-0.0379421
252	0xbd71f552	-0.059071846
253	0x3d500ae2	0.05079163
254	0xbcf044ca	-0.029329676
255	0xbd90cc6e	-0.07070242

bias_ih_l0 f4 [384]
0	0xbd610c01	-0.05494309
1	0x3cd536bb	0.026027074
2	0x399fac1a	0.0003045507
3	0x3da182ca	0.07886274
4	0xbc26a63b	-0.010171468
5	0x3d8fbf8b	0.07018956
6	0x3db9ba4b	0.09068736
7	0x3d9997ef	0.07499682
8	0xbd449347	-0.047992017
9	0x3d02f55b	0.03197227
10	0x3d3111c2	0.043229826
11	0xbd304bd3	-0.04304106
12	0x3bd49162	0.0064870575
13	0xbdb7a474	-0.08966914
14	0xbd59510a	-0.0530558
15	0x3da79fd6	0.08184783
16	0x3dcf9f96	0.101378605
17	0x3ca32daf	0.019919245
18	0xbc8a9391	-0.016916068
19	0xbd7fc5c8	-0.06244448
20	0x3d8369d3	0.06416669
21	0xbd84e9af	-0.06489884
22	0x3da11f09	0.078672476
23	0xbca7fa99	-0.020505236
24	0x3d4f8c3a	0.05067084
25	0x3e1763b7	0.14784132
26	0xbd826a50	-0.06367934
27	0x3d033fc9	0.032043252
28	0x3c19427e	0.009354232
29	0x3d6416bf	0.055685755
30	0xbd242bab	-0.040080708
31	0x3d9a1290	0.07523072
32	0x3d6bbdf6	0.057554208
33	0x3d572d15	0.052533228
34	0xbbbb899a	-0.0057231905
35	0x3cc1d8fe	0.02366304
36	0x3d242eb6	0.04008361
37	0xbd8966c5	-0.06709055
38	0x3dbb0ebf	0.09133672
39	0x3dd2b4fb	0.102884255
40	0x3db5c91e	0.08876251
41	0x3c8c2c8a	0.017111082
42	0xbdb98596	-0.090586826
43	0xbd8d5001	-0.06900025
44	0xbdb381f5	-0.08765022
45	0x3d708767	0.05872288
46	0x3d901122	0.07034518
47	0xbd2f1a04	-0.04274942
48	0xbd59a693	-0.053137373
49	0x38b0d5d2	8.432161e-05
50	0x3e06b453	0.13154726
51	0x3d803312	0.06259741
52	0xbd073d8c	-0.03301768
53	0x3dac7c84	0.08422187
54	0xbdf5e3cf	-0.12006342
55	0x3bbc53cc	0.005747294
56	0xbce0f288	-0.027459398
57	0x3d74bb04	0.059748664
58	0x3cdd15a9	0.026987867
59	0x3d910ee6	0.0708292
60	0xbd5b2efb	-0.0535116
61	0x3c217e1b	0.009856726
62	0xbc612032	-0.013740586
63	0xbda7a5ba	-0.08185907
64	0x3d988cbd	0.07448719
65	0xbcd1ec4c	-0.02562537
66	0x3e0833ba	0.13300982
67	0x3c97e040	0.018539548
68	0x3cdda672	0.027056906
69	0x3d635577	0.055501428
70	0x3d677b55	0.056514103
71	0xbd959057	-0.07302921
72	0xbcf37489	-0.029718654
73	0x3d81e79f	0.06343006
74	0x3ddffc65	0.10936812
75	0x3ddf2a75	0.1089677
76	0x3e106fee	0.14105198
77	0x3c0618ec	0.008184653
78	0xbd63bc9e	-0.0555998
79	0x3da35f90	0.079772115
80	0xbd2c191d	-0.042016137
81	0xbd998466	-0.07495956
82	0x3dbb8ac0	0.09157324
83	0xbd04104d	-0.032242108
84	0x3d8e7b88	0.069571555
85	0x3b8965c1	0.004193038
86	0xbca62564	-0.020281501
87	0x3cc70e43	0.024298793
88	0x3ccab731	0.024745556
89	0xbca5203e	-0.020156976
90	0xbc305be5	-0.010764097
91	0x3d9ab66d	0.07554326
92	0xbc6198ac	-0.01376931
93	0xbd3ee948	-0.046609193
94	0xbcc097c4	-0.023509867
95	0x3d63f17e	0.055650227
96	0x3d391f57	0.045195904
97	0x3cb0b6ce	0.021571543
98	0x3dbcad1d	0.09212706
99	0x3d7d4551	0.061833683
100	0x3dbf32d4	0.093358666
101	0x3a948fa8	0.0011334317
102	0xbb34326c	-0.0027495874
103	0xbd231c83	-0.039822113
104	0x3d749446	0.059711717
105	0x3d0f937e	0.03505277
106	0x3d7cc261	0.06170881
107	0x3d97408a	0.07385357
108	0x3cfbff34	0.030761339
109	0x3d82638e	0.06366645
110	0xbc12bb46	-0.008955782
111	0x3e27a923	0.16373114
112	0x3c892d3d	0.016745204
113	0xbdc323ec	-0.09528336
114	0xbdb47913	-0.088121556
115	0x3d2cacc1	0.04215694
116	0xb9fe0aca	-0.00048454694
117	0xbd15f361	-0.036609057
118	0x3bedd54d	0.0072580935
119	0x3d8613ea	0.06546767
120	0xbd01d227	-0.031694558
121	0xbd4e6404	-0.05038835
122	0x3dda37ac	0.1065515
123	0xbc68f4c0	-0.014218509
124	0x3cfeb045	0.031089911
125	0x3d49b7cd	0.04924755
126	0x3da5e31f	0.080999605
127	0xbd66fc84	-0.05639316
128	0xbcd86905	-0.026417265
129	0xbd8fdfc0	-0.07025099
130	0xbc72cc1f	-0.014819174
131	0xbe0113b3	-0.12605171
132	0x3b875d41	0.00413099
133	0xbd792726	-0.06082835
134	0x3d376735	0.04477616
135	0xbc9b2332	-0.01893768
136	0x3d82cff4	0.0638732
137	0x3da0bdcc	0.07848701
138	0xbd241e9f	-0.040068265
139	0xbcdee162	-0.02720708
140	0xbd911d50	-0.07085669
141	0x3cf76682	0.030200247
142	0x3d2bdcd1	0.041958634
143	0xbd1951df	-0.037431594
144	0x3dcf6ec3	0.10128548
145	0xb9cb6ba4	-0.00038799376
146	0xbc4124ed	-0.011788589
147	0xbb75428a	-0.0037423694
148	0x3cabc269	0.020966725
149	0x3d70fc71	0.058834497
150	0x3c9123ed	0.017717326
151	0xbd830bc4	-0.063987285
152	0x3c0f09cb	0.008730362
153	0xbd6c046b	-0.0576214
154	0xbd83b89b	-0.06431695
155	0x3cfdf842	0.031002168
156	0x3d56faec	0.05248539
157	0x3cacc9fb	0.021092406
158	0x3cf6e531	0.030138584
159	0xbdb970cf	-0.0905472
160	0xbdf1beed	-0.11803994
161	0xbcefa6a4	-0.029254265
162	0xbc9e2bf7	-0.019308073
163	0x3cc677b5	0.024227003
164	0xbddd310d	-0.10800371
165	0xbdcc1ec0	-0.099668026
166	0x3be1bca6	0.0068889437
167	0xbd65736c	-0.056018278
168	0xbc9b8af9	-0.018987166
169	0xbcd7425b	-0.026276758
170	0xbde89652	-0.11356796
171	0x3db68831	0.08912695
172	0x3dbb127d	0.09134386
173	0x3c0e246c	0.008675676
174	0xbcd616d2	-0.026133928
175	0xbc94fdd1	-0.018187435
176	0x3cabec6d	0.02098676
177	0x3d758d29	0.059949074
178	0xbda65f2f	-0.081236236
179	0x3dac91d5	0.08426253
180	0xbdc3a1e1	-0.0955236
181	0xbe04576b	-0.12923972
182	0x3e0dee91	0.13860537
183	0x3dffc440	0.124886036
184	0x3d880e7f	0.0664339
185	0xbca2d199	-0.019875335
186	0x3d0786cd	0.03308754
187	0x3d8b3622	0.067974344
188	0xbceec422	-0.029146258
189	0x3dc4345b	0.095802985
190	0x3c80f9c0	0.01574409
191	0xbd1cfbea	-0.03832618
192	0x3c9d4ab8	0.019200668
193	0xbcc3dde3	-0.023909515
194	0x3db0cd14	0.086328655
195	0xbd575f2b	-0.052580994
196	0x3d9a46b3	0.07533016
197	0x3c95da92	0.018292699
198	0x3b257cc9	0.002525138
199	0x3d7bd023	0.06147779
200	0xbdd4d4d9	-0.1039216
201	0xbdd54097	-0.1041271
202	0x3bb69437	0.005571868
203	0xbda402f2	-0.08008374
204	0xbdac88a1	-0.084244974
205	0xbcb8d9c6	-0.02256478
206	0x3d791968	0.060815245
207	0xbcabfe9d	-0.020995433
208	0x3dbd49a7	0.09242564
209	0x3d8bcb73	0.06825914
210	0x3dbc5163	0.09195211
211	0xbbfa383c	-0.007636098
212	0x3d738bb7	0.059459414
213	0xbd5622e3	-0.052279364
214	0xbd46cef3	-0.048537206
215	0xbd8071e4	-0.06271723
216	0x3dd951bd	0.106112935
217	0x3dc31dda	0.09527178
218	0x3d9953b9	0.07486672
219	0xbd07ae06	-0.033124946
220	0xbd39fa46	-0.045404695
221	0x3d53e3f3	0.05173106
222	0xbd90aa05	-0.07063679
223	0xbd815961	-0.06315876
224	0xbda61c9d	-0.08110926
225	0x3d48a3da	0.048984386
226	0xbc38556f	-0.011250838
227	0x3d50807b	0.05090378
228	0xbd9d8e57	-0.07693165
229	0xbe0d52b6	-0.13801083
230	0xbdd647b4	-0.10462895
231	0x3da72b05	0.08162502
232	0xbd9879fb	-0.07445141
233	0xbcfeaa26	-0.031086992
234	0x3bd4a7e0	0.006489739
235	0xbdb023b3	-0.08600559
236	0xbd2c948c	-0.042133853
237	0x3dc3267e	0.09528826
238	0x3d4ca80a	0.049964942
239	0x3cdf6122	0.027267996
240	0xbd244570	-0.040105283
241	0x3d982d8f	0.074305646
242	0x3c4f0a80	0.012636781
243	0xbc9e3fed	-0.019317592
244	0xbd0d0930	-0.03443259
245	0xbde93a5d	-0.11388085
246	0x3d4ab60c	0.04949002
247	0xbb97f681	-0.00463754
248	0xbd5a0440	-0.05322671
249	0x3c67bdbf	0.01414436
250	0xbddc6913	-0.10762229
251	0xbdb91edf	-0.09039091
252	0x3d9bbe5d	0.07604668
253	0x3ba9650d	0.005169517
254	0x3d4d41dc	0.050111637
255	0xbe046b59	-0.12931575

bias_hh_l0 f4 [384]
0	0xbd12781d	-0.03575908
1	0xbc9d85d9	-0.019228863
2	0x3cd6f897	0.026241584
3	0xbd0611e1	-0.032731894
4	0x3c8d6a6d	0.017262662
5	0xbd02474b	-0.03180627
6	0x3d790b81	0.060801987
7	0x3e203ccd	0.15648194
8	0xbc3f8100	-0.011688471
9	0x3d3842c5	0.04498555
10	0x3caa4b8a	0.020787973
11	0xbc92929d	-0.017892176
12	0x3deda867	0.11604386
13	0xbbf9ece2	-0.0076271156
14	0x3cb57dc2	0.022154693
15	0x3e1055fe	0.14095303
16	0x3de641a4	0.11242989
17	0xbc6a7c2a	-0.01431183
18	0xbcd978ef	-0.026546923
19	0x3d8aeaa4	0.067830354
20	0xbccd72c0	-0.025079131
21	0xbd6fa931	-0.058510963
22	0x3d5c66f5	0.053809125
23	0x3d30b369	0.04313985
24	0x3d96fd5c	0.07372543
25	0x3dc7c03a	0.09753461
26	0xbdc4cbed	-0.09609208
27	0xbbc151a6	-0.005899626
28	0x3cc91157	0.024544401
29	0xbd021229	-0.0317556
30	0xbd8d702b	-0.0690616
31	0x3baaceb9	0.0052126315
32	0x3e060109	0.13086332
33	0x3de3c586	0.11121659
34	0x3c37c68d	0.011216772
35	0xbc165e77	-0.009177796
36	0x3dd0628f	0.101750486
37	0xbd2c1f2d	-0.04202192
38	0xbd3d0e22	-0.046156056
39	0x3cc68cb6	0.024237018
40	0xbc52f0dd	-0.012874809
41	0xbcce966f	-0.025218217
42	0xbbf5160b	-0.0074794344
43	0xbc8e9fbb	-0.01741015
44	0xbd5e087e	-0.054207318
45	0xbcbb4d5d	-0.022864038
46	0xbcbbc7f9	-0.022922503
47	0xbddde937	-0.10835498
48	0xbd953270	-0.07285011
49	0xbcf784e1	-0.030214729
50	0x3e0df9a3	0.1386476
51	0x3dbbfc03	0.09178927
52	0xbc0d07c5	-0.008607809
53	0x3d286b19	0.04111776
54	0xbdb8e02b	-0.09027132
55	0xbbbf2b28	-0.005834002
56	0x3d6e24b5	0.058140475
57	0x3cfbd5ce	0.030741598
58	0x3d37bdd5	0.044858772
59	0x3d181715	0.037131388
60	0xbb892366	-0.004185128
61	0x3da52570	0.08063781
62	0x3c5f4c26	0.013628995
63	0xbdbc6585	-0.09199051
64	0xbc7c458b	-0.01539744
65	0x3d75bed6	0.05999645
66	0x3d11e4a4	0.03561844
67	0xbce2e0b4	-0.027695037
68	0x3d8bdb11	0.06828893
69	0x3d9332ec	0.07187447
70	0xbd9d71af	-0.07687699
71	0xbddaf223	-0.10690715
72	0xbd006705	-0.031348247
73	0x3e0213d4	0.12702876
74	0x3dce7a28	0.10081893
75	0x3d962922	0.07332064
76	0x3e24a1bf	0.16077326
77	0xba0545b9	-0.0005083937
78	0xbc8ac21b	-0.01693826
79	0xbda49bdc	-0.0803754
80	0xbbec524b	-0.0072119585
81	0xbac2daeb	-0.0014866268
82	0x3db1a580	0.08674145
83	0x3d94cc3f	0.07265519
84	0xbd62b95e	-0.05535256
85	0xbd3e7ef2	-0.046507783
86	0xbccde1a0	-0.025132
87	0x3cb26713	0.021777665
88	0x3d89f3ee	0.06735979
89	0x3dbc4e21	0.091945894
90	0x3da7e0b2	0.08197154
91	0xbacbc1b2	-0.0015545397
92	0x3dbd2722	0.092359796
93	0xbc7f646d	-0.015587908
94	0x3d16d798	0.0368267
95	0x3ce8eac1	0.028432252
96	0xbd613607	-0.054983165
97	0xbd8aaabd	-0.06770847
98	0x3da8f39e	0.08249591
99	0xbbc15488	-0.0058999695
100	0x3ca00b72	0.019536708
101	0x3d8d0086	0.068848655
102	0x3e24a72a	0.16079393
103	0xbc91a366	-0.01777811
104	0x3a93dd0c	0.0011281087
105	0x3c8454d6	0.016153734
106	0x3cd77bd6	0.026304167
107	0x3db39366	0.087683484
108	0x3a2a4996	0.00064959505
109	0x3cf71dd5	0.030165592
110	0x3d151090	0.03639275
111	0x3d777701	0.060416225
112	0x3d837d7f	0.06420421
113	0xbc8277b7	-0.015926225
114	0xbc8042ac	-0.015656792
115	0xbc5a9889	-0.013342031
116	0x3dab3146	0.083590075
117	0xbcd54ecb	-0.026038548
118	0xbd322d79	-0.043500397
119	0xbc39fab0	-0.011351272
120	0xbd35cb51	-0.04438335
121	0x3c7dc930	0.015489861
122	0xbcf083b2	-0.029359672
123	0x3dbfd983	0.09367659
124	0x3dbc2978	0.09187597
125	0x3da3f8e0	0.080064535
126	0x3a2f5331	0.00066881167
127	0xbd8934f7	-0.06699555
128	0xbcc0a245	-0.023514876
129	0xbcfc7e63	-0.030821985
130	0xbe08700a	-0.1332399
131	0xbd3405fe	-0.043951027
132	0xbc65dae3	-0.014029237
133	0xbbc2d224	-0.005945461
134	0xbd911b7d	-0.07085321
135	0xbd9a95a4	-0.07548073
136	0x3dbda2d6	0.09259574
137	0xbd1ebfcb	-0.038757127
138	0x3d86807e	0.06567477
139	0xbbdb4293	-0.006691286
140	0x3db37e08	0.08764273
141	0x3d6d6b6a	0.057963766
142	0xbd9d7a63	-0.07689359
143	0xbda6b217	-0.08139437
144	0x3d0e3b49	0.034724507
145	0xbd05e258	-0.03268656
146	0xbd8b2a00	-0.0679512
147	0xbcc4fcd6	-0.024046343
148	0xbbb517ac	-0.0055265035
149	0x3d2eb135	0.042649467
150	0x3d8d7654	0.06907335
151	0x3c98cae1	0.018651428
152	0x3d6319c8	0.05544451
153	0xbd1b588d	-0.037926245
154	0xbd251029	-0.040298615
155	0xbd3fc533	-0.046818923
156	0x3d3ace00	0.045606613
157	0xbdc8f0fa	-0.09811588
158	0x3c8f7580	0.017512083
159	0xbd255b57	-0.04037031
160	0x3bb5e063	0.0055504306
161	0x3cd64f07	0.02616073
162	0xbd81451b	-0.06312009
163	0xbda7cded	-0.08193574
164	0xbdc8e08b	-0.09808453
165	0x3cc5cb4b	0.02414479
166	0xbdf4e91b	-0.11958524
167	0x3d6ba923	0.05753435
168	0xbd4bd275	-0.049761254
169	0xbd83f477	-0.06443112
170	0xbc83b0ef	-0.01607558
171	0x3ad11428	0.0015951442
172	0xbcf9da1b	-0.030499509
173	0xbb610504	-0.0034335265
174	0xbe101b71	-0.14072968
175	0xbd37f09e	-0.044907205
176	0x3dc482b3	0.095952414
177	0x3d9406f3	0.07227888
178	0x3d2d94eb	0.042378347
179	0x3ccbd831	0.024883362
180	0x3cea31a2	0.02858812
181	0xbe03fb28	-0.12888777
182	0x3da57551	0.08079017
183	0x3df3466e	0.11878668
184	0x3c841609	0.016123788
185	0xbd9615c5	-0.07328371
186	0xbe011d1f	-0.12608765
187	0xbdae672b	-0.085157715
188	0x3d44f1c6	0.048082136
189	0x3e00aeab	0.1256663
190	0xbd03ee24	-0.03220953
191	0x3d102e38	0.035200328
192	0x3c3deef2	0.0115926135
193	0x3b47bd87	0.0030477957
194	0xbd761b87	-0.060084846
195	0x3d78985f	0.060692187
196	0x3dbb509f	0.09146237
197	0xbc1bdf0d	-0.009513629
198	0x3c7ed46b	0.015553574
199	0xbd3253fd	-0.04353713
200	0xbcac3edc	-0.021026067
201	0xbd80da17	-0.06291597
202	0xbc543944	-0.012953106
203	0xbd317e71	-0.043333475
204	0xbe060f62	-0.13091806
205	0x3b434a61	0.0029798972
206	0x3d913ab2	0.07091273
207	0x3a223d1e	0.0006188917
208	0xbbf05ac9	-0.007335041
209	0xbd6ec123	-0.05828966
210	0x3debc053	0.11511292
211	0x3d62a2cb	0.055331033
212	0xbb5a6012	-0.0033321423
213	0x3bcdf247	0.006284985
214	0x3d30533b	0.043048125
215	0xbd0eea0f	-0.034891184
216	0x3d914660	0.07093501
217	0x3db94181	0.09045697
218	0xbc75c4e2	-0.015000554
219	0x3cf521d6	0.02992336
220	0x3b4743ec	0.0030405475
221	0xbd973529	-0.07383186
222	0xbc0fb9a1	-0.008772285
223	0x3c4419b0	0.011969015
224	0xbd131bbd	-0.035915125
225	0xbdca3ebf	-0.09875249
226	0xbd692bb8	-0.05692646
227	0x3d4f3fa9	0.05059782
228	0xbd8358a0	-0.06413388
229	0xbdd69bb6	-0.10478918
230	0x3c486715	0.012231608
231	0x3d6c39de	0.057672374
232	0x3b137168	0.0022498015
233	0xbd38a846	-0.045082353
234	0xbc03c6cf	-0.008043005
235	0xbdc9a7db	-0.09846469
236	0xbd25f186	-0.040513538
237	0x3d1815a7	0.037130024
238	0xbdd56b14	-0.10420814
239	0xbe0ec19a	-0.1394104
240	0x3dba5f31	0.091001876
241	0xbca303ce	-0.019899275
242	0x3cabb841	0.020961883
243	0xbd6cf641	-0.057852034
244	0xbd8056fd	-0.06266592
245	0xbdcc8562	-0.09986378
246	0xbd0ad438	-0.033893794
247	0xbdd0bc60	-0.1019218
248	0xbd2b926a	-0.04188768
249	0x3a8f0eb6	0.0010914418
250	0xbdd6de65	-0.10491637
251	0xbdb55990	-0.08854973
252	0xbd9866ff	-0.0744152
253	0xbc00673a	-0.007837111
254	0x3e0ceca7	0.1376215
255	0x3c0d3a10	0.0086198
