checkpoints2/encoder_beat2.pth (torch_old, 308725 bytes, 4 tensors)

weight_ih_l0 f4 [384, 64]
0	0x3bdba041	0.0067024534
1	0xbc34320f	-0.010998263
2	0xbd10dc23	-0.03536619
3	0x3d218d46	0.03944137
4	0x3de3bca3	0.11119964
5	0xbcd84c31	-0.026403518
6	0x3c40070a	0.011720428
7	0xbdc35107	-0.09536939
8	0x3d1b1860	0.037865043
9	0x3d9e2336	0.0772156
10	0xbdf63f3f	-0.12023782
11	0xbbd2e14e	-0.00643555
12	0x3dcfbd48	0.101435244
13	0xbc24e457	-0.010064206
14	0x3d02e43b	0.03195594
15	0xbdff4a7f	-0.12465381
16	0xbd937a30	-0.0720104
17	0x3ddfb0a1	0.10922361
18	0xbd651ac5	-0.055933733
19	0x3c6e3e4a	0.014541218
20	0xbc832199	-0.016007232
21	0x3cb4cd35	0.022070507
22	0xbde27c3b	-0.11058851
23	0xbcc4a6f2	-0.024005387
24	0x3d8d1f81	0.068907745
25	0xbc4f46ed	-0.012651187
26	0x3c57810e	0.013153328
27	0x3dc5d5e3	0.09659936
28	0x3cdb58be	0.026775714
29	0x3d74763b	0.059683066
30	0x3d75ec8f	0.060040053
31	0xbd212722	-0.03934396
32	0xbc8092e8	-0.01569505
33	0xbdc526fa	-0.09626575
34	0xbd93cd4f	-0.07216894
35	0xbdc0e054	-0.09417787
36	0x3e0ad5f9	0.13558187
37	0xbc541149	-0.012943574
38	0x3d2404f9	0.040043805
39	0xbca3820e	-0.019959476
40	0xbc6622fe	-0.014046429
41	0x3d82666f	0.06367194
42	0xbb8897ae	-0.0041684723
43	0xbd24be93	-0.04022081
44	0xbc190268	-0.009338953
45	0x3d1676b9	0.036734316
46	0xbd6a49b2	-0.057199188
47	0x3d03b117	0.032151308
48	0xbdb8ac86	-0.09017281
49	0xbcfa4d1b	-0.030554345
50	0x3c42bbd1	0.011885599
51	0x3d2d69b5	0.04233714
52	0x3d66f116	0.05638226
53	0x3cb3ea11	0.021962197
54	0xbdae4958	-0.08510083
55	0xbb4b39fd	-0.0031009906
56	0xbc67749f	-0.014126926
57	0xbda3df53	-0.0800158
58	0xbd362c68	-0.044475943
59	0x3ce82846	0.028339516
60	0xbdd2f320	-0.10300279
61	0xbd6657fd	-0.056236256
62	0xbc2e4ad6	-0.010637959
63	0xbd008193	-0.03137357
64	0x3d420daa	0.047376312
65	0x3c9fd886	0.019512426
66	0xbdb8f068	-0.09030229
67	0x3d0e0494	0.034672335
68	0xbccb7109	-0.024834173
69	0xbcf634ba	-0.030054439
70	0xbd3501a0	-0.044191003
71	0xba83021d	-0.0009995137
72	0x3d05ed0a	0.03269676
73	0x3c642098	0.013923787
74	0x3d367bf5	0.04455181
75	0xbcc2e730	-0.02379188
76	0x3c972f96	0.018455308
77	0x3d1e31d3	0.038621735
78	0x3ca57702	0.020198349
79	0x3d9933d4	0.074805886
80	0xbd8c84d1	-0.0686127
81	0xbd6eecb4	-0.058331206
82	0x3c076fc5	0.008266394
83	0x3c9e607e	0.01933312
84	0x3dd750b7	0.10513442
85	0x3dab908e	0.08377181
86	0xbd1d3c07	-0.038387325
87	0x3dae43d6	0.085090324
88	0x3c98b20b	0.018639585
89	0xbcf40bf5	-0.029790858
90	0xbd1c7235	-0.038194854
91	0xbdc838f0	-0.09776485
92	0xbdb558e4	-0.08854845
93	0xbd061a1d	-0.032739747
94	0xbda01157	-0.07815807
95	0xbdb98c20	-0.0905993
96	0x3da68629	0.08131058
97	0xbd829159	-0.06375379
98	0xbdc1033a	-0.094244435
99	0x3db6c239	0.08923764
100	0xbd5fd1c9	-0.054643426
101	0xbd360219	-0.044435594
102	0xbd37e51c	-0.04489623
103	0x3c1545ce	0.009110881
104	0xbda73b93	-0.0816566
105	0x3d5e8167	0.054322626
106	0x3c94221c	0.01808267
107	0xbdb34476	-0.08753292
108	0xbdc6a01f	-0.096985094
109	0x3db8f861	0.090317495
110	0x3d1fa9fc	0.03898047
111	0x3dbffb11	0.09374059
112	0xbdb2a348	-0.0872255
113	0x3bc1f382	0.005918921
114	0x3d8ef84f	0.06980955
115	0xbd3fda5f	-0.046839114
116	0x3da58175	0.080813326
117	0xbc48838d	-0.012238395
118	0x3c3556f2	0.011068093
119	0xbde3aa4a	-0.111164644
120	0x3d56492a	0.05231587
121	0xbc9ea4f1	-0.01936576
122	0xbd384c1c	-0.04499446
123	0xbcdecb0a	-0.027196426
124	0x3bb94039	0.005653408
125	0xbd3d2038	-0.046173304
126	0xbd02645a	-0.031833984
127	0xbca895ca	-0.020579237
128	0x3ceccf98	0.028907582
129	0x3bf6ddef	0.0075337808
130	0xbcbad137	-0.02280484
131	0xbc8a06b6	-0.016848903
132	0xbca0fcf9	-0.019651877
133	0x3da3b2e6	0.079931065
134	0x3d872e37	0.06600612
135	0xbca1bb56	-0.019742649
136	0x3d7f8243	0.062380087
137	0x3db8544f	0.090004556
138	0xbbb66453	-0.005566159
139	0x3d97bc5e	0.07408975
140	0x3caa29fb	0.020771971
141	0x3db13d48	0.086542666
142	0x390f2fc9	0.00013655344
143	0x3ddd0583	0.10792067
144	0xbd1e1502	-0.038594253
145	0xbd80dfd6	-0.06292693
146	0xbc0678ca	-0.008207509
147	0x3d8a04ba	0.06739183
148	0xbc8fde26	-0.017561983
149	0x3c835fdf	0.016036926
150	0xba9a96c1	-0.0011794196
151	0xbd82c0f2	-0.06384458
152	0x3d7416a6	0.05959191
153	0xbd9003a4	-0.070319444
154	0x3dafc70b	0.08582886
155	0x3d08af19	0.03337011
156	0x3d7cfdb8	0.061765403
157	0x3d26ebd7	0.04075226
158	0x3c9c5ee3	0.019088214
159	0x3d09383b	0.03350089
160	0x3c208015	0.009796162
161	0xbd63acfa	-0.055584885
162	0x3daed26d	0.08536229
163	0x3c1b84b5	0.009492089
164	0x3d8300fe	0.063966736
165	0xbcbf3b69	-0.023343759
166	0x3cdfd6a0	0.02732402
167	0xbd772a71	-0.06034321
168	0x3b04c730	0.0020260327
169	0x3cdfc566	0.027315807
170	0xbd4e924b	-0.050432485
171	0x3d4ebc15	0.050472338
172	0x3d99912f	0.07498395
173	0x3ddef7e5	0.10887126
174	0x3d016b02	0.03159619
175	0x3d54aad9	0.051920746
176	0x3d63f9d2	0.05565817
177	0xbd9c10db	-0.076204024
178	0x3d15e020	0.036590695
179	0xbc5e4457	-0.013566098
180	0x3d2f1a51	0.042749707
181	0x3d6fff43	0.058593046
182	0x3d7cfd11	0.06176478
183	0x3d94cb5c	0.0726535
184	0xbd400786	-0.046882175
185	0x3cb7933e	0.022409078
186	0xbdd8f145	-0.105928935
187	0x3d91baaf	0.07115685
188	0x3d3f963f	0.046774145
189	0x3d23325e	0.039842956
190	0xbcc1e1f6	-0.023667317
191	0x3dae2846	0.08503775
192	0x3cc3a084	0.02388025
193	0xbd3d298f	-0.04618221
194	0xbc8c587c	-0.017132036
195	0xbd6bd6f9	-0.05757806
196	0x3d9e1beb	0.07720169
197	0xbe01dc76	-0.12681755
198	0x3d13bdd4	0.036069706
199	0xbdfd07c5	-0.123549975
200	0x3d778608	0.060430557
201	0xbdc470f4	-0.095918566
202	0xbd611ea3	-0.054960858
203	0x3d3c107b	0.045914154
204	0x3de2b6a3	0.110699914
205	0x3c17de91	0.009269373
206	0xbba9aed9	-0.005178314
207	0x3d843b3d	0.06456611
208	0x3cf83b4a	0.030301709
209	0x3d947546	0.07248931
210	0xbd852f6b	-0.06503185
211	0xbd8a5a9f	-0.06755566
212	0xba8e428d	-0.0010853574
213	0xbc3048d0	-0.010759547
214	0xbda385c8	-0.07984501
215	0xbd955490	-0.0729152
216	0xbc285f11	-0.010276572
217	0x3d3110fc	0.04322909
218	0xbb6b5393	-0.0035907968
219	0x3daeedd5	0.085414566
220	0xbcf97ffb	-0.030456534
221	0x3d9e7b9d	0.07738421
222	0xbd3adc6c	-0.045620367
223	0x3dbdb411	0.092628606
224	0x3ce95c43	0.028486377
225	0xbda56340	-0.08075571
226	0x3ca2dca6	0.019880604
227	0xbcace9a0	-0.021107495
228	0x3d26e1be	0.04074263
229	0x3d5caff8	0.053878754
230	0xbcf084e7	-0.029360248
231	0xbdfe7905	-0.124254264
232	0x3dbb4bf6	0.09145348
233	0xbdb1dcd1	-0.086846955
234	0xbd1213e2	-0.035663493
235	0xbae665cd	-0.0017577946
236	0xbcafc52a	-0.02145632
237	0x3d7209c8	0.05909136
238	0x3d8b465f	0.068005316
239	0x3caa67d9	0.020801472
240	0x3d247604	0.04015161
241	0xbd1bc7e3	-0.038032424
242	0xbd62276d	-0.05521338
243	0x3d6569fa	0.05600927
244	0x3db68f90	0.08914101
245	0x3d404f20	0.04695046
246	0xbccc63b8	-0.024949893
247	0x3d0b8aa2	0.034067757
248	0x3d4294e0	0.04750526
249	0xbb8304d0	-0.0039983764
250	0xbd00d381	-0.031451706
251	0x3dd6ae45	0.10482458
252	0xbcd08b39	-0.025457012
253	0xbdb7e07e	-0.08978365
254	0x3dd304b4	0.103036314
255	0x3d5c056b	0.053716104

weight_hh_l0 f4 [384, 128]
0	0xbd623150	-0.05522281
1	0xbd27ab22	-0.04093469
2	0xbce38a2c	-0.027775846
3	0x3d11d810	0.035606444
4	0xbcbd9d4e	-0.023146298
5	0xbd4eeab0	-0.050516784
6	0xbd40984c	-0.04702024
7	0xbc914568	-0.01773329
8	0x3b1fc1cc	0.0024376987
9	0xba572e19	-0.0008208468
10	0xbdde87f7	-0.10865777
11	0x3e10a040	0.1412363
12	0x3d731017	0.059341516
13	0xbce71f02	-0.028213028
14	0xbd928036	-0.071533605
15	0x3c9b8588	0.018984571
16	0x3d1d7126	0.038437985
17	0x3d9c50cc	0.07632598
18	0xbda1854e	-0.07886754
19	0xbc44274c	-0.01197226
20	0xbd8553a9	-0.065100975
21	0xbd11dc35	-0.035610396
22	0xbd67f318	-0.056628317
23	0x3ce435d8	0.027857706
24	0xbbfb5d53	-0.007671037
25	0xbd1ab426	-0.03776946
26	0x3d7a6a1c	0.06113635
27	0x3ddb46b6	0.107068464
28	0x3c64b573	0.0139592765
29	0xbd114732	-0.035468288
30	0xbdf66eac	-0.12032828
31	0xbd950fe1	-0.07278419
32	0x3bcad5ca	0.0061900364
33	0xbe162ed7	-0.14666305
34	0xbcbdef99	-0.023185538
35	0xbc8f80cd	-0.017517472
36	0x3d7a854b	0.061162274
37	0x3d06ee1a	0.032941915
38	0xbdb21d7d	-0.08697031
39	0xbc9283fc	-0.0178852
40	0x3d4eb29f	0.050463315
41	0x3da83a31	0.08214224
42	0x3daf26f3	0.08552351
43	0xbd7f0ce4	-0.062268153
44	0xbdabf497	-0.08396261
45	0xbd24b494	-0.040211275
46	0x3d551c0d	0.052028704
47	0xbdb0435f	-0.086066
48	0x3d623051	0.05522186
49	0x3dabc9ae	0.08388077
50	0xbcdd596d	-0.02702018
51	0x3d827778	0.06370443
52	0xbd210159	-0.039307926
53	0xbcc09c53	-0.023512041
54	0x3d926c6c	0.07149586
55	0xbd903cf7	-0.07042878
56	0x3cb39d0c	0.021925472
57	0x3d0df9b8	0.03466198
58	0x3d496f42	0.04917837
59	0xbc3507f6	-0.011049261
60	0xbcd53932	-0.02602825
61	0x3cfb60f7	0.030685885
62	0xbdf75da8	-0.120784104
63	0xbd84f93c	-0.0649285
64	0xbd11e917	-0.035622682
65	0xbda46626	-0.08027296
66	0x3dca3f52	0.09875359
67	0x3bd57a52	0.006514826
68	0x3d70bf3c	0.058776125
69	0xbd8bb34a	-0.06821306
70	0xbc92160c	-0.017832778
71	0xbcd2713f	-0.025688766
72	0x3ce75b59	0.0282418
73	0xbdb6d95d	-0.089281775
74	0xbcbbd813	-0.02293018
75	0xbd0d3445	-0.034473676
76	0xbd4f0b1e	-0.05054771
77	0xbd258d74	-0.040418103
78	0x3bcceeb1	0.00625404
79	0x3d628e14	0.055311278
80	0x3dc2a643	0.09504368
81	0x3d9ff4aa	0.07810338
82	0xbdfaf639	-0.122539945
83	0x3da87d2b	0.08226999
84	0x3d8c01f7	0.06836312
85	0x3da87049	0.08224542
86	0xbd81f79e	-0.06346057
87	0xbd77c5ac	-0.06049125
88	0xbd60695c	-0.05478798
89	0x3d3d4d73	0.04621644
90	0xbc69321d	-0.014233139
91	0x3d08e754	0.033423737
92	0x3d4e909f	0.05043089
93	0x3cde187d	0.027111286
94	0x3d37a231	0.044832412
95	0x3cfb8896	0.030704778
96	0x3da72e63	0.081631444
97	0x3d05de3d	0.032682646
98	0xbd28defe	-0.041228287
99	0xbd0415e8	-0.032247454
100	0xbcb14019	-0.02163701
101	0xbd9c88e4	-0.07643297
102	0xbbc0d475	-0.005884702
103	0x3dd70adf	0.1050012
104	0x3d32dfc8	0.043670446
105	0xbce5c974	-0.028050162
106	0xbcbe0f32	-0.023200605
107	0xba772d11	-0.00094290177
108	0xbcc15750	-0.023601204
109	0xbcbf102a	-0.023323137
110	0xbd966191	-0.07342828
111	0x3d9bee0f	0.076137654
112	0xbd68fe8c	-0.05688338
113	0xbc77d9b4	-0.015127588
114	0x3c8c7dcc	0.017149828
115	0x3dae536c	0.08512005
116	0xbd693ef1	-0.05694479
117	0xbd667b04	-0.05626966
118	0xbd80e62c	-0.06293902
119	0x3bc811c0	0.0061056316
120	0x3dbdae22	0.09261729
121	0xbdd0c1c4	-0.10193208
122	0xbc1a5b8f	-0.009421243
123	0x3c2b3cb8	0.010451488
124	0x3da1da52	0.079029694
125	0xbc19df01	-0.009391547
126	0x3cf11de7	0.029433204
127	0x3d392c1c	0.04520808
128	0x3d24c51e	0.040227048
129	0x3d0bc4c5	0.0341232
130	0x3c0ac111	0.008468882
131	0x3d1ad6e7	0.037802603
132	0xbcd9316c	-0.026512824
133	0xbccec484	-0.02524019
134	0x3c20c044	0.009811465
135	0xbd97c073	-0.07409754
136	0xbd051bb7	-0.032497134
137	0x3d87be8d	0.066281416
138	0x3ce064f4	0.027391888
139	0x3d7f5533	0.06233711
140	0x3d1c536e	0.038165502
141	0x3c66192c	0.014044087
142	0x3dcff118	0.10153407
143	0x3b86e0bd	0.0041161464
144	0x3d5474cb	0.051869195
145	0x3dae8458	0.08521336
146	0x3ce79f3f	0.028274177
147	0xbe1e3dfb	-0.15453331
148	0xbdd087c6	-0.10182147
149	0x3d87d43f	0.066322796
150	0xbce38030	-0.027771086
151	0xbd70f673	-0.058828782
152	0xbd83f7ff	-0.06443786
153	0x3db05be4	0.08611277
154	0x3d633e6c	0.055479452
155	0x3d64f28e	0.05589538
156	0xbb5aa4f3	-0.0033362478
157	0xbd7e43a8	-0.06207624
158	0xbd901170	-0.07034576
159	0x3d76062c	0.06006448
160	0x3d471bd5	0.048610527
161	0xbda43b2e	-0.080191
162	0xbd318e15	-0.04334839
163	0xbd99f0e5	-0.0751665
164	0xbce40727	-0.027835442
165	0xbd9b2445	-0.07575277
166	0xbd5700ab	-0.05249087
167	0x3ca18fd9	0.019721912
168	0xbd6a5bb6	-0.05721637
169	0x3c814560	0.01578015
170	0x3c3cedd8	0.011531316
171	0x3d3a48ff	0.04547977
172	0x3d48d276	0.049028836
173	0x3dcc3f51	0.09973014
174	0x399ea6fa	0.00030260516
175	0xbd6bd58d	-0.057576705
176	0x3d61f952	0.05516941
177	0xbb3e7407	-0.0029060857
178	0xbcf4923e	-0.02985489
179	0x3d88384b	0.06651362
180	0xbd8a6ee0	-0.06759429
181	0xbcdb86c6	-0.026797663
182	0x3e11e6fe	0.14248273
183	0xbd0fb9a3	-0.035089146
184	0xbdb6fe4c	-0.08935222
185	0x3c97a6f7	0.018512232
186	0xb9809d39	-0.00024531203
187	0x3d889aff	0.06670188
188	0x3d498682	0.049200542
189	0xbcd86ae7	-0.026418163
190	0x3d37703d	0.044784773
191	0xbda551fd	-0.08072279
192	0x3d2f158d	0.04274516
193	0x3a205298	0.0006115823
194	0x3cf9140a	0.030405063
195	0x3cdb054b	0.026735922
196	0x3dc89cee	0.09795557
197	0x3caff26c	0.0214779
198	0x3df4617b	0.119326554
199	0x3db916c8	0.09037548
200	0x3d474923	0.048653733
201	0x3c3bb329	0.011456289
202	0x3ca38f2a	0.019965727
203	0xbcea8466	-0.028627586
204	0xbd8e8cbd	-0.069604374
205	0xbc3e2443	-0.011605325
206	0x3c1d7adf	0.009611814
207	0x3dc6706f	0.09689414
208	0xbc63154d	-0.013860059
209	0x3d9ea068	0.07745439
210	0xbdee9e68	-0.11651307
211	0xbdfc3220	-0.12314248
212	0x3d84506b	0.06460651
213	0x3da7991a	0.08183499
214	0x3dcbc408	0.09949499
215	0x3c907aeb	0.017636737
216	0x3d3df105	0.046372432
217	0x3dac0ca2	0.08400847
218	0x3c880035	0.016601661
219	0x3d801522	0.06254031
220	0xbcbfabc2	-0.02339733
221	0x3d851bea	0.06499465
222	0xbc97deec	-0.018538915
223	0xbd70ee36	-0.058820926
224	0xbcb32d17	-0.021872086
225	0x3d61d370	0.055133283
226	0xbc82b094	-0.01595334
227	0xbd771081	-0.060318474
228	0xbd96e97e	-0.07368754
229	0x3ca19dd2	0.019728575
230	0x3d14f257	0.036363926
231	0xbdd0db1f	-0.10198044
232	0x3d79c5c7	0.06097963
233	0xbd08f1fd	-0.033433903
234	0xbd14fd5e	-0.036374442
235	0xbd5be5b1	-0.053685848
236	0xbddd382a	-0.10801728
237	0xbc980b32	-0.018560026
238	0x3db2bc2a	0.08727296
239	0xbd5405dc	-0.0517634
240	0x3d8096b2	0.06278743
241	0xbd10c33d	-0.035342444
242	0x3de46255	0.11151568
243	0xbd831ea3	-0.06402328
244	0x3d636bc8	0.05552271
245	0x3dcb1d26	0.09917669
246	0x3d8879cc	0.06663856
247	0xbd30ed83	-0.04319526
248	0xbdb2ac34	-0.087242514
249	0x3d5c5461	0.053791407
250	0x3c95930a	0.01825859
251	0xbd56c811	-0.052436892
252	0xbcbd1676	-0.023082
253	0xbd7f586e	-0.062340192
254	0xbdcc7176	-0.099825785
255	0x3c35a925	0.0110876905

bias_ih_l0 f4 [384]
0	0xbd218c12	-0.039440222
1	0xbca52cce	-0.020162966
2	0xbd0b8481	-0.034061912
3	0xbd249019	-0.040176485
4	0xbc695da6	-0.014243519
5	0x3ded6a2f	0.115925185
6	0x3ca786ab	0.020449957
7	0x3dcbc1fa	0.099491075
8	0x3d12d209	0.035844836
9	0x3d05260a	0.03250698
10	0x3d4c1711	0.049826685
11	0xbd0e8537	-0.034795012
12	0x3ddb9e0c	0.107235044
13	0xbda75e14	-0.08172241
14	0x3c915403	0.017740255
15	0x3e03a88e	0.12857267
16	0x3de09b82	0.10967161
17	0x3dc6dba4	0.09709862
18	0x3da5662c	0.08076128
19	0x3dd8b76a	0.105818585
20	0x3d0b540e	0.034015708
21	0x3da5844d	0.08081875
22	0xbd1a6d84	-0.0377021
23	0xbd0d45bc	-0.034490332
24	0xbc767725	-0.015043055
25	0xbcc924c9	-0.024553673
26	0xbd943e1a	-0.072384074
27	0xbd17112a	-0.036881603
28	0x3ccc2e57	0.02492444
29	0x3da5c9b9	0.08095116
30	0xbdc7f132	-0.09762801
31	0x3c123b30	0.008925244
32	0x3cdd5b9a	0.027021218
33	0x3d4a6376	0.04941126
34	0xbda49cad	-0.08037696
35	0x3c8fb265	0.01754112
36	0x3d18f90b	0.03734688
37	0xbd286303	-0.04111005
38	0x3dc85828	0.097824395
39	0x3a3f0a0e	0.000728757
40	0x3d7b7488	0.06139043
41	0xbdd151cd	-0.102206804
42	0x3d82cab4	0.06386319
43	0x3d7d1cc2	0.061795004
44	0xbd3075dc	-0.04308115
45	0x3dc85d52	0.097834244
46	0xbc3af076	-0.011409869
47	0xbccf0770	-0.025272101
48	0xbdda6e9a	-0.10665627
49	0x3d24cf46	0.040236734
50	0x3bfecdde	0.007776006
51	0xbab1925c	-0.0013547647
52	0x3d15db9a	0.03658638
53	0xbd79fbcc	-0.061031148
54	0xbd631076	-0.05543562
55	0x3da9b4ba	0.08286424
56	0xbbb8299f	-0.005620196
57	0x3ba42ec5	0.005010458
58	0x3d935553	0.07194009
59	0x3cc8045f	0.024416147
60	0xbd8db907	-0.06920057
61	0x3cf0ddc5	0.029402623
62	0xbda202f6	-0.07910721
63	0x3d1a8238	0.037721843
64	0x3d394ad1	0.045237366
65	0x3ca4487e	0.020054098
66	0x3dece8d4	0.11567846
67	0xbd0aeac0	-0.03391528
68	0x3b939ece	0.004505015
69	0x3c788666	0.015168762
70	0x3d01dd9a	0.031705476
71	0x3c90b8dc	0.017666273
72	0xbd4b66e4	-0.04965867
73	0x3b788d67	0.003792608
74	0xbd1915f1	-0.03737444
75	0x3dbe0674	0.092785746
76	0x3c9ed36d	0.019387925
77	0x3d6da6c5	0.058020372
78	0x3d5bfb55	0.053706486
79	0x3ddb1c0d	0.1069871
80	0x3d43cc73	0.0478024
81	0xbc1d8987	-0.009615309
82	0xbd17f0d8	-0.03709492
83	0x3ddd2b19	0.10799236
84	0x3cced648	0.025248662
85	0x3d018d72	0.031629033
86	0x3be131b0	0.0068723783
87	0x3cbcbded	0.023039782
88	0xbd7bf32a	-0.061511196
89	0x3d1d02a1	0.038332585
90	0xbd4bb343	-0.049731504
91	0xbd99ea36	-0.07515375
92	0x3d2eced7	0.042677727
93	0xbd3a0f6f	-0.045424875
94	0xbd855ae2	-0.06511475
95	0x3dd9fd44	0.1064401
96	0xbdba93d1	-0.09110225
97	0x3dc55056	0.096344635
98	0x3d834a7a	0.0641069
99	0x3d83159a	0.064006045
100	0xbd5e732b	-0.05430905
101	0x3d2cbc9f	0.04217207
102	0x3d3887aa	0.045051254
103	0xbd1745b6	-0.036931716
104	0xbdb623e3	-0.088935636
105	0xbd930159	-0.071779914
106	0x3d24b6b8	0.040213317
107	0x3db2d110	0.08731282
108	0x3d5d7941	0.054070715
109	0xbde29c9b	-0.110650264
110	0xbd8ebd0f	-0.06969654
111	0xbd468183	-0.048463356
112	0x3d963715	0.07334725
113	0x3d8183d4	0.06323972
114	0x3db79afa	0.08965106
115	0x3aa70035	0.001274115
116	0xbd8f19fa	-0.069873765
117	0x3d828b4a	0.063742235
118	0xbd91abed	-0.0711287
119	0x3db056e6	0.086103246
120	0x3d492325	0.049105782
121	0x3bf79a79	0.0075562564
122	0xba979302	-0.0011564197
123	0x3d2f0be3	0.042735945
124	0x3d82bab1	0.06383265
125	0xbd0ed829	-0.034874115
126	0xbc22a910	-0.009928003
127	0xbced459a	-0.028963853
128	0x3c576f4f	0.013149097
129	0x3da8d4f3	0.08243742
130	0x3d484ac2	0.04889942
131	0xbc8cfee3	-0.017211383
132	0xbcca504d	-0.024696494
133	0x3d817fdb	0.063232146
134	0xbd74298a	-0.059609927
135	0x3dc25d4a	0.0949045
136	0xbb564a11	-0.0032697956
137	0x3d70a5fd	0.05875205
138	0xbb97dbcf	-0.0046343575
139	0xbc6f4aa0	-0.014605194
140	0xbcba15c4	-0.022715457
141	0xbdf56c14	-0.11983505
142	0x3da009a0	0.07814336
143	0xba5da95e	-0.00084557186
144	0xbd65e24c	-0.056124017
145	0xbd2f3906	-0.04277899
146	0xbd41d1cc	-0.04731922
147	0xbb3ff183	-0.002928824
148	0x3d355d31	0.044278327
149	0xbc4224a7	-0.011849559
150	0xbdf247b0	-0.118300796
151	0xbc1d35b6	-0.009595325
152	0xbc5fd9b1	-0.0136627415
153	0xbca880f7	-0.020569308
154	0x3dbf9083	0.09353735
155	0x3db2288f	0.08699142
156	0xbd574d64	-0.05256404
157	0x3da90473	0.08252802
158	0x3d95fd8e	0.07323752
159	0xbc40d520	-0.011769563
160	0xbd52f426	-0.05150237
161	0x3d0d4d0c	0.034497306
162	0x3da09088	0.07840067
163	0xbccdd854	-0.025127567
164	0xbde49e60	-0.1116302
165	0x3ce6bc67	0.02816601
166	0xbd35aa84	-0.04435207
167	0xbdb0395a	-0.08604689
168	0xbd420dfd	-0.04737662
169	0xbdeff55e	-0.11716722
170	0xbdb148d3	-0.08656468
171	0xbd956105	-0.07293896
172	0xbc33a796	-0.010965249
173	0xbd72ca2c	-0.059274837
174	0x3cbe9c35	0.023267845
175	0xbd851570	-0.064982295
176	0x39ad780a	0.00033086567
177	0x3ce8e5a8	0.028429821
178	0xbc342c78	-0.01099693
179	0x3d2a2326	0.041537426
180	0x3def2c84	0.116784126
181	0xbd7c49af	-0.061593708
182	0x3dd498dd	0.10380719
183	0x3dc092fd	0.09403036
184	0xbb99e867	-0.004696894
185	0x3d007c90	0.031368792
186	0xbbee5a94	-0.0072739813
187	0xbc4f596b	-0.012655596
188	0xbd434455	-0.04767259
189	0xbd927058	-0.07150334
190	0x3c5f21c1	0.013618887
191	0x3d52e8bf	0.051491495
192	0x3d5e82e8	0.05432406
193	0x3de68059	0.11254949
194	0xbc531292	-0.0128828455
195	0x3dacb99d	0.084338404
196	0xbc119409	-0.008885392
197	0x3d29040a	0.041263618
198	0xbc548e73	-0.012973416
199	0x3d5a2fc7	0.05326822
200	0xbb99fe80	-0.004699528
201	0x3d2b7e1c	0.041868314
202	0xbd861476	-0.06546871
203	0xbd1896e0	-0.03725326
204	0x3d6d6627	0.05795875
205	0xbca06e0a	-0.01958372
206	0xbd13afad	-0.03605621
207	0xbd2c8a4d	-0.04212408
208	0xbdff4f24	-0.12466267
209	0xbc927f3a	-0.017882932
210	0xbd46760a	-0.048452415
211	0x3d6db02b	0.058029335
212	0xbc2a9dba	-0.0104135815
213	0x3dc29b9c	0.095023364
214	0xbdefeef2	-0.11715497
215	0xbce3a93f	-0.027790664
216	0x3db1647c	0.08661744
217	0xbc8dc5e6	-0.01730628
218	0x3d9dc931	0.0770439
219	0x3d0714cb	0.032978814
220	0x3ccae926	0.024769377
221	0xbd3f8709	-0.04675964
222	0x3d58dcb5	0.052944858
223	0x3db2d20a	0.08731468
224	0xbce00378	-0.027345404
225	0x3d4235d7	0.047414627
226	0x3c446c4c	0.011988711
227	0x3cf257f6	0.029582959
228	0xbdf55aef	-0.11980235
229	0xbc0b52fc	-0.008503672
230	0xba0631c1	-0.0005119108
231	0x3d84308c	0.06454572
232	0x3dfb4e98	0.1227085
233	0x3cf75602	0.030192379
234	0x3d3e756b	0.046498697
235	0x3d82720a	0.063694075
236	0x3dae4d45	0.08510832
237	0x3d2e1a61	0.042505626
238	0xbd35937a	-0.044330098
239	0xbcd88b31	-0.02643356
240	0x3d3a829b	0.04553471
241	0xbd89e79b	-0.06733628
242	0xbdca7c0f	-0.098869435
243	0xbd558810	-0.052131712
244	0x3ccf9cf0	0.025343388
245	0xbd918a9d	-0.071065165
246	0x3db21a34	0.08696404
247	0x3c2495f0	0.0100455135
248	0x3dee10c9	0.11624295
249	0x3d9187de	0.07105993
250	0x3e0d7959	0.13815822
251	0xbc72490b	-0.014787923
252	0xbc1db33c	-0.009625252
253	0xbc85b9a4	-0.016323872
254	0x3d57aa51	0.05265266
255	0x3db20b2b	0.08693536

bias_hh_l0 f4 [384]
0	0x3d246aa0	0.040140748
1	0x3d40babc	0.047053084
2	0x3dab4803	0.083633445
3	0xbb8ced3f	-0.004300743
4	0x3d4fd9ed	0.05074494
5	0xbcaf2def	-0.021384208
6	0x3da3ede9	0.08004362
7	0xbbad4011	-0.0052871783
8	0xbda0759b	-0.078349315
9	0xbdb38d0b	-0.08767136
10	0x3c4c1a05	0.012457375
11	0x3bfedf47	0.0077780816
12	0x3e0daf7c	0.13836473
13	0x3d0f671b	0.03501044
14	0x3cb35f7d	0.021896118
15	0xb9eb11e6	-0.00044836028
16	0xbcace305	-0.021104345
17	0xbca56ed4	-0.020194449
18	0x3d979b1b	0.07402631
19	0xbce50aac	-0.02795919
20	0xbdb23222	-0.08700968
21	0xb8bf9150	-9.134656e-05
22	0xbd64590d	-0.055748988
23	0xbd3274f9	-0.043568585
24	0x3e0b6584	0.13612944
25	0x3cf64530	0.030062288
26	0xbd04e6be	-0.032446615
27	0xbdde3451	-0.10849822
28	0xbd0a92a2	-0.033831246
29	0xbd01583c	-0.031578287
30	0x3d839bd2	0.06426205
31	0x3befc18d	0.007316774
32	0x3de090e5	0.109651364
33	0x3d8b3869	0.06797869
34	0xbdf030a9	-0.11728031
35	0xbcae17fb	-0.02125167
36	0x3d1b6527	0.037938263
37	0xbe165a10	-0.14682794
38	0x3dae2281	0.08502675
39	0xbd420155	-0.04736455
40	0x3dba4ca4	0.09096649
41	0xbcfa576a	-0.03055926
42	0xbb955d9b	-0.004558278
43	0x3d312f1e	0.043257825
44	0x3d1a92ba	0.037737586
45	0x3df510af	0.11966073
46	0x3c0ef2ca	0.008724878
47	0x3de1f180	0.110323906
48	0xbd81b3a6	-0.06333093
49	0xbdd616aa	-0.104535416
50	0x3d8685d4	0.065684944
51	0x3d359b01	0.044337276
52	0xbdb9ed21	-0.09078432
53	0x3da70c5c	0.08156654
54	0xbc8131ba	-0.015770782
55	0x3dbe0b92	0.092795506
56	0xbd14db8a	-0.03634218
57	0xbd8379d5	-0.06419722
58	0xbcb28780	-0.021793127
59	0x3dac34af	0.08408486
60	0x3daa38ad	0.08311591
61	0xbc8c8cac	-0.017156921
62	0xbc99d419	-0.018777894
63	0x3dbc7505	0.09202007
64	0xbd293511	-0.041310374
65	0x3d883666	0.06651001
66	0x3d874b0e	0.066061124
67	0x3d446aea	0.047953524
68	0x3cd93690	0.026515275
69	0x3b6c73b8	0.0036079716
70	0xbd931ee1	-0.07183624
71	0xbd8a55ce	-0.06754647
72	0xbcb3859d	-0.021914298
73	0x3d17cefc	0.03706263
74	0xb9abe3ce	-0.0003278539
75	0x3d5b2ca5	0.053509373
76	0x3dec5a01	0.115406044
77	0xbd5e3243	-0.054247152
78	0x3df5690a	0.11982925
79	0x3d20af55	0.03922971
80	0x3db390e0	0.08767867
81	0xbc90abd8	-0.017660066
82	0xbcc286e7	-0.023745967
83	0x3c9b837a	0.018983591
84	0x3b5ad419	0.003339058
85	0x3baedbbd	0.0053362534
86	0xbbf88d34	-0.007585192
87	0xbd8db596	-0.069194004
88	0x3d488216	0.048952185
89	0xbd473c77	-0.04864165
90	0xbd6ee2ad	-0.058321644
91	0xbcb5d042	-0.022194032
92	0xbd8c2af3	-0.068441294
93	0xbd58f5f9	-0.052968953
94	0x3cdbc143	0.026825553
95	0x3da70343	0.08154919
96	0xbd3f1695	-0.046652395
97	0xbd7c0317	-0.061526384
98	0xbc72e8ff	-0.014826058
99	0xbcb3dc34	-0.021955587
100	0x3dad0e4c	0.084499925
101	0xbc9a6e3f	-0.018851398
102	0xbc269a85	-0.010168676
103	0x3baa92bf	0.005205482
104	0xbd85c4aa	-0.06531651
105	0xbd0f3ec8	-0.034971982
106	0x3d724f84	0.059157863
107	0xbd4eaef7	-0.05045983
108	0xbdc449ab	-0.095843635
109	0xbcca6572	-0.024706576
110	0xbc902622	-0.017596308
111	0xbbf93cbd	-0.0076061175
112	0x3be1da6e	0.006892494
113	0xbc6a5929	-0.014303484
114	0x3c6909d1	0.014223532
115	0x3d7559ed	0.059900213
116	0xbd9acafa	-0.07558246
117	0xbca44c73	-0.020055985
118	0x3c115772	0.008870946
119	0xbc867a28	-0.01641567
120	0x3d4a6fc5	0.049422998
121	0x3d4fa1cd	0.050691415
122	0x3c94fc46	0.0181867
123	0xbd2a73c3	-0.041614305
124	0x3dc0820b	0.09399804
125	0x3d4805ff	0.048833843
126	0x3d57d8a0	0.052696824
127	0xbe051da5	-0.1299959
128	0x3bfcd7d1	0.007716157
129	0xbc51daae	-0.012808485
130	0xbd9ab02a	-0.07553132
131	0xbd48d6a2	-0.049032815
132	0xbda7df29	-0.08196861
133	0xbd6b7281	-0.057482246
134	0x3d3033d3	0.043018173
135	0x3dcceba2	0.10005881
136	0xbd93eb49	-0.072226115
137	0x3d3d80fe	0.046265595
138	0xbc72a865	-0.014810656
139	0x3d752891	0.05985314
140	0xbd4f74b1	-0.050648395
141	0xbdc2a5b0	-0.09504259
142	0x3da81962	0.082079664
143	0xbd969b73	-0.07353868
144	0x3d99d263	0.07510831
145	0x3dc290af	0.095002525
146	0xbc4f453c	-0.012650784
147	0xbd573cb0	-0.05254811
148	0xbcd1b864	-0.02560062
149	0xbe168f90	-0.14703202
150	0xbdada944	-0.084795505
151	0x3c36a182	0.011146905
152	0x3cd104a3	0.025514906
153	0xbcf7b1ae	-0.030236091
154	0x3d88db40	0.066824436
155	0xbb9a15bc	-0.004702298
156	0xbbeb9c3e	-0.0071902564
157	0x3d359c1e	0.044338338
158	0x3da9c494	0.082894474
159	0x3d913221	0.070896395
160	0x3d6ccb1c	0.057810888
161	0xbc4d57ff	-0.012533187
162	0x3c9a5b77	0.018842442
163	0xbdac459b	-0.08411714
164	0xb97e27eb	-0.00024238198
165	0x3c775dcf	0.015098049
166	0xbd846a8e	-0.06465636
167	0xbdd5a360	-0.10431552
168	0xbde326fa	-0.110914186
169	0xbd008857	-0.031380024
170	0x3c3e75a9	0.011624732
171	0x3d6f2187	0.058381584
172	0x3d3d2e3e	0.046186678
173	0xbdd0e985	-0.1020079
174	0xbddbf80e	-0.10740672
175	0xbad5503a	-0.001627452
176	0x3dc20b70	0.09474838
177	0xbb8a3a0f	-0.004218347
178	0x3bbb3ed5	0.0057142773
179	0x3d8bbf33	0.06823578
180	0x3d77dd10	0.060513556
181	0xbd507498	-0.050892442
182	0x3c4c57ed	0.012472135
183	0x3cf7c470	0.030245036
184	0x3cfc4720	0.030795634
185	0x3cdbe887	0.026844276
186	0xbc87c41e	-0.016573008
187	0x3ce22431	0.027605148
188	0xbd9103cb	-0.070808016
189	0x3d9244a7	0.07142001
190	0x3d267d33	0.040646743
191	0x3da23503	0.079202674
192	0x3c0e4d27	0.008685387
193	0xbb182860	-0.0023217425
194	0x3dcfd4fb	0.10148045
195	0xbcb17d6d	-0.021666253
196	0xbd015560	-0.03157556
197	0x3d35c81f	0.044380303
198	0x3d18dfdc	0.037322864
199	0x3dc40108	0.09570509
200	0x3ddfd3a8	0.10929042
201	0x3db53346	0.0884767
202	0xbd6e3635	-0.058157165
203	0xbd6aa5bd	-0.057286967
204	0x3dd6458f	0.10462486
205	0xbd2a527a	-0.041582562
206	0x3da72bd1	0.08162654
207	0x3aad26a5	0.001321037
208	0xbc97b837	-0.018520458
209	0x3d9d34cf	0.07676088
210	0x3dadbfff	0.08483886
211	0x3d5ca28d	0.053865958
212	0x3d73a6a2	0.059485085
213	0x3bddfde9	0.006774653
214	0xbb11b6ab	-0.0022234123
215	0x3d96a97f	0.073565476
216	0x3e0bac18	0.13639867
217	0x3d9b8863	0.07594373
218	0x3dad7491	0.08469499
219	0x3d031219	0.03199968
220	0x3c976558	0.018480942
221	0x3d2081d1	0.039186303
222	0x3b9ca4b8	0.004780378
223	0xbd5a50b7	-0.053299632
224	0x3d210649	0.039312635
225	0xbd05532f	-0.032550033
226	0xbc54f2c2	-0.012997331
227	0x3d8b424c	0.067997545
228	0x3c0f0a7c	0.008730527
229	0xbd6f2e02	-0.058393486
230	0x3da26bc0	0.07930708
231	0xbc0462fe	-0.008080242
232	0x3db798d8	0.089646995
233	0xbc155b20	-0.009115964
234	0x3c0455fd	0.008077142
235	0xbc2aae1e	-0.010417489
236	0x3df3ca86	0.11903863
237	0x3b96d5fb	0.004603145
238	0x3d5dd951	0.054162327
239	0x3d16232d	0.03665464
240	0xbd67edfd	-0.056623448
241	0xbd58dfee	-0.05294793
242	0xbdc59412	-0.09647383
243	0x3cfea44e	0.031084206
244	0x3d97e447	0.07416587
245	0xbd7aab18	-0.061198324
246	0xbcb1a658	-0.021685764
247	0x3ccc31c4	0.024926074
248	0xbd53f5b9	-0.05174801
249	0xbc769b57	-0.015051684
250	0x3e106360	0.14100409
251	0x3b2131d1	0.0024596343
252	0xbcd8f7c0	-0.026485324
253	0x3c426610	0.011865154
254	0x3db67b9f	0.089102976
255	0xbae7fdbb	-0.0017699519
