checkpoints2/ln_cls_layer.pth (torch_old, 7921 bytes, 2 tensors)

weight f4 [2, 256]
0	0xbcd4291c	-0.025898509
1	0xbdb8e8b7	-0.09028762
2	0x3ce746ee	0.028232064
3	0x3c657b20	0.014006406
4	0x3d635f13	0.05551059
5	0xbdb552e1	-0.088536985
6	0xbc2e8867	-0.010652638
7	0xbd9af8d9	-0.07566995
8	0xbc3ec942	-0.011644663
9	0xba67d2d7	-0.0008843368
10	0xbcff6070	-0.031173915
11	0x3d92165f	0.07133173
12	0xbca4b336	-0.020104986
13	0x3ca06883	0.019581085
14	0xbd0e9d78	-0.034818143
15	0xbd628e6a	-0.055311598
16	0x3d61835a	0.055056907
17	0x3d839d5a	0.06426497
18	0x3c8d4ea5	0.017249415
19	0xbd3c2e21	-0.04594243
20	0x3da9f4f6	0.08298676
21	0xbd170d3e	-0.036877863
22	0x3cdc8a25	0.026921341
23	0x3d306898	0.0430685
24	0x3d4b5c1d	0.049648393
25	0x3baa1cbb	0.005191413
26	0xbc8646b3	-0.016391134
27	0xbd2a7ca1	-0.04162276
28	0x3d1bc914	0.03803356
29	0xbd0c2392	-0.03421361
30	0x3caeeda4	0.02135355
31	0x3d9124a1	0.070870645
32	0xbd81de29	-0.06341202
33	0x3d8eec0a	0.06978615
34	0xbd2de793	-0.042457175
35	0xbd6f07ba	-0.058356978
36	0x3da93321	0.08261705
37	0x3d5206b3	0.05127592
38	0xbd473a5a	-0.048639633
39	0x3d4ddd8c	0.05026011
40	0xbcf577c9	-0.029964345
41	0x3d964497	0.07337301
42	0xbce925a1	-0.028460326
43	0x3d55fb0b	0.052241366
44	0x3d2b080d	0.041755725
45	0x3d15ce5d	0.036573756
46	0xbcbbb29e	-0.02291232
47	0xbd617228	-0.05504051
48	0xbd88deb9	-0.06683106
49	0x3d1f261d	0.038854707
50	0xbc6544ac	-0.013993423
51	0x3d7b41bb	0.061341982
52	0x3d38a404	0.045078292
53	0x3ccdcdbc	0.025122516
54	0x3c4e0774	0.012575019
55	0xbc0a1bc8	-0.008429475
56	0xbd01f521	-0.031727914
57	0xbc060950	-0.008180931
58	0x3d1f9ba2	0.038966782
59	0xbd0b7bbc	-0.03405355
60	0xbd4d88a2	-0.05017913
61	0xbc87818b	-0.016541263
62	0x3d96ddbd	0.07366512
63	0x3c86bb07	0.016446603
64	0xbd61e35d	-0.05514847
65	0x3d5e25f7	0.054235425
66	0x3dec1d9f	0.11529087
67	0xb95608de	-0.00020411934
68	0x3d4a3069	0.049362574
69	0x3cd0da8b	0.025494834
70	0x3c8db54e	0.017298367
71	0x3d662ad3	0.056193184
72	0xbc955c55	-0.018232504
73	0xbb66584b	-0.0035147842
74	0x3ba15483	0.0049234047
75	0x3bd85a30	0.006602548
76	0x3b8100b8	0.0039368533
77	0x3d507221	0.05089009
78	0x3d42f661	0.047598246
79	0x3c398c4f	0.011324956
80	0x3d7f3f4f	0.062316235
81	0x3d5d3616	0.05400666
82	0xbd2e6c5b	-0.042583805
83	0x3de2bad5	0.11070792
84	0xbd937729	-0.07200462
85	0x3d9a25ec	0.07526764
86	0xbd6fe71b	-0.05857001
87	0xbda17bfe	-0.07884978
88	0x3ca63f07	0.020293726
89	0xbd755009	-0.05989078
90	0x3d802527	0.06257086
91	0xbd8b729e	-0.06808971
92	0x3bec1b41	0.0072053974
93	0x3cb7cdbc	0.022436969
94	0xbd6c4c70	-0.057690084
95	0xbd030ca2	-0.03199447
96	0x3d246051	0.040130917
97	0x3d1df4c9	0.038563523
98	0xbccfe33a	-0.025376905
99	0xbda1dbd7	-0.07903259
100	0x3d077385	0.033069152
101	0x3cf2bbc2	0.029630546
102	0xbcde72a6	-0.027154278
103	0x38615800	5.3726137e-05
104	0x3cdfcee4	0.027320333
105	0xbc87b7cd	-0.016567135
106	0xbcdb8b5c	-0.02679985
107	0x3ccfb3d2	0.0253543
108	0x3b94e97f	0.0045444365
109	0x3c98b60c	0.018641494
110	0xbd7ccaee	-0.061716966
111	0x3cbdbd0d	0.023161435
112	0xbcf02bcc	-0.029317759
113	0xbd2cf6df	-0.042227622
114	0xbd53760a	-0.051626243
115	0xbca1fbcc	-0.019773386
116	0xbcbe33a6	-0.023217987
117	0x3c61cb71	0.013781414
118	0x3cf5ac4d	0.029989386
119	0xbc841c1d	-0.016126687
120	0x3d7bd0bf	0.061478373
121	0x3d3a275f	0.045447703
122	0x3d53b1f7	0.051683392
123	0xbce7f1a0	-0.028313458
124	0xbdc8f041	-0.0981145
125	0x3bc55f3e	0.0060233166
126	0x3da914ad	0.08255897
127	0xbcd54c9f	-0.026037512
128	0xbd0be409	-0.03415302
129	0x3d655ac4	0.055994764
130	0x3d2fd1be	0.042924635
131	0xbdeccd8a	-0.11562641
132	0x3c157748	0.009122677
133	0xbd67a2bf	-0.05655169
134	0xbd89ed6c	-0.06734738
135	0x3d8a8945	0.06764463
136	0x3d88ce65	0.06679992
137	0xbd32bbac	-0.04363601
138	0x3d8098a8	0.06279117
139	0xbd7429ab	-0.05961005
140	0xbca25996	-0.019818109
141	0xbc299ba7	-0.010352052
142	0xbdc48ace	-0.095967874
143	0x3d842ee9	0.0645426
144	0xbd0cdfb0	-0.034393013
145	0xbdcd170b	-0.10014161
146	0xbdb1f183	-0.08688643
147	0x3d184b21	0.037181024
148	0x3d8d49bd	0.0689883
149	0x3d804124	0.062624246
150	0x3db66740	0.08906412
151	0xbd727252	-0.059191056
152	0xb9dbc95d	-0.00041920962
153	0x3d48d654	0.049032524
154	0x3d496dd4	0.049177006
155	0x3abe54b6	0.0014521095
156	0xbc830a15	-0.015996018
157	0x3d1b9e03	0.03799249
158	0x3d224710	0.03961855
159	0x3d375ff1	0.04476923
160	0xbce7af03	-0.028281694
161	0xbc2dafb4	-0.010600973
162	0xbd41b26e	-0.047289304
163	0xbdf73374	-0.12070361
164	0x3b90f583	0.0044237985
165	0x3cde3d0f	0.027128724
166	0x3d1695cd	0.036763955
167	0xbbb866b0	-0.0056274757
168	0x3d9c18c2	0.0762191
169	0xbd5d6ebb	-0.05406068
170	0x3d967486	0.07346444
171	0xbcd84a51	-0.026402624
172	0x3d4148fc	0.047188744
173	0xbdd46181	-0.1037016
174	0x3d6a9507	0.05727103
175	0x3c85aab4	0.01631675
176	0xbdbdafd1	-0.0926205
177	0xbd90f20f	-0.07077419
178	0x3d3f4eae	0.046705894
179	0xbd131b0f	-0.035914477
180	0x3db362a2	0.08759047
181	0x3d392e35	0.045210082
182	0x3d418221	0.04724324
183	0x3d6726ed	0.056433607
184	0x3cb0d44a	0.021585602
185	0x3e031e3b	0.12804501
186	0x3ca114d1	0.019663246
187	0x3dfe96f4	0.12431136
188	0xbd9e2219	-0.07721347
189	0x3d10a02b	0.035308998
190	0x3c3e2da1	0.0116075585
191	0x3dcb7f57	0.099363975
192	0x3d3b2c4d	0.045696545
193	0xbd45a4f7	-0.048253026
194	0x3d828176	0.06372349
195	0x3cebbb47	0.028775824
196	0x3d80cef1	0.06289471
197	0x3d69f010	0.057113707
198	0x3d5be3c7	0.053684022
199	0xbcc39d76	-0.023878794
200	0xbd10c7c9	-0.03534678
201	0x3dba09a2	0.090838686
202	0x3d5a5495	0.05330332
203	0x3d9d6a8c	0.07686338
204	0x3d6969eb	0.056985777
205	0xbd9abd3e	-0.07555626
206	0xbc34e872	-0.011041747
207	0xbce124d2	-0.027483378
208	0xbd8388b9	-0.06422562
209	0x3d73b7cf	0.059501465
210	0xbd41af53	-0.047286343
211	0x3c8174bf	0.01580274
212	0x3ce03ca3	0.027372664
213	0x3c1fe898	0.0097600445
214	0x3d99ce8f	0.07510101
215	0xbc47c3e7	-0.012192703
216	0x3d5c3d05	0.05376913
217	0x3d7f3299	0.062304113
218	0xbde8e037	-0.113708906
219	0x3d039083	0.03212024
220	0x3d029f23	0.031890046
221	0x3d525fcd	0.051360894
222	0xbd8ffe0f	-0.0703088
223	0xbd7da205	-0.061922092
224	0xbc1ef479	-0.0097018415
225	0x3cad4495	0.021150867
226	0xbbfdc7af	-0.0077447514
227	0xbd816c22	-0.06319453
228	0x3cfd74c8	0.030939475
229	0x3d5109dc	0.051034793
230	0xbd809457	-0.062782936
231	0x3d686b49	0.05674294
232	0xbdc4278a	-0.09577854
233	0x3caf4a1c	0.021397643
234	0x3d30a652	0.043127365
235	0x3da8ae50	0.082363725
236	0xbd11d614	-0.03560455
237	0x3c4703b1	0.012146876
238	0xbd84ac3e	-0.06478165
239	0xbda4f3ba	-0.080543
240	0xbbfc6285	-0.007702174
241	0xbdae8b61	-0.08522678
242	0x3c2f3129	0.010692873
243	0xbd41a06e	-0.04727214
244	0xbd0afee5	-0.033934493
245	0x3c982824	0.018573828
246	0x3c9ecdec	0.0193853
247	0x3c675d79	0.014121407
248	0xbba1ef36	-0.0049418462
249	0x3c98eb93	0.018667018
250	0x3d8a33c8	0.06748158
251	0xbdad3e7e	-0.08459185
252	0xbd81278d	-0.06306372
253	0xbc0c0a29	-0.008547344
254	0xbdc2a744	-0.0950456
255	0x3d1cb2ef	0.038256582

bias f4 [2]
0	0xbd9950c7	-0.0748611
1	0xbc7b7d9f	-0.015349775
