checkpoints2/ln_decoder.pth (torch_old, 313322 bytes, 7 tensors)

weight f4 [16, 50]
0	0x3e749555	0.2388509
1	0x3f0de8e4	0.5543349
2	0x3f069c79	0.5258251
3	0x3f66bea7	0.9013466
4	0x3f1cf094	0.61304593
5	0x3eb7b066	0.3587677
6	0x3d992894	0.07478443
7	0x3edfa443	0.4368001
8	0x3f12cc4a	0.5734297
9	0x3f5b7998	0.8573241
10	0x3f644d87	0.891808
11	0x3ebffc99	0.37497404
12	0x3ec0f03e	0.3768329
13	0x3cbf1c31	0.023328872
14	0x3f04117b	0.51589173
15	0x3d438f3c	0.04774402
16	0x3ebd63fc	0.36990345
17	0x3e52f641	0.20601751
18	0x3ebb8a61	0.36629012
19	0x3f724f26	0.9465202
20	0x3e2b4679	0.16726102
21	0x3f24b8a3	0.64344233
22	0x3f31c7b0	0.69445324
23	0x3f536559	0.8257652
24	0x3dc786ed	0.09742532
25	0x3f63c320	0.8896961
26	0x3f13c109	0.57716423
27	0x3f58959f	0.84603304
28	0x3f0cbb33	0.54973143
29	0x3e72870a	0.23684326
30	0x3e8a4f10	0.27013445
31	0x3f55a432	0.8345367
32	0x3ece2530	0.40262747
33	0x3cb7bbc1	0.022428395
34	0x3e817a4c	0.25288618
35	0x3ec20d1a	0.3790062
36	0x3d630d01	0.055432323
37	0x3d8d7020	0.06906152
38	0x3e4ce7c4	0.20010287
39	0x3f03b983	0.51454943
40	0x3f534fc6	0.825436
41	0x3e9b56bd	0.30339614
42	0x3f6c1a94	0.92228055
43	0x3f5faf34	0.87376714
44	0x3e029f06	0.12755975
45	0x3f29dcc7	0.66352504
46	0x3f365efa	0.7123867
47	0x3f034cfc	0.51289344
48	0x3f769b6f	0.9633092
49	0x3f045185	0.5168689
50	0x3f4161ad	0.75539666
51	0x3f02e0a8	0.5112405
52	0xbe21d1ee	-0.15802738
53	0x3e98443d	0.29739562
54	0x3e77efd0	0.24212575
55	0xbe96fad4	-0.29488242
56	0x3e71d564	0.23616558
57	0xbe9f1a1b	-0.31074604
58	0xbf21d044	-0.63208413
59	0xbd2937ec	-0.041313097
60	0x3edfe102	0.43726355
61	0x3f2b5a03	0.6693422
62	0x3d1184fb	0.03552721
63	0xbea59ebb	-0.32347664
64	0xbe9635c2	-0.2933789
65	0x3e222e02	0.15837863
66	0x3edd683e	0.43243593
67	0xbecb33e6	-0.39688033
68	0xbe7d58cd	-0.24740906
69	0xbea62e8b	-0.32457384
70	0x3f0a3796	0.5399107
71	0x3eb9c18f	0.36280486
72	0x3e664e36	0.22490773
73	0x3e9f7b39	0.311487
74	0xbd8ee4cf	-0.069772355
75	0x3f4b0f16	0.79319894
76	0xbf1a15e6	-0.60189664
77	0xbf3aca41	-0.72964865
78	0xbd95dd80	-0.073176384
79	0x3d241b6c	0.040065214
80	0x3e756023	0.23962454
81	0x3f132227	0.5747399
82	0x3e94b0a1	0.29041007
83	0x3ec982c6	0.39357585
84	0x3d56075b	0.05225311
85	0xbea44587	-0.32084295
86	0x3dab56d6	0.08366172
87	0xbe8ce83a	-0.27520925
88	0xbe13bf83	-0.14428525
89	0xbea3a0f0	-0.31958723
90	0x3e8e7d02	0.27829748
91	0xbefe96ab	-0.49724326
92	0xbf1530e1	-0.5827771
93	0x3ec89e0c	0.3918308
94	0xbe3a6937	-0.18204199
95	0xbec9ca5b	-0.39412197
96	0x3ed92db1	0.42417672
97	0xbef8b0f0	-0.48572493
98	0xbe405389	-0.18781866
99	0x3e99e32a	0.30056125
100	0x3ed98873	0.42486915
101	0x3d4253c2	0.04744316
102	0x3db96d6b	0.09054073
103	0x3f1cb27f	0.61209863
104	0xbf147664	-0.5799315
105	0x3e682310	0.22669625
106	0xbedd509b	-0.4322556
107	0xbbb5e673	-0.0055511533
108	0x3dac8790	0.08424294
109	0xbf59d9b7	-0.8509783
110	0xbf0626c2	-0.5240289
111	0x3f54c17d	0.8310774
112	0xbf2b2441	-0.66852194
113	0xbe438f9d	-0.19097753
114	0xbf1f920c	-0.62332225
115	0xbea37b88	-0.31930184
116	0x3f6cd40f	0.92511076
117	0x3eb0122b	0.3438886
118	0x3e3041d6	0.17212614
119	0x3ebd421d	0.36964503
120	0x3e97a3ad	0.29617062
121	0x3f081930	0.53163433
122	0xbe1ce4e7	-0.15321694
123	0x3f064e92	0.5246364
124	0x3e0afc2b	0.13572757
125	0x3f4be474	0.79645467
126	0xbe75ca48	-0.24002945
127	0xbf130a2c	-0.57437396
128	0xbe35c43c	-0.17750639
129	0xbebd1a33	-0.3693405
130	0x3f8a9a1d	1.0828282
131	0x3e2a39c9	0.16623606
132	0x3d6f6c6c	0.05845301
133	0x3f0e246b	0.5552432
134	0x3d399da7	0.045316365
135	0xbf4650c4	-0.7746699
136	0xbe8b4a50	-0.27205133
137	0xbdece947	-0.115679316
138	0xbec36ca6	-0.3816883
139	0x3ea9c546	0.3315832
140	0x3ee75ce3	0.45188054
141	0x3e05210d	0.13000889
142	0xbdb6eeb7	-0.0893225
143	0xbe909026	-0.28234977
144	0xbda3b6c1	-0.07993842
145	0xbf4ac587	-0.7920765
146	0x3e0bea8d	0.13663693
147	0xbe94c51c	-0.29056633
148	0x3f064583	0.52449816
149	0xbe8c8920	-0.27448368
150	0xbab9946c	-0.0014158613
151	0x3d841c82	0.0645075
152	0xbeed58d0	-0.4635682
153	0x3f0a8f27	0.54124683
154	0xbdba0f55	-0.090849556
155	0xbe3a102d	-0.18170233
156	0x3ef2a2fb	0.4738997
157	0xbdabb598	-0.08384246
158	0x3e825f17	0.25463173
159	0x3d242709	0.04007629
160	0x3bd3ef3e	0.006467729
161	0x3ec8e166	0.39234465
162	0x3ec7923c	0.38978755
163	0xbec2544f	-0.37954947
164	0xbeaed146	-0.34144038
165	0xbe9334aa	-0.28751117
166	0xbded4c14	-0.115867764
167	0xbd877716	-0.06614511
168	0x3e912c71	0.2835422
169	0xbcd030bb	-0.025413861
170	0x3ec5efd6	0.38659543
171	0x3eba5db6	0.3639962
172	0xbea4ea7d	-0.3221015
173	0x3ef80a90	0.4844556
174	0xbe8239d6	-0.2543475
175	0x3e3f62d3	0.18690042
176	0x3de132d6	0.10996024
177	0xbdfe2df1	-0.124111064
178	0xbea73d8e	-0.3266415
179	0xbeef4ab2	-0.46736676
180	0xbe144e42	-0.14482978
181	0x3ea940f9	0.33057383
182	0x3f0cb9b5	0.54970866
183	0xbe375e25	-0.17907007
184	0x3f09d82a	0.53845465
185	0xbe3a1202	-0.18170932
186	0x3ccf3dc7	0.025298012
187	0x3e1b389b	0.15158312
188	0xbeb8ae82	-0.3607064
189	0x3e0f8638	0.14016044
190	0x3e94e5d9	0.2908161
191	0x3d23384d	0.039848614
192	0xbd09ab69	-0.033610735
193	0x3e922dba	0.28550512
194	0xbeef429f	-0.46730515
195	0xbddca836	-0.10774271
196	0xbea0eed4	-0.3143221
197	0xbd17f05c	-0.03709446
198	0xbd95bed8	-0.07311791
199	0x3ee78e7c	0.45225894
200	0x3d382942	0.04496122
201	0x3f208460	0.6270199
202	0x3f42d36f	0.7610387
203	0xbecb93a2	-0.39761072
204	0xbe1b5c9b	-0.15172045
205	0x3f10cb05	0.56559783
206	0xbf31275e	-0.69200695
207	0xbf1ff601	-0.6248475
208	0xbed7c73f	-0.421442
209	0xbd859f61	-0.0652454
210	0xbec9d1e0	-0.39417934
211	0xbd224c5c	-0.039623603
212	0xbdf19d68	-0.11797601
213	0xbf28ead0	-0.65983295
214	0xbf15db7f	-0.5853805
215	0x3eb8e069	0.3610871
216	0x3e99455e	0.29935735
217	0x3c2dbc59	0.010603988
218	0xbdf8771e	-0.12132095
219	0x3e9e814c	0.3095802
220	0xbe7d73b8	-0.24751174
221	0x3cd67539	0.026178943
222	0xbeebb2c7	-0.46034834
223	0x3e75688c	0.23965663
224	0x3f0f6c64	0.56024766
225	0x3efa63f7	0.48904392
226	0xbe16dbd4	-0.14732295
227	0xbe70c110	-0.23511147
228	0xbdedaec7	-0.11605602
229	0xbf073c51	-0.5282641
230	0x3f59a3c5	0.8501552
231	0xbe6996fa	-0.22811499
232	0xbebdbed0	-0.3705964
233	0x3efb8670	0.49126005
234	0xbf60dcd6	-0.8783697
235	0x3dc93003	0.09823611
236	0x3eaf203a	0.34204274
237	0x3d31a3d4	0.04336913
238	0x3f117936	0.5682558
239	0x3e6c3684	0.23067671
240	0xbe925d43	-0.28586778
241	0xbed5d9f2	-0.41767842
242	0x3cf416a2	0.029795948
243	0xbed714d1	-0.4200807
244	0x3e713775	0.23556311
245	0xbf80bce1	-1.0057641
246	0xbe28b670	-0.16475844
247	0xbe37c34f	-0.17945598
248	0x3f262123	0.6489431
249	0xbf1185d5	-0.56844836
250	0xbe023fa4	-0.1271959
251	0x3e5812b3	0.21100883
252	0xbdcadc75	-0.0990533
253	0xbe5b2751	-0.21401717
254	0xbdcad4a7	-0.099038415
255	0xbd8a2e1f	-0.06747078

weight_ih_l0 f4 [384, 50]
0	0x3ca71a0e	0.020398166
1	0xbd5a9a9d	-0.053370107
2	0xbbf6ad4c	-0.007527983
3	0xbdcc2cca	-0.0996948
4	0x3e9e437a	0.30910856
5	0xbe320041	-0.1738291
6	0xbc54be6a	-0.012984851
7	0x3d7a5650	0.06111747
8	0xbd0f9244	-0.0350516
9	0xbca7c08e	-0.02047756
10	0x3e3e01fd	0.18555446
11	0x3c8a58d0	0.016888052
12	0x3cab3b20	0.020902216
13	0xbd5b00cc	-0.053467557
14	0x3dc41ccd	0.09575806
15	0x3cbc274f	0.022967963
16	0xbce84445	-0.028352866
17	0x3e05e970	0.1307733
18	0xbc9afdfb	-0.018919935
19	0x3d9f3bec	0.07775101
20	0xbe41210f	-0.18860267
21	0x3cf2f4d0	0.029657751
22	0xbc6210db	-0.013797964
23	0xbe4efb05	-0.20212944
24	0xbe107865	-0.14108427
25	0x3e0742ca	0.13209072
26	0xbb970597	-0.0046088207
27	0xbe378560	-0.17921972
28	0xbb395d76	-0.0028284467
29	0xbd80bf76	-0.06286518
30	0xbd393683	-0.045218002
31	0x3c0fc3a4	0.008774672
32	0xbd0ab079	-0.033859704
33	0xbdceebc2	-0.10103561
34	0x3e7f63e5	0.2494045
35	0xbd0a9c55	-0.033840496
36	0xbde57af6	-0.112050936
37	0xbddf1683	-0.10892966
38	0xbd566c1f	-0.052349206
39	0xbc84620c	-0.016160034
40	0xbe153abf	-0.14573191
41	0xbd38afa4	-0.04508938
42	0xbd17b59d	-0.037038434
43	0x3e4669f4	0.19376355
44	0x3e5bcf61	0.21465828
45	0x3db1ca46	0.08681159
46	0x3daab470	0.08335197
47	0xbd88a07e	-0.066712365
48	0xbde7f894	-0.113267094
49	0x3dfa7471	0.12229241
50	0x3e0df0e5	0.13861425
51	0x3e4a14fc	0.19734567
52	0xbd12302c	-0.03569047
53	0x3e089bce	0.13340685
54	0xbe6752a5	-0.2259012
55	0x3d9792e3	0.07401063
56	0xbd660121	-0.05615342
57	0xbe63d835	-0.22250445
58	0xbe808799	-0.25103453
59	0xbd05b134	-0.032639697
60	0xbd5fdf1c	-0.054656133
61	0x3d8ca659	0.06867666
62	0xbd2401ed	-0.0400409
63	0x3d004b9d	0.03132211
64	0xbd695994	-0.056970194
65	0x3e45e07c	0.19323915
66	0x3de7b306	0.11313443
67	0xbdb5ee66	-0.088833615
68	0xbc8b6945	-0.01701797
69	0xbd04c247	-0.03241184
70	0x3e66e481	0.22548105
71	0x3e555048	0.20831406
72	0x3db69bef	0.08916461
73	0x3e9c696d	0.30549183
74	0xbd6a2b19	-0.057170007
75	0x3d9b512a	0.0758384
76	0xbd57b019	-0.052658174
77	0xbdbb6dd1	-0.09151805
78	0xbd80b9eb	-0.06285461
79	0x3da57c10	0.08080304
80	0x3c693117	0.014232895
81	0xbcbd2d23	-0.023092812
82	0x3ddcaee6	0.10775547
83	0x3e53b67d	0.20675083
84	0xbe4faba3	-0.20280318
85	0xbd1aa3ea	-0.037753977
86	0x3e512d45	0.20427425
87	0x3d161e6e	0.036650114
88	0xbb7c3a2f	-0.0038486829
89	0xbe1471ff	-0.14496611
90	0x3e8c5746	0.27410334
91	0xbe39a12e	-0.18127891
92	0xbd0b2d88	-0.03397897
93	0xbd9eb18c	-0.07748708
94	0xbe245bed	-0.16050692
95	0xbe1b9951	-0.15195204
96	0x3d7263cb	0.0591772
97	0x3d007449	0.0313609
98	0x3e1627b4	0.14663583
99	0xbe091320	-0.13386202
100	0xbd90ae4b	-0.07064494
101	0xbea5ecf0	-0.3240733
102	0x3d8dc863	0.06922986
103	0x3c576343	0.013146224
104	0xbe87cb81	-0.2652245
105	0x3e01c653	0.12673311
106	0xbdbd6270	-0.09247291
107	0x3e7d4336	0.2473267
108	0x3e323b61	0.17405464
109	0x3d2f9c24	0.042873517
110	0xbe992242	-0.2990895
111	0xbcd898a3	-0.02643997
112	0xbd3a09a9	-0.04541937
113	0x3dd12237	0.10211604
114	0x3e5e243c	0.2169351
115	0xbe8c801e	-0.27441496
116	0xbd8caeef	-0.068693034
117	0x3e41a322	0.18909886
118	0x3e7590ec	0.23981065
119	0x3e7df4b6	0.24800381
120	0xbe130cdc	-0.14360374
121	0xbe4444f5	-0.1916693
122	0x3d95fdff	0.073238365
123	0xbddf9795	-0.10917584
124	0x3d595afa	0.053065278
125	0xbdabbdc2	-0.08385803
126	0x3e11c4c0	0.1423521
127	0x3e02e719	0.1278347
128	0x3d0eb399	0.034839246
129	0x3d0a2590	0.03372723
130	0xbd511c14	-0.051052168
131	0xbdc44582	-0.0958357
132	0xbdbf547d	-0.09342287
133	0xbe01b895	-0.12668069
134	0x3cf7813b	0.03021299
135	0x3cbf381b	0.023342183
136	0xbea65b62	-0.32491595
137	0x3b3edc5b	0.0029123041
138	0xbdf5fa3c	-0.12010619
139	0x3e641257	0.22272621
140	0xbca61724	-0.020274706
141	0x3e72f5a6	0.2372652
142	0x3d9e5598	0.077311695
143	0xbeb2e153	-0.34937534
144	0x3e0866c0	0.13320446
145	0x3e41d737	0.18929754
146	0xbc5c048a	-0.013428817
147	0x3e4a1b78	0.19737041
148	0x3d3cf98e	0.04613643
149	0xbe4bb1f8	-0.19892108
150	0xbf07e8f4	-0.53089833
151	0xbe500931	-0.20316006
152	0xbe56e489	-0.20985617
153	0xbb52f01a	-0.0032186569
154	0x3d9bbc85	0.076043166
155	0xbcfdaed4	-0.030967154
156	0x3ed40502	0.4141007
157	0x3e2d794c	0.16940802
158	0x3e687309	0.22700132
159	0x3ec6de99	0.38841704
160	0x3e41afda	0.18914738
161	0xbd071b12	-0.0329848
162	0x3e71e77d	0.23623462
163	0x3e31b7c9	0.17355265
164	0x3d4b1ea0	0.049589753
165	0xbda7b5d3	-0.08188977
166	0xbebbc40d	-0.36673012
167	0x3e56eaff	0.20988081
168	0x3ecec4cc	0.4038452
169	0x3d94ccd9	0.07265634
170	0xbdc8ba3d	-0.09801147
171	0x3de10304	0.10986903
172	0xbe1ab9d6	-0.15109953
173	0xbe09f0b0	-0.13470721
174	0xbed9a64f	-0.42509696
175	0xbe5af141	-0.21381094
176	0x3e25c17b	0.16187088
177	0x3dc3c446	0.095589206
178	0xbe064c5b	-0.13115065
179	0x3d112903	0.035439502
180	0xbeace484	-0.33768094
181	0xbe842b75	-0.25814405
182	0x3e9e159e	0.30875868
183	0xbece4c0c	-0.40292394
184	0x3e6594c2	0.22420028
185	0xbcac26ca	-0.02101459
186	0xbc15fcbf	-0.009154498
187	0x3d73d2f9	0.05952737
188	0xbdd0a82c	-0.10188326
189	0xbd33d136	-0.04390069
190	0x3e2c1e52	0.16808441
191	0x3e18f58c	0.14937419
192	0x3e4da65a	0.2008299
193	0x3bbdfda7	0.00579806
194	0x3cce4745	0.025180468
195	0x3eb59933	0.35468444
196	0xbe79430b	-0.24341981
197	0x3e7e38f4	0.24826413
198	0x3d26a360	0.04068315
199	0x3e605102	0.21905902
200	0x3d304f3f	0.043044325
201	0x3df032c2	0.11728431
202	0xbdf9e40d	-0.122017
203	0x3e541eca	0.2071487
204	0xbeb0b403	-0.34512338
205	0xbceea5b9	-0.029131757
206	0xbd41a37b	-0.047275048
207	0xbe5a1f69	-0.21301045
208	0xbda479a5	-0.08031014
209	0x3db99ac8	0.09062725
210	0xbd123300	-0.03569317
211	0x3d63cdb0	0.05561608
212	0x3e2b8560	0.16750097
213	0x3e023d9e	0.12718818
214	0xbdb59118	-0.08865565
215	0xbbd3de18	-0.0064656846
216	0x3cc8fd08	0.024534717
217	0xbe650dc3	-0.22368531
218	0x3e171023	0.1475225
219	0xbe2d6f0f	-0.16936897
220	0x3e8bb6f8	0.27288032
221	0x3e40922c	0.1880576
222	0x3d8c4cd1	0.06850589
223	0x3ed3fbf0	0.4140315
224	0x3d78f56e	0.060780935
225	0xbdd28cfa	-0.102807954
226	0x3d65628b	0.05600218
227	0x3e2551f8	0.1614455
228	0xbd5dc6bb	-0.054144602
229	0x3d0ef1f9	0.03489873
230	0x3d1f198d	0.038842726
231	0x3dbd7396	0.09250562
232	0x3e313bcc	0.17307967
233	0xbdbf322e	-0.09335743
234	0xbd435e85	-0.047697563
235	0x3b6e2917	0.003634041
236	0x3e22a2a1	0.1588235
237	0x3e5fc377	0.21851908
238	0xbd859e4f	-0.065243356
239	0x3d9f0c8c	0.07766065
240	0x3d8bd572	0.06827821
241	0xbda36ee1	-0.07980133
242	0x3d955351	0.07291282
243	0xbe17b83c	-0.14816374
244	0xbed8e4fb	-0.42362198
245	0x3d13177e	0.035911076
246	0x3d267344	0.04063727
247	0x3e4db588	0.2008878
248	0x3d84ad40	0.06478357
249	0x3dfa58d7	0.12223976
250	0x3d0efcc7	0.034909036
251	0xba1ca1bc	-0.0005975028
252	0xbdc7a271	-0.0974778
253	0x3d89a0c5	0.067201175
254	0xbe9515cc	-0.29118192
255	0xbcb9550a	-0.022623558

weight_hh_l0 f4 [384, 128]
0	0xbe0c4bf8	-0.13700855
1	0xbd7e500e	-0.062088065
2	0x3eab8fcd	0.3350815
3	0xbdb3e307	-0.087835364
4	0xbdc76160	-0.0973537
5	0xbde73f46	-0.11291365
6	0xbdc85935	-0.0978264
7	0xbe19fcfc	-0.15037912
8	0xbe105e61	-0.14098503
9	0x3e0ebd89	0.1393949
10	0xbd717427	-0.058948662
11	0xbd5274d8	-0.051380962
12	0xbe8162ea	-0.25270778
13	0x3df98428	0.1218341
14	0x3e066bab	0.1312701
15	0x3e444cd6	0.19169936
16	0x3cb1e449	0.0217153
17	0x3d6a95bc	0.057271704
18	0x3d270866	0.040779494
19	0xbe19cd33	-0.15019684
20	0xbe844ec5	-0.25841346
21	0x3e487d06	0.19578943
22	0x3d99b18b	0.07504567
23	0x3cc8af95	0.024497787
24	0x3e4efdc1	0.20213987
25	0xbe402dcb	-0.18767469
26	0xbd913690	-0.07090485
27	0x3d4557e9	0.04817954
28	0xbd061447	-0.03273418
29	0xbe2d71ad	-0.16937895
30	0xbd756e94	-0.05991991
31	0xbdf62343	-0.120184444
32	0xbe6d0fde	-0.23150584
33	0xbe2f49d2	-0.17118004
34	0x3e12fbf0	0.14353919
35	0xbd395d16	-0.04525479
36	0x3d154dfc	0.036451325
37	0xbd51fe09	-0.051267657
38	0x3e1a6ecf	0.15081333
39	0xbea64bc2	-0.32479674
40	0xbd073858	-0.033012718
41	0xbe2498d8	-0.1607393
42	0xbe02ae1d	-0.12761731
43	0xbdd93868	-0.10606462
44	0xbe2b8212	-0.16748837
45	0x3d0272b6	0.031847678
46	0x3d6ce6d0	0.057837307
47	0xbe5e2cdd	-0.21696801
48	0x3cc2d42c	0.023782812
49	0xbe3161b5	-0.17322429
50	0x3e2c9d0e	0.16856787
51	0xbe2078e1	-0.15671112
52	0xbce03488	-0.027368799
53	0xbeb339ee	-0.35005134
54	0x3e205cba	0.15660372
55	0x3ca602e9	0.02026506
56	0x3e7dd123	0.2478681
57	0x3c12afc0	0.008953035
58	0xbe5f3e8f	-0.21801208
59	0x3d1489fb	0.0362644
60	0xbd1c55b8	-0.038167685
61	0xbd91f5d0	-0.07126963
62	0xbd678ff0	-0.056533754
63	0x3c783014	0.0151481815
64	0xbd8fa25e	-0.07013391
65	0xbcc8c479	-0.024507748
66	0x3e54aa83	0.2076817
67	0xbe72aac4	-0.23697954
68	0x3e0c207d	0.13684268
69	0x3e3cdc0e	0.18443319
70	0xbe20b689	-0.15694632
71	0x3de86971	0.11348236
72	0xbd9788d4	-0.07399145
73	0x3e5d2499	0.21595992
74	0xbdb0cc0a	-0.08632667
75	0x3c6ad6f9	0.01433348
76	0x3d32cac1	0.043650392
77	0x3d5d54b2	0.05403585
78	0x3e55b0aa	0.20868173
79	0xbc43dbda	-0.011954272
80	0xbd1725d0	-0.036901295
81	0x3e8168f8	0.25275397
82	0xbdc3c9e7	-0.09559994
83	0xbb7a9b45	-0.003823952
84	0xbe90a7f7	-0.28253147
85	0xbe23918a	-0.15973487
86	0xbd5b147a	-0.053486325
87	0xbddadd79	-0.10686774
88	0xbe3dc8d1	-0.18533637
89	0xbd83d528	-0.06437141
90	0x3cfb972d	0.030711735
91	0xbde233da	-0.11045046
92	0x3e5548a3	0.2082849
93	0xbe807931	-0.25092462
94	0xbd7205d5	-0.059087593
95	0xbdf814e0	-0.121133566
96	0xbe0dfe23	-0.13866477
97	0xbe6c0003	-0.2304688
98	0xbd0d20ff	-0.034455296
99	0xbe2f6e40	-0.17131901
100	0x3d624a36	0.055246554
101	0xbcfc8121	-0.030823292
102	0xbe5c60b1	-0.2152126
103	0xbe468a11	-0.19388606
104	0xbda73ff4	-0.08166495
105	0x3e52b408	0.20576489
106	0xbc372d1b	-0.011180188
107	0xbdbc3b95	-0.09191052
108	0xbe41da26	-0.18930873
109	0x3cc9a0af	0.024612753
110	0xbdc067f0	-0.093948245
111	0x3ec7b6e5	0.39006725
112	0xbd710527	-0.058842804
113	0x3ea54ae1	0.3228369
114	0xbc8014ff	-0.015635012
115	0xbe6a6979	-0.22891797
116	0x3d6bf7a8	0.05760923
117	0xbd239848	-0.03994015
118	0xbd57f3b8	-0.052722663
119	0x3c434f6d	0.011920792
120	0x3ceaf467	0.028680993
121	0x3d2cf5fc	0.042226776
122	0x3d8311d9	0.063998885
123	0xbe0bcf27	-0.13653241
124	0xbe18d7d1	-0.14926077
125	0x3c0d152f	0.008611008
126	0x3dbb36c0	0.09141302
127	0x3e012331	0.1261108
128	0x3d8c5122	0.06851412
129	0x3d04c34f	0.032412823
130	0x3d205f25	0.039153237
131	0x3e38fc77	0.18065058
132	0xbd1486f1	-0.036261503
133	0x3c82e193	0.015976703
134	0xbdb8a8e7	-0.090165906
135	0xbe0eaca5	-0.13933046
136	0xbd371469	-0.0446972
137	0xbe5ee403	-0.21766667
138	0x3d8b0dc6	0.067897364
139	0x3e8e3a63	0.2777892
140	0xbce4760d	-0.027888322
141	0x3cec77ac	0.028865658
142	0x3de22d3d	0.11043785
143	0x3e3d8033	0.18505935
144	0x3e313e76	0.17308983
145	0xbdf5c77b	-0.120009385
146	0xbd43798b	-0.047723334
147	0xbd3d8f26	-0.046279095
148	0x3e608580	0.21925926
149	0x3e7d02e6	0.24708137
150	0x3cce49f6	0.025181752
151	0xbd56ad28	-0.05241123
152	0x3e3d02cd	0.184581
153	0x3e12c990	0.14334702
154	0xbda8d33a	-0.08243413
155	0xbd6bbd07	-0.057553317
156	0x3d57e5ae	0.052709274
157	0xbcacbc57	-0.021085901
158	0x3e6446af	0.22292589
159	0x3e60a3a0	0.21937418
160	0x3e2a8d46	0.16655454
161	0xbe24853d	-0.16066451
162	0xbe1f6b6c	-0.15568322
163	0x3da7fcfe	0.08202551
164	0xbd9aaaa7	-0.075520806
165	0xbc90b22e	-0.017663088
166	0xbd2c0a61	-0.042002086
167	0x3db42901	0.087968834
168	0xbd6132b3	-0.05497999
169	0x3ed09ff0	0.40747023
170	0x3c8f071e	0.017459448
171	0x3c0775f8	0.008267872
172	0x3cce739d	0.025201613
173	0xbdf28aed	-0.11842904
174	0xbd3a2ca0	-0.045452714
175	0x3da1f6f0	0.07908428
176	0x3d577f47	0.052611616
177	0x3dff2c5b	0.12459632
178	0x3e3fad4e	0.18718454
179	0x3d43efb1	0.04783601
180	0x3dac7b90	0.08422005
181	0xbdc046d8	-0.093885124
182	0xbe0cfff0	-0.13769507
183	0x3e399459	0.18122996
184	0x3d5332fd	0.051562298
185	0xbdbe9294	-0.09305301
186	0x3d8bcb04	0.068258315
187	0x3dbb59c4	0.09147981
188	0x3b5ffcfc	0.003417789
189	0xbb66d2df	-0.0035220904
190	0x3e4a4130	0.1975143
191	0x3d7db62a	0.061941303
192	0x3d5b6492	0.05356271
193	0xbcab44a5	-0.020906756
194	0x3d8b198f	0.06791984
195	0x3e0add47	0.13560973
196	0x3e18f416	0.14936861
197	0x3dd8e34c	0.105902284
198	0xbeaa962a	-0.3331769
199	0x3d4a6fe1	0.049423102
200	0xbe977ece	-0.29588932
201	0x3e05c7c9	0.13064493
202	0xbdc13dbc	-0.09435603
203	0x3c37ef78	0.011226527
204	0x3a80ac05	0.0009816891
205	0x3d352913	0.044228625
206	0x3e30c8b2	0.17264059
207	0x3c8fd3ce	0.017557051
208	0xbd5baaee	-0.053629808
209	0x3e22c07e	0.15893742
210	0x3c86567d	0.016398663
211	0xbe1ff1b3	-0.15619545
212	0x3cf3c0ad	0.02975496
213	0xbe802a87	-0.25032446
214	0xbc638208	-0.013885982
215	0xbd94faa0	-0.072743654
216	0x3dc6e9cb	0.09712561
217	0xbba038f3	-0.0048896014
218	0x3db5d8e5	0.0887926
219	0xbe848c92	-0.25888497
220	0x3d1d2178	0.038361996
221	0x3d510787	0.05103257
222	0x3d4e6bc1	0.05039573
223	0xba347b9b	-0.0006884874
224	0xbec199f6	-0.37812775
225	0xbdee4734	-0.11634675
226	0x3e89a373	0.26882514
227	0xbdd1cd38	-0.102442205
228	0xbd668a25	-0.05628409
229	0x3d9c6e07	0.076381736
230	0xbe42e629	-0.19033112
231	0x3dbd3912	0.09239401
232	0xbe285d39	-0.16441812
233	0xbe0acc3b	-0.1355447
234	0x3e45a805	0.19302376
235	0xbdc38baa	-0.09548123
236	0xbdd8b892	-0.10582079
237	0xbe83d2dc	-0.2574681
238	0x3e0f9d84	0.14024931
239	0x3dbd431e	0.09241317
240	0x3d7e33c0	0.06206107
241	0x3da355f3	0.07975378
242	0x3d374bb5	0.044749934
243	0x3d4d3924	0.05010332
244	0x3e2e804e	0.17041132
245	0xbdedae16	-0.1160547
246	0xbe3b664c	-0.18300742
247	0x3e0c07e6	0.13674888
248	0xbeaa330d	-0.33242074
249	0x3e2e73d5	0.17036374
250	0xbe403a27	-0.18772183
251	0xbd211459	-0.039326046
252	0x3daf38f0	0.08555782
253	0x3dce8647	0.10084205
254	0x3c544cb2	0.012957739
255	0xbdafa94f	-0.08577215

bias_ih_l0 f4 [384]
0	0x3e846cc7	0.2586424
1	0x3cd6655d	0.02617138
2	0xbd7d4260	-0.06183088
3	0xbd203f8d	-0.039123107
4	0x3d3aea2e	0.045633487
5	0xbcbd67dc	-0.023120813
6	0xbcc87308	-0.024468914
7	0x3e58e96e	0.21182796
8	0x3b86db96	0.004115532
9	0x3d9b0c0e	0.075706586
10	0x3e39f747	0.18160735
11	0x3e000ddd	0.12505288
12	0x3dad9f74	0.08477679
13	0xbc356bdf	-0.011073082
14	0x3d11075d	0.035407413
15	0x3cdcd1b7	0.026955469
16	0xbd853aa5	-0.06505326
17	0x3dfc65b4	0.12324086
18	0x3d9ce2b3	0.07660427
19	0x3d09516f	0.033524927
20	0x3ddcde03	0.10784533
21	0x3d2af817	0.041740503
22	0x3e3fc6a6	0.18728122
23	0x3d236fe0	0.039901614
24	0x3d0ab373	0.033862542
25	0xbbb433bf	-0.0054993327
26	0xbced0743	-0.028934127
27	0x3cd4e7fd	0.025989527
28	0x3d83fc82	0.064446464
29	0x3dc89e1f	0.09795784
30	0x3d886071	0.0665902
31	0x3cf48529	0.029848652
32	0x3d40dcc3	0.047085535
33	0x3e0b1007	0.13580333
34	0x3e05cceb	0.13066451
35	0xbd388b1f	-0.04505455
36	0xbda7ae13	-0.08187499
37	0x3dca8ae0	0.098897696
38	0x3dcd5671	0.10026253
39	0x3e33d34d	0.17561074
40	0xbd501ea9	-0.05081049
41	0xbd8e69b8	-0.06953758
42	0xbdc42404	-0.09577182
43	0x3e374993	0.1789916
44	0x3d52e103	0.05148412
45	0x3c80b470	0.01571104
46	0x3e148423	0.14503531
47	0x3d1f0dd1	0.038831536
48	0x3e06aca2	0.13151792
49	0x3da8d237	0.0824322
50	0x3e8a9286	0.27064914
51	0x3ca2edd8	0.019888803
52	0x3e03e7b7	0.12881361
53	0x3e03b7f6	0.12863144
54	0x3ccf8d7a	0.025336016
55	0x3d6ce8a0	0.057839036
56	0x3e033627	0.12813626
57	0x3d7f4ec0	0.06233096
58	0x3db2e57f	0.08735179
59	0xbcdb6d5c	-0.026785545
60	0x3dce4f9d	0.10073779
61	0x3db9caca	0.09071882
62	0x3b2d1c6a	0.0026414641
63	0x3cc8a455	0.024492422
64	0xbd32b55f	-0.04363
65	0x3d7f52fd	0.062335003
66	0x3dbde1b8	0.09271568
67	0x3d96fe1c	0.07372686
68	0x3dc99823	0.09843471
69	0x3de8fb64	0.11376074
70	0x3d398442	0.045292147
71	0x3d4ea9b1	0.0504548
72	0x3c83cd3d	0.016089076
73	0x3e02d887	0.12777911
74	0x3dc4bae3	0.09605958
75	0xbc6d1a49	-0.014471599
76	0xbc09d790	-0.0084132105
77	0xbc638519	-0.013886713
78	0xbce573ac	-0.028009258
79	0x3cc04690	0.023471147
80	0x3e1bcc67	0.15214692
81	0x3c95c277	0.018281205
82	0x3ca670d2	0.020317469
83	0x3d8a68a9	0.067582436
84	0x3d280e92	0.04102952
85	0x3bb3dd10	0.005488999
86	0x3dcb7cf1	0.0993594
87	0x3d12d2da	0.035845615
88	0x3cf31bdc	0.02967637
89	0x3cd5d14b	0.026100775
90	0xbb3955b9	-0.0028279854
91	0xbd3d4a94	-0.0462137
92	0x3e080b5f	0.13285588
93	0x3d36bc97	0.044613447
94	0x3e2973a2	0.16548017
95	0x3de14dc2	0.11001159
96	0x3e0defb5	0.13860972
97	0x3db57801	0.088607796
98	0xbc21e6b2	-0.009881662
99	0x3dc0cdb8	0.09414238
100	0x3dce9edc	0.10088894
101	0x3d03b23a	0.032152392
102	0x3e8bfbb7	0.2734048
103	0x3e208267	0.15674745
104	0xbd78c943	-0.060738813
105	0x3d886dc7	0.06661563
106	0x3ddfedd3	0.10934033
107	0x3c3733c9	0.01118178
108	0x3d620d84	0.05518867
109	0x3e2d3066	0.16912994
110	0xbd6b7eb5	-0.057493884
111	0x3e1da4bc	0.15394872
112	0x3da52324	0.08063343
113	0x3d7c23c7	0.061557557
114	0x3e3e46de	0.18581721
115	0x3d608ee7	0.054823782
116	0x3c57b84e	0.0131665
117	0x3dca975a	0.09892149
118	0x3df79c96	0.12090413
119	0xbda80706	-0.082044646
120	0x3e085de6	0.1331707
121	0x3dbbc6cb	0.09168776
122	0x3d2b2003	0.041778576
123	0x3dfe16b0	0.12406671
124	0x3d10dcd7	0.03536686
125	0x3de6f659	0.11277456
126	0x3cb7fcbd	0.022459382
127	0x3e03e723	0.1288114
128	0xbdaa1429	-0.083046265
129	0xbd8895e0	-0.066692114
130	0xbe75ba1e	-0.2399678
131	0xbde01e55	-0.109432854
132	0xbdff040e	-0.12451945
133	0x3e2d737e	0.16938588
134	0xbe0f03be	-0.13966271
135	0xbe8c3c11	-0.27389577
136	0x3d90fd23	0.07079532
137	0xbc5b2708	-0.013376005
138	0xbe481671	-0.1953981
139	0xbdd5d463	-0.104409
140	0xbdbaf56f	-0.09128844
141	0x3e20efd6	0.1571649
142	0x3dbb3c7f	0.09142398
143	0xbebb263e	-0.36552614
144	0xbda03b25	-0.07823781
145	0xbd58b9df	-0.052911635
146	0xbe6ee9a2	-0.23331311
147	0x3decbbe4	0.11559275
148	0x3dca59ca	0.09880407
149	0x3d91f9a3	0.071276926
150	0xbe1e133b	-0.15437023
151	0xbdc2fbb9	-0.095206685
152	0xbe6d44a4	-0.23170716
153	0xbea17f0c	-0.31542242
154	0xbd58cf7c	-0.052932248
155	0xbdae0d5c	-0.08498642
156	0x3d2e9b6f	0.0426287
157	0xbe2fbf36	-0.17162785
158	0xbe97def8	-0.296623
159	0x3e080647	0.13283645
160	0xbd832b4e	-0.06404744
161	0xbd208a1a	-0.039194204
162	0xbbaa1d1c	-0.0051914584
163	0xbe9daaa7	-0.3079426
164	0xbdced2e9	-0.10098822
165	0xbdb8d65c	-0.09025261
166	0x3df20d37	0.11818927
167	0xbe2dfc4f	-0.1699078
168	0xbde9a03f	-0.11407518
169	0xbe93e3dd	-0.28884783
170	0xbdfcc239	-0.123417325
171	0xbe87f513	-0.26554164
172	0x3cd22789	0.025653617
173	0x3d465489	0.048420463
174	0xbeced891	-0.40399602
175	0xbc81a850	-0.015827328
176	0xbe850b7d	-0.25985327
177	0xb92baac7	-0.0001637145
178	0xbee88313	-0.45412502
179	0xbd7301ae	-0.059327774
180	0xbe377f04	-0.17919546
181	0xbd24b41e	-0.040210836
182	0xbd05aacc	-0.032633588
183	0xbdebdef7	-0.115171365
184	0x3db18bf3	0.08669271
185	0xbe9ca05b	-0.30591092
186	0xbc622386	-0.013802415
187	0xbe983c22	-0.29733378
188	0xbe445c4f	-0.19175838
189	0xbe3083f4	-0.17237836
190	0xbd1dca7e	-0.03852319
191	0xbe33ec65	-0.17570646
192	0xbc870f22	-0.016486708
193	0x3e49e4ff	0.19716261
194	0xbdd6fd9d	-0.10497592
195	0xbce0019b	-0.027344516
196	0xbe8bdf66	-0.27318877
197	0x3c9cc505	0.019136915
198	0xbd6b3d8e	-0.05743175
199	0xbe250372	-0.16114596
200	0x3d0acc18	0.033886045
201	0x3e4dcd01	0.20097734
202	0xbcc4f5bc	-0.024042957
203	0xbdeb8352	-0.11499657
204	0xbd8d6d24	-0.069055825
205	0xbe7d484e	-0.24734613
206	0xbc644361	-0.01393208
207	0xbdf8f6d8	-0.12156457
208	0xbcc0a1b1	-0.0235146
209	0x3e39bf9a	0.18139496
210	0x3e0403fc	0.12892145
211	0x3c179dd6	0.00925394
212	0xbbc4d2c4	-0.0060065705
213	0xbe627a3b	-0.2211694
214	0xbdd329b8	-0.103106916
215	0xbd83e3fb	-0.06439968
216	0xba12839a	-0.0005589068
217	0xbd1303c2	-0.035892256
218	0xbe20761e	-0.15670058
219	0x3ca2b2bf	0.019860623
220	0xbe1eada7	-0.1549593
221	0xbeb5f57e	-0.35538858
222	0xbe4dca3d	-0.20096679
223	0x3cbfb982	0.023403887
224	0x3dd27e4e	0.10277997
225	0xbe47e972	-0.19522646
226	0xbe3cee2d	-0.18450232
227	0xbe2875e3	-0.1645122
228	0xbf024e17	-0.50900406
229	0xbc4a9c89	-0.012366422
230	0x3da0f42e	0.078590736
231	0x3cc302c2	0.023805026
232	0xbea8d528	-0.32975125
233	0x3c6e40ee	0.014541848
234	0x3e21704f	0.15765499
235	0xbd8a5953	-0.067553185
236	0x3de92fa1	0.113860376
237	0x3cb5330a	0.022119064
238	0xbe0fc088	-0.14038289
239	0xbdc46fc2	-0.095916286
240	0xbeb71a74	-0.3576237
241	0x3ea7f491	0.32803777
242	0x3cabb66a	0.020961005
243	0x3e29459a	0.16530457
244	0xbe6253a4	-0.22102219
245	0xbe9c7723	-0.30559644
246	0x3de60eb5	0.11233274
247	0x3dd3c0a8	0.10339481
248	0x3cdfe939	0.027332889
249	0xbe733d82	-0.23753932
250	0x3e105bbd	0.14097495
251	0xbeab2be3	-0.3343192
252	0xbdc3431d	-0.09534285
253	0xbe8aad56	-0.2708537
254	0xbe04ed3f	-0.12981127
255	0xbe001530	-0.12508082

bias_hh_l0 f4 [384]
0	0x3e014d9e	0.12627265
1	0x3dc1400c	0.09436044
2	0xbd4e1079	-0.05030868
3	0x3cbe5508	0.023233905
4	0xbd1aede8	-0.03782454
5	0x3d961063	0.07327344
6	0xbd182942	-0.03714872
7	0x3e65010e	0.22363684
8	0x3dc6f361	0.097143896
9	0x3e218f23	0.15777259
10	0x3e1b0e65	0.1514221
11	0xbc5a8b98	-0.013338946
12	0xbd181524	-0.037129536
13	0x3ccda288	0.025101915
14	0x3db16856	0.086624786
15	0x3d7411b2	0.059587188
16	0xbd4aa58a	-0.049474277
17	0x3d8df844	0.069321185
18	0x3df84dd6	0.12124221
19	0x3dc5e4b8	0.09662765
20	0x3e34490e	0.17605993
21	0x3d6e17ab	0.05812804
22	0x3ddc4937	0.10756152
23	0x3db4538f	0.08805
24	0x3dc52cf2	0.09627713
25	0x3d13195d	0.03591286
26	0x3db2e541	0.08735133
27	0x3dcc5d10	0.09978688
28	0x3d65242d	0.055942703
29	0x3df16c71	0.11788262
30	0x3d7ad2e1	0.061236266
31	0x3dc873aa	0.09787686
32	0xbc39ecb4	-0.011347938
33	0x3db8fb3b	0.090322934
34	0x3e21def1	0.15807702
35	0xbd7862ba	-0.060641028
36	0xbc579af0	-0.013159499
37	0x3dcf0806	0.10108952
38	0x3d21dd97	0.039517965
39	0x3e04cc64	0.12968594
40	0xbd081065	-0.03321876
41	0xbd3f6fad	-0.04673736
42	0xbd39c122	-0.0453502
43	0x3dbdce80	0.092679024
44	0xbd8f6aaa	-0.070027664
45	0x3e2b0f90	0.16705155
46	0x3d92d362	0.07169224
47	0x3e0d2309	0.13782896
48	0x3dd90a09	0.10597617
49	0x3dd204a9	0.10254795
50	0x3e71f06a	0.23626867
51	0x3c76b15f	0.015056937
52	0x3d266b5e	0.040629737
53	0x3d278fba	0.040908553
54	0xbdf5cf62	-0.12002446
55	0x3d4a0294	0.049318865
56	0x3e548bf4	0.20756513
57	0x3d82e6f9	0.06391711
58	0x3dfd8297	0.12378424
59	0xba2cacb4	-0.0006587014
60	0x3de1af78	0.11019796
61	0x3d108a23	0.035287987
62	0x3d589c93	0.052883696
63	0xbd54b54c	-0.05193071
64	0x3d657887	0.056023147
65	0x3d027f09	0.03185943
66	0x3bdc42d4	0.0067218337
67	0x3d386fe7	0.045028593
68	0x3d922a49	0.071369715
69	0x3c084bba	0.008318836
70	0xbc334c11	-0.010943429
71	0xbd503bea	-0.05083839
72	0x3e0c6c9e	0.13713309
73	0xbcdec41f	-0.027193127
74	0x3daa9fc0	0.08331251
75	0x3d82d4d1	0.06388248
76	0xbd129992	-0.035790987
77	0xbde358b2	-0.11100902
78	0x3d682151	0.056672398
79	0x3db3aa13	0.087726735
80	0x3e1c28e3	0.15249972
81	0x3d8a6790	0.06758034
82	0x3da0cddf	0.07851767
83	0xbcb5c083	-0.022186523
84	0x3d3d9650	0.046285927
85	0x3da3f8b0	0.08006418
86	0x3dc15a15	0.0944101
87	0x3c953f75	0.018218735
88	0x3c374c1c	0.0111875795
89	0x3dddc672	0.10828866
90	0xbd7b91ea	-0.06141845
91	0x3db13c44	0.08654073
92	0x3df5e309	0.12006194
93	0x3dfa34d6	0.12217109
94	0x3e177e3f	0.14794253
95	0x3cb38ec1	0.021918656
96	0x3e22e419	0.15907325
97	0xbd571fac	-0.05252044
98	0x3cfd0a80	0.030888796
99	0x3b9ccb0b	0.004784947
100	0xbc0c8dac	-0.008578699
101	0x3dbc2085	0.0918589
102	0x3e367eda	0.17821828
103	0x3d19a2fe	0.037508957
104	0x3b919ea9	0.0044439626
105	0xbd9db788	-0.077010214
106	0x3d5b2607	0.053503063
107	0xbc0fa826	-0.008768117
108	0x3dc6dea9	0.09710438
109	0x3d80bb6b	0.06285747
110	0x3d7885cc	0.060674474
111	0x3e1121af	0.14173006
112	0x3da7d18e	0.08194266
113	0xbd50969e	-0.05092489
114	0x3e64f73e	0.2235994
115	0x3dcf70e7	0.10128956
116	0xbc9fad0e	-0.019491699
117	0x3d98b114	0.0745565
118	0x3dfe4ecd	0.12417374
119	0x3d6bd29d	0.057573903
120	0x3cfd7db7	0.030943735
121	0x3ded9497	0.11600607
122	0x3dddbc92	0.108269826
123	0x3e20415a	0.1564993
124	0x3da6f6e4	0.081525594
125	0x3dc5fe51	0.09667648
126	0x3d423b2a	0.047419704
127	0x3cf1da4a	0.029523034
128	0xbdf2a688	-0.118481696
129	0xbcd4059a	-0.025881577
130	0xbe98d1db	-0.29847607
131	0xbdd95e41	-0.10613681
132	0xbd1b259c	-0.037877664
133	0x3d734abd	0.059397448
134	0xbd0e7882	-0.034782894
135	0xbe8e231e	-0.27761167
136	0x3daaa25f	0.08331751
137	0x3c020b6f	0.007937296
138	0xbe283711	-0.16427256
139	0xbdf42202	-0.11920549
140	0xbc871f9e	-0.016494568
141	0x3d6d7316	0.057971083
142	0x3d85c07e	0.065308556
143	0xbeae20e0	-0.34009457
144	0xbe355fbd	-0.17712303
145	0xbd71bddb	-0.05901895
146	0xbe9d05a7	-0.30668375
147	0x3d6d6d2d	0.057965446
148	0x3e04c280	0.12964821
149	0xbccb6851	-0.024830015
150	0xba8fddfa	-0.0010976188
151	0xbdbf5803	-0.09342959
152	0xbe6b40ff	-0.22974013
153	0xbe8e33b0	-0.2777381
154	0xbbc46368	-0.0059932955
155	0xbd0ce148	-0.034394532
156	0xbc7d33e6	-0.015454268
157	0xbe254388	-0.16139042
158	0xbe81de39	-0.25364855
159	0x3b9be06f	0.004756979
160	0xbd5aadb0	-0.053388298
161	0xbc5cd86d	-0.013479334
162	0x3da59970	0.080859065
163	0xbe5f1353	-0.21784715
164	0x3cd5680a	0.026050586
165	0xbcea156c	-0.028574668
166	0x3d30dc7f	0.04317903
167	0xbe6c4ab3	-0.2307537
168	0xbd9566f8	-0.0729503
169	0xbe6a8e3d	-0.22905822
170	0xbd0ef57d	-0.034902085
171	0xbe11b278	-0.14228237
172	0x3d5f06ad	0.054449726
173	0x3dcc3fd9	0.099731155
174	0xbebf5f52	-0.3737741
175	0x3d85831c	0.06519148
176	0xbeb78c80	-0.3584938
177	0x3db05638	0.08610195
178	0xbed45081	-0.4146767
179	0x3c81f38c	0.015863203
180	0xbe463b64	-0.19358593
181	0x3d1a7568	0.037709624
182	0xbdce04cf	-0.10059511
183	0xbddfe31a	-0.10931988
184	0x3e1d6b60	0.15372992
185	0xbeafe2f7	-0.34352848
186	0xbc3e68d3	-0.011621672
187	0xbe5da110	-0.21643472
188	0xbe4d9ff9	-0.20080556
189	0xbe20bc22	-0.15696767
190	0xbb5e0e4d	-0.0033883036
191	0xbdb11797	-0.086470775
192	0x3c7299a3	0.014807138
193	0x3e0ef051	0.13958861
194	0xbe5890e3	-0.2114902
195	0x3d9d459d	0.07679293
196	0xbebb79a0	-0.3661623
197	0x3c9345e5	0.017977664
198	0xbc914169	-0.017731385
199	0xbe5030d4	-0.20331126
200	0x3e38a1d3	0.18030481
201	0x3e3a2175	0.18176825
202	0xbd64af40	-0.055831194
203	0xbba94d0f	-0.005166657
204	0xbd2a2f80	-0.041549206
205	0xbda43a96	-0.08018987
206	0x3bb9af39	0.00566664
207	0xbe2e720f	-0.17035697
208	0xbd67b6da	-0.056570865
209	0x3e71c4ac	0.2361018
210	0x3d76e1c6	0.060273908
211	0x3ca99713	0.02070192
212	0xbddbfce8	-0.107415974
213	0xbe50750a	-0.20357147
214	0xbcd97cde	-0.0265488
215	0xbe1da869	-0.15396275
216	0x3e06fec9	0.1318313
217	0xbd9f68cb	-0.077836595
218	0xbe07d482	-0.13264659
219	0x3df7aa39	0.12093014
220	0xbda2c516	-0.079477474
221	0xbeb7cff8	-0.35900855
222	0xbe8ebdea	-0.27879268
223	0x39f4316e	0.00046576135
224	0x3e53cb31	0.2068298
225	0xbe8e5785	-0.27801147
226	0xbe8f0604	-0.27934277
227	0xbe99b1fa	-0.30018598
228	0xbf055012	-0.520753
229	0x3ddeeb4b	0.10884722
230	0x3e40b68c	0.18819636
231	0xbd8cd3bb	-0.06876322
232	0xbeb95282	-0.3619576
233	0x3db4e691	0.088330396
234	0x3e5d83c9	0.21632303
235	0xbd9ec32f	-0.07752072
236	0x3ddae187	0.10687547
237	0x3d9ed6d6	0.077558205
238	0xbe03815a	-0.12842312
239	0xbdf2a113	-0.11847129
240	0xbec31da4	-0.38108552
241	0x3eac5bb1	0.33663705
242	0x3d594185	0.053041
243	0x3e3f1ca2	0.18663266
244	0xbe528040	-0.20556736
245	0xbe8fb8ba	-0.28070623
246	0x3e776b9a	0.2416214
247	0x3cb639e5	0.022244403
248	0x3dcdf712	0.100568905
249	0xbdec56f4	-0.115400225
250	0x3e2597a0	0.16171122
251	0xbea1a8c5	-0.31574073
252	0xbe1e41b1	-0.15454747
253	0xbe985fa7	-0.29760477
254	0xbe4e8bd9	-0.20170535
255	0xbdffd551	-0.12491859

weight f4 [16, 128]
0	0x3e2ff56d	0.17183466
1	0xbd81693d	-0.06318901
2	0xbe105f59	-0.14098872
3	0x3d91e11e	0.07123016
4	0x3e337073	0.17523365
5	0x3e581e7e	0.21105382
6	0xbe0e82c8	-0.13917077
7	0xbe02d2ba	-0.12775698
8	0x3e21230a	0.15736023
9	0x3df0eedf	0.11764311
10	0xbf05446c	-0.5205753
11	0xbe596fb6	-0.2123402
12	0x3e4110c3	0.1885405
13	0xbe95bb62	-0.29244524
14	0x3de41946	0.11137633
15	0x3c076d1b	0.008265759
16	0xbe5111a6	-0.20416889
17	0x3cade90b	0.021229288
18	0xbe44d01b	-0.19220011
19	0x3ece000a	0.40234405
20	0x3e6f315a	0.2335867
21	0xbd00ead0	-0.031473935
22	0xba7cad4b	-0.000963886
23	0xbd550fc4	-0.05201699
24	0xbeb0a62e	-0.34501785
25	0xbdf3130d	-0.11868868
26	0xbdd36030	-0.10321081
27	0xbecba627	-0.39775202
28	0xbe647496	-0.22310099
29	0xbd4e8212	-0.050417013
30	0x3dd0ff4a	0.102049425
31	0x3e185c1e	0.1487889
32	0x3db85993	0.0900146
33	0x3e81bc0f	0.2533879
34	0x3e35a71c	0.17739528
35	0x3df15d8c	0.11785421
36	0xbd86bebb	-0.06579348
37	0xbe8e39c6	-0.27778453
38	0xbe0ad078	-0.13556087
39	0x3e17fdfc	0.14842981
40	0x3dec87b2	0.11549319
41	0x3e5fc126	0.21851024
42	0xbd6e03a8	-0.058108956
43	0xbe45e659	-0.19326152
44	0x3e90dcb7	0.28293392
45	0x3c8cb3ed	0.017175639
46	0xbd5fb9e1	-0.054620627
47	0x3e4748a1	0.194613
48	0xbdb29202	-0.08719255
49	0xba4d51ca	-0.0007832317
50	0xbe97bd04	-0.29636395
51	0x3e2e6869	0.17032017
52	0xbdf6b31d	-0.12045882
53	0x3e2f564d	0.17122765
54	0x3ccd5b5c	0.025067978
55	0x3c1cc28b	0.009567867
56	0x3d4d4d02	0.05012227
57	0xbe4f5dad	-0.20250578
58	0x3e46b8b6	0.19406399
59	0xbe87854d	-0.26468888
60	0xbdb9a1e7	-0.090640835
61	0x3e909f2a	0.28246433
62	0xbe2e20ea	-0.17004743
63	0x3dc79139	0.09744496
64	0x3eb3a37e	0.35085672
65	0x3e60f87f	0.21969794
66	0x3c96fd4e	0.018431332
67	0x3e4a0969	0.19730152
68	0xbe183bd2	-0.1486657
69	0x3c9e6862	0.019336883
70	0xbcbfb742	-0.023402814
71	0x3e0175e4	0.12642628
72	0xbe289781	-0.16464044
73	0xbdd24294	-0.10266605
74	0xbe1ceb79	-0.153242
75	0xbeb3079c	-0.34966743
76	0xbd7b1959	-0.06130347
77	0xbe52f0c1	-0.20599653
78	0xbe8348e5	-0.25641552
79	0xbd9ec2bc	-0.077519864
80	0xbde85670	-0.11344612
81	0xbee9b5fa	-0.4564665
82	0x3edacf01	0.42736056
83	0x3f195be8	0.5990586
84	0x3e1f4dcc	0.15557021
85	0x3ee0e828	0.4392712
86	0x3ecad931	0.3961883
87	0x3df2fe41	0.11864901
88	0x3edda827	0.43292353
89	0xbe9b2d5f	-0.30308053
90	0x3eaa05cb	0.33207545
91	0x3e048dd0	0.12944722
92	0xbdc3c2fd	-0.095586754
93	0xbe27fe05	-0.16405495
94	0xbdedf701	-0.11619378
95	0x3e74edf7	0.23918901
96	0xbe6bc625	-0.23024805
97	0x3d577a34	0.052606776
98	0xbe3c706c	-0.1840226
99	0x3daf4330	0.08557737
100	0x3df9bbeb	0.12194046
101	0xbee79a86	-0.4523508
102	0x3d639f56	0.055571876
103	0x3e20093d	0.15628524
104	0xbde848ea	-0.11342032
105	0x3d162cb6	0.036663733
106	0x3dd5bbe4	0.10436228
107	0xbce9b713	-0.02852968
108	0x3e563ce8	0.20921671
109	0x3d946c3e	0.07247208
110	0x3d88e467	0.06684189
111	0xbe144af9	-0.14481725
112	0xbe4fbe5c	-0.2028746
113	0xbe9eeae2	-0.31038576
114	0x3ea43adb	0.32076153
115	0x3e947588	0.2899592
116	0x3d90c402	0.070686355
117	0xbe296c6c	-0.16545266
118	0xbdd2a4a8	-0.10285312
119	0x3e0a8b3b	0.13529675
120	0xbd3b9564	-0.045796767
121	0x3e9a4e0e	0.30137676
122	0xbe4950bd	-0.19659705
123	0xbeb3ef6f	-0.3514361
124	0x3e805be3	0.25070104
125	0x3ec67c64	0.38766778
126	0xbe0104a3	-0.12599425
127	0xbe0416a1	-0.12899257
128	0x3dcaf391	0.09909738
129	0xbda7c133	-0.08191147
130	0xbe9c2334	-0.30495608
131	0xbe07ba62	-0.13254693
132	0xbe032212	-0.12805966
133	0x3e234ec1	0.15948011
134	0x3e3448cf	0.176059
135	0x3e061e69	0.13097538
136	0x3c37f656	0.011228165
137	0xbe6e27d1	-0.23257376
138	0x3e211141	0.15729238
139	0x3e48ff3e	0.19628617
140	0xbe75fccf	-0.2402222
141	0xbdcf76c4	-0.101300746
142	0xbdb2e0cb	-0.08734282
143	0x3e9e96a4	0.30974305
144	0x3e517622	0.2045522
145	0x3e8334e9	0.25626305
146	0xbe1a4ff4	-0.15069562
147	0xbe0fe9b6	-0.14053997
148	0x3e8b111b	0.27161488
149	0xbdf0cd85	-0.1175795
150	0x3e67bc1a	0.22630349
151	0xbd8adbd6	-0.06780212
152	0xbe51685a	-0.20449963
153	0x3e85028d	0.2597851
154	0x3e3ba153	0.18323259
155	0x3de5be02	0.11217882
156	0x3e525b8e	0.20542738
157	0xbd318753	-0.043341946
158	0x3ea2d184	0.31800473
159	0x3e0d8718	0.13821065
160	0xbbc721d1	-0.0060770293
161	0x3e0ac33c	0.13551039
162	0xbdce9337	-0.10086673
163	0x3d5ade23	0.053434502
164	0xbe9324f9	-0.28739145
165	0x3dba38d3	0.090928696
166	0x3de4e47a	0.11176391
167	0x3e102739	0.14077462
168	0xbe2a4f09	-0.16631712
169	0x3ec88b6d	0.39168873
170	0xbdb7348b	-0.08945569
171	0x3e7e55c9	0.24837412
172	0x3d7462d2	0.059664555
173	0x3e54a976	0.20767769
174	0xbe0b0180	-0.13574791
175	0xbe540ff0	-0.20709205
176	0x3e1a9adc	0.15098137
177	0x3e621f46	0.22082242
178	0x3ed8094c	0.42194593
179	0xbd5a476f	-0.05329078
180	0xbe06d7fe	-0.13168332
181	0x3d54a57b	0.051915627
182	0x3ded7e20	0.11596322
183	0x3e9f0713	0.31060085
184	0x3df5579a	0.11979599
185	0x3ea5aca3	0.32358274
186	0x3e0a87e9	0.13528408
187	0xbe06fed5	-0.13183148
188	0x3c067f53	0.008209067
189	0xbdf472cc	-0.11935958
190	0x3df9ec2b	0.122032486
191	0xbe1dfd0d	-0.15428562
192	0xbd95530d	-0.07291231
193	0xbe2dae86	-0.16961107
194	0x3e7d039e	0.24708411
195	0xbdb88395	-0.09009472
196	0xbddfb0d5	-0.109224
197	0xbd9b1c26	-0.07573728
198	0xbbf0ef28	-0.0073527284
199	0xbebec133	-0.37256774
200	0xbc77868b	-0.015107761
201	0xbe931f7d	-0.2873496
202	0x3e033136	0.12811741
203	0x3e1d2e81	0.15349771
204	0xbd99d0fb	-0.07510563
205	0x3e2b41bf	0.16724299
206	0x3dfe06e8	0.12403661
207	0x3ce27c5c	0.02764719
208	0x3c4f745b	0.012662019
209	0x3e6d0b66	0.2314888
210	0x3dbc57be	0.09196423
211	0x3e3796d8	0.17928636
212	0xbe2b4804	-0.1672669
213	0xbe31c942	-0.1736193
214	0xbd88774e	-0.066633806
215	0xbd93f26a	-0.07223971
216	0xbdde0704	-0.10841182
217	0x3e65f8af	0.22458147
218	0x3e9a90b7	0.30188534
219	0x3eaf9574	0.3429371
220	0x3e149dda	0.1451334
221	0xbde18367	-0.11011391
222	0x3d2faccc	0.0428894
223	0x3ddd9951	0.108202584
224	0x3d59c13c	0.0531628
225	0x3eebbcc5	0.46042457
226	0x3df686c9	0.12037427
227	0xbd41d8a2	-0.047325738
228	0xbdede3c4	-0.116157085
229	0x3e47e11c	0.19519466
230	0xbe0edb2b	-0.13950793
231	0xbde4cbeb	-0.11171707
232	0x3d24d1f0	0.040239275
233	0x3d879b81	0.06621457
234	0x3e5d41e8	0.21607172
235	0x3e05f5ef	0.13082097
236	0xbe90b201	-0.28260806
237	0x3e1836e2	0.14864686
238	0xbd836818	-0.06416339
239	0x3e2932df	0.16523312
240	0x3e1d0d17	0.15337025
241	0x3e262f83	0.16229062
242	0xbca70fcf	-0.02039328
243	0xbd830d71	-0.06399048
244	0x3e908a14	0.28230345
245	0x3cbca8e8	0.02302976
246	0x3e0cda75	0.1375521
247	0xbd8b35c1	-0.06797362
248	0xbe98db1d	-0.2985467
249	0xbe236d2b	-0.15959613
250	0x3db85877	0.09001248
251	0x3d7301f2	0.059328027
252	0xbddfbb0b	-0.109243475
253	0xbe16f976	-0.147436
254	0xbda9848d	-0.08277235
255	0xbedcb51c	-0.43106925

bias f4 [16]
0	0xbef9fe5a	-0.48826867
1	0xbbf2cd0d	-0.007409698
2	0x3c91a399	0.017778205
3	0x3d5d8c47	0.054088857
4	0xbd7e642d	-0.062107254
5	0xbd017b62	-0.031611808
6	0xbcc5e1f8	-0.024155602
7	0xbd755413	-0.059894633
8	0x3d571ad8	0.052515835
9	0xbc064d4f	-0.008197143
10	0xbdcb123f	-0.099155895
11	0xbe825cf0	-0.2546153
12	0x3c40c9f2	0.0117668975
13	0xbde38fbf	-0.11111402
14	0xbd96894b	-0.07350405
15	0x3a5f2e8c	0.0008513711
