checkpoints2/ln_encoder.pth (torch_old, 308661 bytes, 4 tensors)

weight_ih_l0 f4 [384, 64]
0	0xbc213136	-0.009838393
1	0x3d00e4d5	0.03146823
2	0xbacc90be	-0.0015607101
3	0x3d8987ce	0.06715356
4	0x3b810325	0.0039371424
5	0x3dbc4d8e	0.0919448
6	0x3d46f413	0.04857261
7	0xbd38a8a4	-0.045082703
8	0xbdc92805	-0.09822086
9	0x3d6c68a0	0.057716966
10	0x3d25b71c	0.04045783
11	0x3d062fc6	0.032760404
12	0x3dc04a53	0.09389176
13	0x3a3b5352	0.00071458996
14	0x3dd1e55c	0.10248825
15	0xbdbc1921	-0.091844805
16	0xbda510e1	-0.0805986
17	0x3e3e0f28	0.18560469
18	0x3e1e9fcf	0.1549065
19	0x3d6d7ca7	0.057980206
20	0xbd894912	-0.0670339
21	0xbe2c93f8	-0.1685332
22	0xbdc1197a	-0.094286874
23	0x3ca78a82	0.020451788
24	0xbde251ae	-0.110507354
25	0x3dc24333	0.094854735
26	0x3d042d64	0.03226985
27	0x3cbba694	0.02290658
28	0xbe838471	-0.25686982
29	0x3d06926e	0.03285449
30	0xbc45dfdb	-0.012077297
31	0xbe145dda	-0.14488927
32	0xbe1a19de	-0.1504893
33	0x3d2c1558	0.042012542
34	0xbde0a0c6	-0.10968165
35	0x3d9cab65	0.076498784
36	0x3e13aee7	0.14422189
37	0xbd131b69	-0.035914812
38	0x3e1d277a	0.1534709
39	0x3dcedd70	0.101008296
40	0x3da613d7	0.08109253
41	0x3db7040e	0.0893632
42	0xbc5146af	-0.0127732
43	0x3d929a4f	0.07158338
44	0xbc0569d5	-0.008142908
45	0xbc93552e	-0.017984953
46	0x3d9b0ae1	0.07570434
47	0xbdcc40b3	-0.09973278
48	0xbde223e4	-0.11042002
49	0x3db179b8	0.08665794
50	0x3df33d4d	0.118769266
51	0xbc978f85	-0.018501053
52	0xbe56e62e	-0.20986244
53	0xbdb6880a	-0.08912666
54	0xbcc8a3c9	-0.024492161
55	0x3db07ffc	0.08618161
56	0xbd49de52	-0.049284287
57	0x3e00fd6c	0.12596673
58	0xbca453ff	-0.020059584
59	0xbdad1514	-0.08451286
60	0xbd47b692	-0.048758097
61	0x3dea3a6d	0.11436925
62	0x3c7c7029	0.0154076
63	0xbe1532f2	-0.14570215
64	0xbcd3fb5e	-0.025876697
65	0xbe023ec0	-0.1271925
66	0xbdef0c9f	-0.11672329
67	0xbbf12d5a	-0.0073601427
68	0xbbee1a59	-0.0072663245
69	0xbe157d43	-0.14598565
70	0xbe30fc5b	-0.17283766
71	0xbe0b0cf4	-0.1357916
72	0x3ceaa34f	0.028642325
73	0xbd649509	-0.055806194
74	0x3c0a28d0	0.008432582
75	0xbd8d66ff	-0.069044106
76	0xbc989c25	-0.018629143
77	0x3c16c128	0.0092013255
78	0x3dc88137	0.09790271
79	0xbd9d52e2	-0.07681824
80	0x3d049864	0.032371894
81	0xbd91dbd6	-0.071220085
82	0x3d87255f	0.06598925
83	0x3d141b6c	0.036158964
84	0xbd306c5f	-0.0430721
85	0xbd23026c	-0.03979723
86	0xbdbe45fa	-0.09290691
87	0xbe62e33b	-0.22156994
88	0x3cfd0f69	0.030891137
89	0xbd57d303	-0.05269147
90	0x3d1ffc3b	0.039058905
91	0x3db5161a	0.08842106
92	0x3e0411c3	0.128974
93	0xbc29a7ef	-0.01035498
94	0x3c1bca59	0.009508693
95	0xbb119ed7	-0.002221992
96	0xbd6c7b2a	-0.057734646
97	0xbd226ac0	-0.039652586
98	0xbdf37f5b	-0.118895255
99	0xbe0e6adf	-0.13907956
100	0x3cd79d78	0.026320204
101	0xbd703e2e	-0.05865305
102	0xbdedae32	-0.11605491
103	0xbd2bcd08	-0.04194358
104	0xbe0cec91	-0.13762118
105	0xbd88afe9	-0.06674177
106	0x3e2ef6b9	0.17086305
107	0x3e071e31	0.13195111
108	0x3d64cb0f	0.055857714
109	0x3c675d58	0.014121376
110	0x3d9163db	0.07099124
111	0xbd73eb44	-0.05955054
112	0x3cae306f	0.02126333
113	0xbe045a70	-0.12925124
114	0xbc50891f	-0.012728005
115	0xbd2ad874	-0.041710332
116	0xbcc6b746	-0.024257313
117	0xbd82a4e1	-0.063791044
118	0x3db0f1db	0.0863988
119	0xbe2aad7d	-0.16667743
120	0xbb4d3c2b	-0.003131638
121	0xbdf8ff31	-0.12158049
122	0xbd69c755	-0.057074863
123	0xbe0f57ca	-0.13998333
124	0x3df4562e	0.119305
125	0x3dae7b27	0.08519583
126	0xbb833a35	-0.0040047416
127	0x3c4eca1d	0.01262143
128	0xbd2976da	-0.04137311
129	0x3dbe4d18	0.09292048
130	0xbcb96569	-0.022631364
131	0x3b927c37	0.004470374
132	0xbcca8497	-0.024721427
133	0xbe2248d4	-0.15848094
134	0x3c368b94	0.011141676
135	0xbe0ffc4c	-0.14061087
136	0xbdc59231	-0.096470244
137	0xbd974ef5	-0.07388107
138	0x3c6f0558	0.014588676
139	0x3e03fc23	0.12889151
140	0x3ccd679a	0.025073815
141	0xbca48379	-0.020082222
142	0x3cbed34d	0.023294115
143	0x3d9da784	0.07697967
144	0x3d5d4376	0.054019414
145	0x3aed4b62	0.0018104131
146	0xbe920407	-0.28518698
147	0xbe135b35	-0.14390261
148	0xbdba0363	-0.09082677
149	0x3d488a88	0.04896024
150	0xbcf48a39	-0.029851066
151	0xbde261f4	-0.11053839
152	0xbdbbc14f	-0.0916773
153	0x3d8692f3	0.06570997
154	0x3e0a73a0	0.1352067
155	0xbd46bf99	-0.048522566
156	0xbe40dad0	-0.1883347
157	0xbc51eb41	-0.012812437
158	0xbbfb65f0	-0.007672064
159	0x3e40be11	0.18822505
160	0xbe2d277d	-0.16909595
161	0xbcac3ed8	-0.02102606
162	0x3da9d812	0.08293165
163	0x3c4b1095	0.01239409
164	0xbda3196c	-0.07963833
165	0xbe038f23	-0.12847571
166	0x3c9aac94	0.01888112
167	0xbd48186b	-0.04885141
168	0xbdb907ab	-0.09034666
169	0xbbe0bce3	-0.0068584546
170	0x3c9ef51e	0.01940399
171	0x3d22a384	0.039706722
172	0x3df8b023	0.121429704
173	0x3c4b755d	0.012418118
174	0xbd01756e	-0.03160613
175	0x3dbd82bb	0.092534505
176	0x3db5637b	0.08856865
177	0xbd7e3266	-0.062059782
178	0x3d39f42b	0.045398872
179	0xbd2164db	-0.039402824
180	0xbcaa2f93	-0.020774638
181	0x3c567606	0.013089662
182	0x3d02bb4a	0.031916894
183	0x3caba144	0.02095092
184	0x3db9fb20	0.090811014
185	0xbaaa1409	-0.0012975942
186	0x3c75d31c	0.015003946
187	0x3e2d06fe	0.16897199
188	0xbd817e56	-0.06322925
189	0xbdad8caf	-0.08474099
190	0x3d01509f	0.031571027
191	0x3e44c2eb	0.1921498
192	0xbd86dd97	-0.06585234
193	0xbdbb0f91	-0.091338284
194	0x3d575909	0.052575145
195	0x3ccec7ec	0.025241815
196	0xbc054b3c	-0.008135613
197	0x3e126610	0.14296746
198	0x3e2515ea	0.16121641
199	0x3e2276a3	0.15865569
200	0x3cd99ad8	0.026563093
201	0x3e3606d7	0.17776047
202	0x3dbebf3f	0.09313821
203	0x3ada7b08	0.0016668746
204	0x3e2e9c52	0.17051819
205	0xbd846af1	-0.0646571
206	0x3d3a37c5	0.045463342
207	0xbdb445ac	-0.08802351
208	0x3b18e772	0.0023331312
209	0xbc4649ff	-0.012102603
210	0x3d767c50	0.060177147
211	0x3d5fc04b	0.054626744
212	0x3cc54a26	0.024083208
213	0xbd4ac17c	-0.049500927
214	0xbcbdc14d	-0.023163462
215	0xbd389c4c	-0.04507093
216	0x3dfe75ec	0.124248356
217	0xbcdca7d5	-0.026935497
218	0xbdc84177	-0.097781114
219	0xbe8ec2d4	-0.27883017
220	0x3d5566bd	0.052099932
221	0x3e0974f4	0.1342352
222	0xbe3300a1	-0.17480709
223	0xbddcd508	-0.1078282
224	0xbc3f31a8	-0.011669554
225	0x3d307f51	0.04309017
226	0xbd66f7ed	-0.056388784
227	0xbd466978	-0.048440427
228	0x3dec05fc	0.11524579
229	0x3d59d746	0.053183816
230	0x3de85fb0	0.11346376
231	0x3d4aeb7a	0.049540974
232	0x3da17658	0.078839004
233	0x3e3705a5	0.17873247
234	0xbccf0403	-0.025270468
235	0xbca79a6d	-0.020459378
236	0x3d896298	0.067082584
237	0xbe343798	-0.17599332
238	0x3d60e903	0.054909717
239	0xbd84c81c	-0.0648348
240	0xbb87fe0c	-0.004150158
241	0xbc1d3ca0	-0.009596974
242	0x3e0d7097	0.13812481
243	0x3d88d613	0.066814564
244	0x3d3e60dc	0.04647909
245	0x3d7b6653	0.06137688
246	0xbe30beb1	-0.17260243
247	0xbaee82df	-0.0018196962
248	0x3e94daf8	0.2907331
249	0x3d8c7121	0.06857515
250	0xbd2d73b8	-0.042346686
251	0xbdb8123e	-0.089878544
252	0x3dc6fc10	0.09716046
253	0x3bf71049	0.007539783
254	0xbd8e9fcd	-0.06964073
255	0x3ca6bb12	0.020352874

weight_hh_l0 f4 [384, 128]
0	0xbe1a5b42	-0.15073875
1	0x3dbae998	0.09126586
2	0x3d7d7a40	0.061884165
3	0x3d834a9b	0.06410714
4	0xbdbf903f	-0.09353685
5	0xbd173f31	-0.0369255
6	0x3d282916	0.041054808
7	0xbc9e1d69	-0.019301133
8	0x3d3589d0	0.04432088
9	0xbe2a8e68	-0.16655886
10	0x3d8922ce	0.066960916
11	0x3decee45	0.11568884
12	0xbd960b73	-0.073264025
13	0x3c10d312	0.008839386
14	0x3def2f9e	0.11679004
15	0xbd0196bc	-0.031637892
16	0x3d62bf98	0.0553585
17	0x3d87f873	0.06639185
18	0x3ca37e1d	0.019957596
19	0x3dccaa32	0.099934
20	0xbdc2a4c2	-0.09504081
21	0x3ddea626	0.10871534
22	0xbb91a1fb	-0.0044443584
23	0xbd0e9455	-0.03480943
24	0xbc2f00b5	-0.010681321
25	0x3b0fd6f9	0.0021948202
26	0x3d474e41	0.048658613
27	0xbd15d4dc	-0.03657995
28	0x3dd0d77b	0.1019735
29	0x3d88eaed	0.066854335
30	0x3d60e328	0.054904133
31	0xb9ddd510	-0.0004231115
32	0xbbeaea30	-0.0071690306
33	0xbcce9317	-0.025216622
34	0x3d0a5a72	0.03377766
35	0xbcb0ed25	-0.021597454
36	0xbd76f32b	-0.060290497
37	0xbd513990	-0.051080287
38	0xbd10e588	-0.035375148
39	0xbc89d643	-0.0168258
40	0xbd5010c8	-0.050797254
41	0x3c16ee10	0.009212032
42	0x3e31088c	0.17288417
43	0x3c3c6e67	0.011500931
44	0xbd5b63f8	-0.053562135
45	0x3cc977cb	0.024593255
46	0x3e08467e	0.1330814
47	0x3cdef3a1	0.02721578
48	0xbd27c63d	-0.04096054
49	0xbccaa34f	-0.024736075
50	0xbc1cfb31	-0.009581373
51	0x3ac2e443	0.0014869053
52	0xbd66d9dd	-0.056360114
53	0xbbdf435c	-0.00681345
54	0xbd24f797	-0.040275183
55	0xbca65b02	-0.020307068
56	0xbdf2a800	-0.1184845
57	0xbde033ab	-0.10947355
58	0x3dde5e1b	0.10857793
59	0x3bf252ca	0.007395123
60	0xbcab4710	-0.020907909
61	0x3d11f5e7	0.0356349
62	0x3ce1ad8b	0.027548572
63	0x3ccabaa0	0.024747193
64	0xbdce24de	-0.100656256
65	0xbcb9aecd	-0.02266636
66	0x3df71968	0.12065393
67	0x3d84f8ca	0.06492765
68	0x3d39c3bf	0.045352694
69	0x3dbc3fbf	0.09191846
70	0xbcdcfc33	-0.026975727
71	0xbd9b46d9	-0.075818725
72	0x3dbcb7a9	0.09214718
73	0xbe2e628f	-0.17029785
74	0x3d805967	0.06267052
75	0xbdb26da4	-0.087123185
76	0xbc724cd6	-0.014788827
77	0x3dbdefac	0.092742294
78	0xbdb0b926	-0.08629064
79	0x3dda1dda	0.10650225
80	0xbd01b1e9	-0.03166381
81	0xbb2d07da	-0.0026402385
82	0x3cf711eb	0.030159911
83	0xbd055ec3	-0.032561075
84	0x3d0f34c7	0.03496244
85	0xbc829fa6	-0.015945267
86	0xbd9d07b4	-0.07667485
87	0xbdabb675	-0.0838441
88	0x3da01ea2	0.07818343
89	0x3de3e528	0.111276925
90	0x3ddb4858	0.10707158
91	0xbc89bd7c	-0.016813986
92	0x3d7a3c66	0.061092757
93	0xbd5252de	-0.05134856
94	0x3da74dd1	0.08169139
95	0x3ba0a35f	0.004902288
96	0x3d906703	0.07050898
97	0xbba3ac2c	-0.0049948897
98	0x3cde3372	0.02712414
99	0x3ce9c0b8	0.028534278
100	0x3d39d26d	0.045366693
101	0x3d862204	0.06549457
102	0xbd0cc936	-0.034371577
103	0x3dd52146	0.10406737
104	0xbac50c97	-0.0015033659
105	0xbdf3606a	-0.11883624
106	0xbd7af4cd	-0.061268616
107	0x3e319866	0.17343292
108	0x3cbf0eca	0.023322482
109	0x3dbd8bf9	0.09255213
110	0xbcd4b93f	-0.025967238
111	0xbdb35515	-0.087564625
112	0x3cece65f	0.028918443
113	0xbda22e0b	-0.07918938
114	0xbdd0a2fb	-0.10187336
115	0x3e1d631d	0.1536984
116	0xbb2270ee	-0.002478655
117	0x3a14c02d	0.00056743884
118	0xbd810c65	-0.06301192
119	0xbda9a442	-0.08283283
120	0xbded9d70	-0.116022944
121	0x3adced83	0.0016855452
122	0x3dc42771	0.09577835
123	0xbcfe86c7	-0.031070126
124	0xbe49384f	-0.19650386
125	0x3de6fedb	0.112790786
126	0xbcc0ed40	-0.02355063
127	0x3df69694	0.12040439
128	0x3d30c776	0.04315897
129	0xbcc71f5d	-0.024306947
130	0xbe724ac2	-0.2366133
131	0xbc4a7783	-0.012357595
132	0x3d942b3c	0.07234809
133	0xbd20213d	-0.0390942
134	0xbd62c958	-0.055367798
135	0x3e241152	0.16022232
136	0xbe0ae4cb	-0.1356384
137	0x3e786378	0.24256694
138	0x3da1bfa2	0.07897879
139	0xbd9b889b	-0.07594415
140	0xbbdd22c6	-0.00674853
141	0xbd2dae92	-0.04240281
142	0xbd9a70b6	-0.07541029
143	0x3d2770e1	0.040879134
144	0x3db8605d	0.09002755
145	0x3d439d3c	0.047757372
146	0x3d19abb8	0.03751728
147	0xbca41e34	-0.020033933
148	0xbd690639	-0.0568907
149	0x3df26341	0.118353374
150	0x3e3a4bb9	0.18192948
151	0x3d3a7301	0.045519833
152	0xbd77876a	-0.060431875
153	0xbda0371f	-0.078230135
154	0x3c73b830	0.014875457
155	0xbd7254f7	-0.05916306
156	0xbd288abc	-0.041147932
157	0xbe7d78d5	-0.24753125
158	0xbd6a9b28	-0.057276875
159	0xbdefcef1	-0.11709393
160	0x3d1a1230	0.037615
161	0xbdcf5a74	-0.101246744
162	0x3e146272	0.14490679
163	0x3cfd9623	0.03095538
164	0x3e62e736	0.22158512
165	0xbd983963	-0.07432821
166	0xba944948	-0.0011313343
167	0xbdb39272	-0.087681666
168	0xbcbd0a5c	-0.023076229
169	0xbbb91537	-0.005648281
170	0xbdc3a26c	-0.09552464
171	0x3ca72d2a	0.020407278
172	0xbd3ac381	-0.045596603
173	0xbd8cc1bf	-0.06872892
174	0xbe183c95	-0.1486686
175	0xbd81a647	-0.06330543
176	0xbe285187	-0.1643735
177	0xbd0b4b4f	-0.034007367
178	0x3de1d763	0.1102741
179	0x3d0d2a8b	0.0344644
180	0xbcfe5356	-0.031045597
181	0x3d183fd5	0.03717025
182	0x3d9337cb	0.07188376
183	0x3da1f32d	0.0790771
184	0x3df11942	0.11772396
185	0x3dade903	0.08491709
186	0x3c0c9e77	0.008582703
187	0xbd79bf15	-0.060973246
188	0xbded0899	-0.115739055
189	0x3d538def	0.05164903
190	0xbcfadfdc	-0.030624323
191	0xbdbb6bd1	-0.09151424
192	0xbd4fc74d	-0.050727177
193	0x3e426ef6	0.1898764
194	0x3e3def79	0.18548383
195	0x3dc35bc1	0.09538985
196	0xbe09681e	-0.13418624
197	0xbd9b8b65	-0.07594947
198	0x3ddd3abe	0.1080222
199	0x3d96d9bb	0.073657475
200	0xbe38f1d6	-0.18061003
201	0xbd4a58c5	-0.049401063
202	0xbd2d59aa	-0.04232184
203	0x3cb07cbb	0.021543851
204	0x3d81eeec	0.06344399
205	0xbdb33a71	-0.08751381
206	0x3d2110df	0.03932273
207	0xbe088bd4	-0.1333459
208	0xbe3169c1	-0.17325498
209	0xbe1099b6	-0.14121136
210	0xbe84002f	-0.2578139
211	0x3d7408e5	0.059578795
212	0xbd9d6abe	-0.07686375
213	0x3a5e8220	0.0008488018
214	0xbd8fb003	-0.070159934
215	0x3d196912	0.03745372
216	0xbe100235	-0.14063342
217	0xbd93934f	-0.07205831
218	0xbda8aa23	-0.08235576
219	0xbd77191a	-0.060326673
220	0xbd0884c5	-0.033329744
221	0xbc8cd434	-0.01719103
222	0x3cca9dff	0.024733542
223	0xbd838180	-0.064211845
224	0xbdd0e4fd	-0.10199926
225	0x3e070d9f	0.1318879
226	0x3ba7be36	0.0051191105
227	0xbddfa9a6	-0.1092103
228	0xbd9bb0b5	-0.076020636
229	0xbdf91cd3	-0.12163701
230	0xbd5dcec6	-0.054152273
231	0xbdd9ffbe	-0.10644482
232	0xbd7b9d30	-0.061429203
233	0x3e228aee	0.1587331
234	0x3d947e47	0.07250648
235	0xbddc6698	-0.10761756
236	0xbd682d5c	-0.056683883
237	0xbc56938c	-0.013096701
238	0xbcdaf339	-0.026727306
239	0x3d1730bc	0.03691171
240	0xbdd91280	-0.10599232
241	0x3d90b2c9	0.070653506
242	0x3e2ea5ea	0.17055479
243	0x3cc6fa0e	0.024289157
244	0xbdc314a2	-0.0952542
245	0x3c09e4d1	0.0084163705
246	0x3e16359e	0.14668891
247	0x3b3029a8	0.0026880298
248	0x3c3a52fd	0.011372325
249	0xbde71e7a	-0.1128511
250	0xbdebb661	-0.115093954
251	0x3d73f932	0.059563823
252	0x3a903663	0.0011002537
253	0xbe0071a1	-0.12543346
254	0xbd60b52f	-0.05486029
255	0x3a9aaf5b	0.0011801528

bias_ih_l0 f4 [384]
0	0x3d6e2fe5	0.058151145
1	0xbceeb0de	-0.029137071
2	0xbc4c083a	-0.012453133
3	0xbc4e7243	-0.012600484
4	0xbc641af2	-0.01392244
5	0xbdc172aa	-0.094456986
6	0x3d0b4953	0.034005474
7	0x3d057769	0.03258458
8	0xbd1d42e5	-0.038393874
9	0xbc9624e5	-0.01832814
10	0xbd224d96	-0.039624773
11	0xbc23c3d2	-0.009995418
12	0xbb7b35a1	-0.0038331526
13	0xbc4d958e	-0.012547864
14	0x3cde32a8	0.027123764
15	0xbcb3501f	-0.02188879
16	0x39915bc8	0.00027724938
17	0xbc4a5360	-0.01234898
18	0xbd86649d	-0.06562159
19	0x3dc34b10	0.095358014
20	0xbd932301	-0.07184411
21	0x3df0fa7f	0.11766528
22	0xbd00cb71	-0.031444017
23	0x3ce609c7	0.028080834
24	0xbd13a8fb	-0.036049824
25	0x3d076a9a	0.033060648
26	0xbcda874b	-0.02667584
27	0xbcf484b5	-0.029848436
28	0x3dd41c35	0.103569426
29	0xbc947619	-0.01812272
30	0xbddb0ef8	-0.106962144
31	0xbc469595	-0.012120624
32	0x3e0b7bb0	0.13621402
33	0xbde7fe99	-0.113278575
34	0x3cefb5f0	0.02926156
35	0xbd852910	-0.06501973
36	0xbd53fa19	-0.051752184
37	0xbc2f9140	-0.010715783
38	0xbd423ac7	-0.047419336
39	0x3dd1bf9b	0.10241624
40	0x3d86d6e4	0.06583956
41	0xbc181a17	-0.009283564
42	0xbc259d6b	-0.010108332
43	0xbd37cca6	-0.044872902
44	0x3d3891c4	0.045060888
45	0xbc231984	-0.009954814
46	0xbe09b220	-0.13446856
47	0x3e065d5d	0.13121553
48	0x3bcdd75b	0.006281776
49	0xbde2232d	-0.110418655
50	0x3dc3cd93	0.095606945
51	0x3d181b55	0.03713544
52	0x3c106932	0.008814143
53	0xbcc88bbb	-0.024480691
54	0xbd391a25	-0.04519095
55	0xbc8fff15	-0.017577687
56	0x3d09e080	0.033661366
57	0x3e318948	0.17337525
58	0xbc3dadcd	-0.011577082
59	0xbca350ee	-0.019936051
60	0x3e1348c3	0.14383225
61	0x3d9caed8	0.07650536
62	0xbd122072	-0.035675474
63	0x3d190760	0.03736055
64	0x3e393ce5	0.18089636
65	0xbd84de9f	-0.06487774
66	0x3db89026	0.09011869
67	0xbdcc42db	-0.09973689
68	0xbd3948e6	-0.045235537
69	0xbd51b2f7	-0.051196065
70	0xbcedc3f6	-0.029024106
71	0xbd0e3b4a	-0.03472451
72	0xbe04835d	-0.12940736
73	0xbd805d72	-0.06267823
74	0xbe13980c	-0.1441347
75	0x3de81cc4	0.113336116
76	0x3d896ed9	0.06710596
77	0x3c0d0822	0.008607896
78	0xbb18b5b6	-0.0023301668
79	0xbdc298d0	-0.09501803
80	0xbc6fae88	-0.014629014
81	0xbc61aced	-0.013774139
82	0x3de5ac5e	0.11214517
83	0x3d951f1f	0.072813265
84	0xbd93956e	-0.07206236
85	0xbd5a0479	-0.05322692
86	0x3d07293e	0.032998316
87	0x3d393e56	0.045225464
88	0x3ca6a65d	0.020343
89	0xbbeae996	-0.007168959
90	0x3e178fdf	0.14800976
91	0xbc823775	-0.015895585
92	0xbd2dde71	-0.042448465
93	0x3b15aa0a	0.0022836947
94	0x3c676c4b	0.01412494
95	0xbd3dc378	-0.04632899
96	0x3c278730	0.010225102
97	0xbb489b81	-0.0030610266
98	0x3d76ad1c	0.060223684
99	0x3da130f0	0.07870662
100	0xbd3f359b	-0.04668198
101	0x3d9eb2bb	0.07748934
102	0xbd90c023	-0.07067897
103	0x3dd49cbf	0.103814594
104	0xbbd6c4fa	-0.006554243
105	0xbdbbff4b	-0.09179553
106	0xbdfe2d0e	-0.12410937
107	0xbdcc33ef	-0.09970843
108	0x3cd31f86	0.025771867
109	0x3e2a46a1	0.16628505
110	0x3d073918	0.033013433
111	0x3de8040f	0.11328899
112	0xbb81281d	-0.0039415495
113	0xbc4b70a3	-0.012416991
114	0xbe1ef34f	-0.15522502
115	0xbd4c84f3	-0.049931478
116	0xbcdf0ea3	-0.027228659
117	0x3db152cd	0.08658371
118	0x3df13d4d	0.1177927
119	0x3d171698	0.03688678
120	0x3ce64205	0.028107652
121	0xbd93eef1	-0.07223309
122	0xbd79677d	-0.06088971
123	0x3dbb6d87	0.0915175
124	0xbd881915	-0.06645409
125	0x3d898ea8	0.06716663
126	0x3ddeb120	0.10873628
127	0xbd8e90f7	-0.069612436
128	0xbd2ef995	-0.04271849
129	0x3d88cac1	0.06679297
130	0x3d9efe93	0.077634
131	0xbdee398b	-0.11632069
132	0x3bd9c032	0.006645226
133	0xbd923d41	-0.071405895
134	0x3d53ac76	0.051678143
135	0xbd67acaf	-0.05656117
136	0xbdab3732	-0.08360137
137	0x3c9ed199	0.019387053
138	0x3de234e8	0.11045247
139	0xbd2cdf8d	-0.042205382
140	0xbd2ef664	-0.042715445
141	0xbcd7c73e	-0.026340123
142	0x3c5e6276	0.01357328
143	0xbc5ea987	-0.013590223
144	0x3c167ce1	0.009185047
145	0xbcfb7d77	-0.030699475
146	0x3c08343f	0.008313238
147	0x3cd16e46	0.025565278
148	0xbdc8a820	-0.09797692
149	0xbdbdb66d	-0.092633106
150	0xbd9def9f	-0.0771172
151	0x3c005bff	0.007834434
152	0xbd72b8a2	-0.05925811
153	0xbd46d18c	-0.048539683
154	0xbd619d6e	-0.055081777
155	0x3d5bc5ce	0.053655438
156	0x3d7d3093	0.061813902
157	0xbd55f4b7	-0.05223533
158	0x3d3938a5	0.045220036
159	0xbd770b64	-0.060313597
160	0x3b54630f	0.0032407676
161	0x3d066196	0.03280791
162	0xbccbfeb3	-0.024901723
163	0x3d5371a2	0.05162204
164	0x3d45f8ab	0.04833285
165	0x3c96a022	0.018386904
166	0xbcd011cc	-0.025399111
167	0xbb848d02	-0.0040451298
168	0xbdc684ac	-0.09693274
169	0xbd927d32	-0.07152785
170	0xbc69cef6	-0.014270535
171	0x3d8e0827	0.06935149
172	0xbcffeee6	-0.031241845
173	0xbd39bdaa	-0.045346893
174	0xbc412a01	-0.0117898
175	0x3df26409	0.118354864
176	0xbd582eaf	-0.052778896
177	0xbd89f52c	-0.06736216
178	0xbd9108d4	-0.07081762
179	0x3db7e923	0.08980014
180	0x3d803d22	0.0626166
181	0x3d327215	0.04356583
182	0x3e127ffe	0.14306638
183	0xbd8ae830	-0.067825675
184	0xbdd4c38e	-0.103888616
185	0xbd833fe3	-0.0640867
186	0xbd07b76a	-0.0331339
187	0x3c389b7c	0.011267539
188	0x3d480025	0.048828263
189	0x3cae23ee	0.021257367
190	0xbccd9a36	-0.025097948
191	0x3d37286c	0.044716284
192	0x3d28794a	0.041131295
193	0x3cbc7842	0.023006562
194	0x3d18546c	0.037189886
195	0xbc84f157	-0.016228361
196	0xbde02181	-0.1094389
197	0x3d10d83a	0.03536246
198	0xbd2d23f7	-0.042270627
199	0x3b822c3b	0.003972558
200	0xbbca4ecc	-0.006173944
201	0xbd1e39f6	-0.038629495
202	0x3d18120e	0.037126593
203	0x3c5c74e0	0.0134556
204	0xbe2bd120	-0.16778994
205	0xbcdf6f51	-0.02727476
206	0x3db7bc90	0.08971512
207	0x3d91ffc0	0.071288586
208	0xbd02e72c	-0.031958744
209	0x3d5d5e43	0.054044973
210	0xbbddee56	-0.0067727966
211	0xbc47379d	-0.012159255
212	0x3cef26b9	0.02919327
213	0xbdf5690b	-0.11982926
214	0xbc4933f6	-0.012280455
215	0xbda6dd8c	-0.081477255
216	0x3c08b766	0.008344507
217	0x3d2b5e20	0.04183781
218	0x3d196943	0.0374539
219	0x3d273a8c	0.04082732
220	0xbd986d18	-0.07442683
221	0xbd5e04de	-0.05420386
222	0x3b2f6dd2	0.002676834
223	0xbc3e681d	-0.011621502
224	0x3d314e18	0.043287367
225	0x3d062519	0.032750223
226	0x3dddf15e	0.10837053
227	0xbc986b9f	-0.018606005
228	0xbe02aa7f	-0.12760352
229	0xbd23f760	-0.040030837
230	0xbcf8d973	-0.030377125
231	0xbda07db3	-0.07836475
232	0x3dbea306	0.09308438
233	0xbe09e4eb	-0.13466232
234	0xbdc1cf2a	-0.094633415
235	0xbde60ccd	-0.1123291
236	0x3d57921b	0.05262957
237	0xbde6edb9	-0.11275811
238	0xbdbcdd0b	-0.09221848
239	0xbd8a8cd8	-0.06765145
240	0x3d853fd7	0.06506317
241	0x3cf6f719	0.030147122
242	0xbdafe832	-0.085892096
243	0xbdb96223	-0.09051921
244	0xbd87968a	-0.0662051
245	0xbdd21609	-0.10258109
246	0x3df3d33a	0.11905523
247	0xbde96693	-0.113965176
248	0xbd132ee4	-0.03593339
249	0xbd8efac2	-0.06981422
250	0x3d69e76e	0.057105474
251	0xbc425832	-0.011861848
252	0xbe25c799	-0.16189422
253	0xbbb67601	-0.0055682664
254	0xbd179350	-0.037005723
255	0xbc39e501	-0.011346103

bias_hh_l0 f4 [384]
0	0x3b4df4db	0.0031426463
1	0xbe0cad79	-0.1373805
2	0x3dbeb14b	0.0931116
3	0x3cb73586	0.02236439
4	0x3d038491	0.032108847
5	0xbe0dd085	-0.13849075
6	0x3d371237	0.044695105
7	0xbd15f56c	-0.036611006
8	0x3d805309	0.06265838
9	0x3b83fa72	0.004027658
10	0x3be1ae65	0.0068872445
11	0xbc2dfc52	-0.01061924
12	0xbcae75ba	-0.02129637
13	0xbd2033a3	-0.039111745
14	0xbca1e0a2	-0.019760434
15	0xbd82d855	-0.06388918
16	0xbcfe3dee	-0.03103539
17	0xbc9bd659	-0.019023107
18	0x3c93657b	0.017992726
19	0x3d155745	0.03646018
20	0xbb0edc81	-0.002179891
21	0x3daf1d79	0.08550543
22	0xbdd387af	-0.10328614
23	0x3bb85e51	0.0056264778
24	0xbcaf19cd	-0.021374607
25	0x3c1e29fd	0.0096535655
26	0xbd893d72	-0.06701173
27	0xbc297e0e	-0.010344995
28	0xbc2aeca2	-0.010432394
29	0x3d696ccf	0.056988534
30	0xbda0c9eb	-0.07851013
31	0x3d166425	0.0367166
32	0x3e06d4bc	0.13167089
33	0xbd980670	-0.07423103
34	0x3d05883c	0.032600626
35	0x3da7fa7f	0.08202075
36	0xbdce9985	-0.10087875
37	0x3b923dbe	0.0044629266
38	0x3d22cba3	0.039744984
39	0xbd06f226	-0.032945774
40	0x3d329eee	0.0436086
41	0xbd1512a7	-0.03639474
42	0x3d99096e	0.07472502
43	0xbdcdb6c8	-0.100446284
44	0x3c6887a2	0.014192494
45	0xba8a1c9d	-0.0010537092
46	0xbd2de829	-0.042457733
47	0x3dcb0d9c	0.09914705
48	0x3d78668e	0.06064468
49	0xbdefc092	-0.11706652
50	0xb9c9e902	-0.00038511312
51	0x3d65ae4c	0.056074426
52	0x3e1046a4	0.14089447
53	0xbc759c95	-0.014990945
54	0xbdcbc2ef	-0.0994929
55	0xbdd621ea	-0.10455687
56	0x3d256d02	0.04038716
57	0x3e2bc138	0.16772926
58	0x3d322323	0.04349054
59	0xbd813971	-0.06309784
60	0x3ca54194	0.020172872
61	0x3e34212c	0.17590779
62	0xbda28d64	-0.07937124
63	0x3d62461f	0.055242654
64	0x3e2a6f52	0.16644028
65	0xbda615bd	-0.08109615
66	0xbd4bed86	-0.049787067
67	0xbd70ac14	-0.058757856
68	0x3cc14f85	0.023597488
69	0xbd5967e5	-0.053077597
70	0xbd3dddda	-0.046354152
71	0x3d4b66a8	0.049658448
72	0x3b958960	0.0045634955
73	0xbda480fc	-0.08032414
74	0xbdf8f910	-0.1215688
75	0x3d839342	0.064245716
76	0x3d2e78fc	0.04259585
77	0x3d284c4d	0.04108839
78	0xbd12dc13	-0.03585441
79	0xbd4feb2b	-0.050761383
80	0xbde3650b	-0.11103257
81	0x3d10da98	0.035364717
82	0x3d979ee8	0.07403356
83	0xbb09964f	-0.0020994132
84	0x3c8acafd	0.016942495
85	0x3cbbfb6e	0.02294704
86	0x3d087f63	0.03332461
87	0xbc0c79ff	-0.008574008
88	0x3d4806d9	0.048834655
89	0xbdf392c8	-0.11893231
90	0x3e150803	0.14553837
91	0xbd0d3b76	-0.034480534
92	0x3dbc8510	0.09205067
93	0xbddd8765	-0.1081684
94	0xbce2a0bf	-0.02766454
95	0x3dd6651f	0.10468506
96	0x3bfcbfcd	0.007713294
97	0xbd0c233c	-0.03421329
98	0x3da121e9	0.07867796
99	0x3ceda52a	0.02900942
100	0xbd0f60e1	-0.0350045
101	0x3dd188e2	0.102311864
102	0xbd886389	-0.0665961
103	0x3d9ad781	0.07560635
104	0x3e02f5a4	0.12789017
105	0xbdce37cf	-0.100692384
106	0xbdae65d4	-0.08515516
107	0x3c21abf4	0.009867657
108	0xbdba5d16	-0.09099786
109	0x3d348bc5	0.044078607
110	0xbd277b44	-0.04088904
111	0x3dd5472e	0.10413967
112	0x3da65c2c	0.08123049
113	0xbccacf00	-0.024756908
114	0xbdaa6e69	-0.0832184
115	0xbdcf6a10	-0.10127652
116	0xbd932747	-0.07185226
117	0x3c8f0c16	0.017461818
118	0x3d8aa99c	0.06770632
119	0xbd83a3d9	-0.06427736
120	0xbd286624	-0.041113034
121	0xbd4c0e21	-0.049818162
122	0xbd7bc87b	-0.06147049
123	0xbbf1765a	-0.007368845
124	0xbd64deb8	-0.055876464
125	0x3c8b63f8	0.017015442
126	0x3db4fadb	0.088369094
127	0xbb491ad5	-0.003068616
128	0xbd5457ca	-0.051841535
129	0xbda2b57e	-0.07944773
130	0x3d9e42e7	0.07727604
131	0xbdead258	-0.11465901
132	0xbde36b23	-0.11104419
133	0x3d0082de	0.031374805
134	0xbba24457	-0.0049519944
135	0xbdcea43c	-0.10089919
136	0x3da09004	0.07839969
137	0xbd0141f5	-0.031557042
138	0x3dd45ffa	0.103698686
139	0x3d4a3b8c	0.049373195
140	0xba913de6	-0.0011081069
141	0x3a8727cb	0.0010311542
142	0xbd759c43	-0.059963476
143	0xbdd052ca	-0.10172041
144	0x3d635009	0.05549625
145	0xbe039dd4	-0.12853175
146	0xbda2a385	-0.07941345
147	0xbd370f18	-0.04469213
148	0x3c9405c8	0.018069163
149	0xbb9bf9ff	-0.0047600265
150	0x3d05171f	0.032492753
151	0xbd74132a	-0.05958859
152	0xbd939032	-0.072052374
153	0xbda8326b	-0.082127415
154	0xbcbc3e2b	-0.022978863
155	0xbdacfb70	-0.084463954
156	0x3d34a1c9	0.044099603
157	0x3db01041	0.0859685
158	0x3d13010e	0.035889678
159	0x3c76f70b	0.015073548
160	0xbd450374	-0.048098996
161	0x3b9c35ae	0.0047671413
162	0x3d90f437	0.0707783
163	0xbd8c8e4b	-0.06863078
164	0xbdb25d3d	-0.0870919
165	0x3d0ef9ec	0.034906313
166	0xbcdf785a	-0.027279068
167	0xbda9dcc6	-0.08294062
168	0x3d013b27	0.031550553
169	0xbddecf67	-0.108794026
170	0xbd039df0	-0.032133043
171	0x3c3e6639	0.0116210515
172	0x3d1e5507	0.038655307
173	0x3d037bee	0.03210061
174	0xbd9e4221	-0.07727457
175	0x3dbc6305	0.09198574
176	0xbcb6a2d2	-0.022294436
177	0xbd7637aa	-0.06011168
178	0xbc8aaddb	-0.016928604
179	0x3d239bad	0.039943386
180	0x3e1d053c	0.15334028
181	0x3cc9ea13	0.024647748
182	0x3dbad234	0.09122124
183	0xbd80927d	-0.062779404
184	0xbd2d3377	-0.04228541
185	0x3ca004a7	0.019533468
186	0x3cf1c38b	0.029512187
187	0xbe044936	-0.12918553
188	0x3de32087	0.110901885
189	0xbb6e279e	-0.0036339532
190	0x3d57f419	0.052723024
191	0xbd9e0399	-0.0771553
192	0xbd399c4e	-0.04531508
193	0x3d7a1080	0.061050892
194	0xbdaf473e	-0.0855851
195	0xbc9217bd	-0.017833585
196	0xbdbda949	-0.09260804
197	0xbc9e51c0	-0.01932609
198	0x3ba3b96d	0.0049964697
199	0xba91c72a	-0.0011121978
200	0xbc78f441	-0.015194953
201	0x3d40a0a8	0.047028214
202	0x3cfc6183	0.030808216
203	0x3c356c79	0.011073225
204	0xbde17d9f	-0.110102884
205	0xba357336	-0.000692177
206	0x3dd3564e	0.10319196
207	0x3d4b1f8a	0.049590625
208	0xbd77d311	-0.060504023
209	0x3d4b5a9d	0.049646962
210	0x3bc7e7a1	0.0061006104
211	0xbcc8d913	-0.024517572
212	0x3c86e01d	0.016464287
213	0xbd4d3258	-0.05009684
214	0xbdc1f671	-0.09470833
215	0x3db02d50	0.08602393
216	0xbc69aea2	-0.014262827
217	0x3c8a4d49	0.016882556
218	0x3a0e7099	0.00054336485
219	0xbd213582	-0.03935767
220	0xbcb986f5	-0.02264736
221	0xbd9f1c39	-0.07769055
222	0xbd9f36c5	-0.07774118
223	0x3aa9c36a	0.0012951915
224	0xbcd075bb	-0.025446763
225	0xbdc87019	-0.09787006
226	0xbcff87b1	-0.031192632
227	0xbd1ebc46	-0.03875377
228	0xbe00c0fc	-0.12573618
229	0x3d01918e	0.031632952
230	0xbdc5f4b6	-0.096658155
231	0xbc41f644	-0.011838499
232	0x3cd955a8	0.026530102
233	0xbd2b00dd	-0.04174887
234	0x3ba0b334	0.004904175
235	0xbc5418c7	-0.0129453605
236	0x3ccdd8e9	0.025127845
237	0xbda810c5	-0.082063235
238	0xb72be910	-1.0246658e-05
239	0x3b32e880	0.0027299225
240	0x3d9b1c35	0.075737394
241	0x3d955a94	0.07292667
242	0xbcc0792e	-0.023495283
243	0xbd95f0f1	-0.073213466
244	0xbd25b0a9	-0.04045168
245	0xbdae4b59	-0.08510465
246	0xbaad8928	-0.0013239728
247	0xbd51d72a	-0.051230587
248	0xbd8b83d1	-0.06812251
249	0x3cb881cf	0.022522835
250	0xbd882a8a	-0.06648739
251	0xbd5673fe	-0.052356713
252	0xbe043809	-0.12912
253	0xbd474943	-0.048653852
254	0xbd820d48	-0.063501894
255	0xbd70f1ee	-0.058824472
