checkpoints/beat_decoder.pth (torch_old, 313322 bytes, 7 tensors)

weight f4 [16, 50]
0.9501475 0.33311385 0.058807634 0.19464949 0.055221453 0.89954174 0.21126947 0.7895945
0.6301234 0.4555963 0.7127508 0.16558418 0.95292324 0.73891234 0.9772715 0.13076717
0.15103398 0.7889928 0.9814404 0.7909935 0.985477 0.83526254 0.084286384 0.35056555
0.12874524 0.5240957 0.9065723 0.3670503 0.48288932 0.12762302 0.5507242 0.92377186
0.7426254 0.6773803 0.30447137 0.8761715 0.051960777 0.22656555 0.6037288 0.72857773
0.847727 0.12790197 0.83275515 0.04022642 0.48593238 0.11029233 0.8166031 0.85211074
0.064445004 0.7217331 0.6198173 0.05382551 -0.67622316 -0.042491723 0.0128208 -0.0727025
-0.40929615 -0.31778476 0.11513679 0.079754554 -0.33127114 0.0035715224 -0.36326537 0.17325623
0.30432412 0.37878618 -0.44229522 -0.006566902 -0.34107396 -0.14860687 0.4673701 0.13563338
0.046767708 -0.14160351 0.0132959625 -0.6290708 -0.05196945 -0.19779593 0.36056024 0.097446665
0.12793697 -0.7302947 0.1742906 0.20491362 -0.4951153 -0.29172403 -0.14097619 -0.23529072
-0.09651977 -0.23442145 -0.009830824 -0.03986321 0.45389485 -0.110531524 0.20633061 -0.01489691
-0.22263321 0.20840904 0.3464434 -0.3667569 0.02727358 0.3889507 -0.32253227 -0.44435272
0.10000826 -0.16417882 0.27254274 -0.48270872 -0.053881615 0.47565016 -0.521294 -0.33694437
-0.16759452 -0.18183592 -0.35696313 -0.24190056 -0.33743152 -0.3129011 -0.0106481025 0.09685333
0.32272577 -0.45352614 0.41756245 -0.41596165 0.08214674 -0.56642264 0.4725574 -0.40317118
0.0706593 -0.0903125 0.038032833 -0.4098454 -0.18539181 -0.29169667 0.14564799 -0.5941183
0.042246122 -0.30237758 -0.18748993 -0.22977753 -0.3391064 -0.2514351 0.3749106 0.33654094
0.10556371 -0.3624536 -0.34094244 0.02135434 -0.003398706 0.24317808 0.45128816 -0.18660362
-0.05876697 -0.16837494 0.20588152 -0.341836 0.18056235 0.05977136 -0.19929498 -0.24400407
-0.053936463 -0.06133655 -0.41196892 0.13975705 0.33868375 -0.036932938 -0.13301252 -0.2658916
0.17956984 -0.32455984 0.37416938 0.17473252 0.051214263 0.035383094 -0.15692684 -0.015965063
-0.24571386 0.10019803 -0.18216953 -0.3655636 -0.3276364 -0.06090247 -0.28116956 -0.15685306
0.09846888 0.1331107 0.2930648 -0.39546642 -0.21410331 0.18166447 -0.15793437 0.26304743
0.00033275614 0.113986835 0.28963444 -0.020939576 0.041588377 -0.29054677 -0.18365185 0.24334565
-0.09696285 0.4799972 -0.083471626 0.21220426 -0.3452003 0.41260773 -0.13060234 -0.5092839
0.46856618 0.14771582 -0.30974814 -0.4491394 0.34329066 -0.2704543 -0.44665354 0.14891511
-0.29287106 0.2136952 0.042848475 0.23830363 -0.054685593 -0.4232269 -0.13359585 0.09703912
0.36405742 -0.3193652 -0.034866903 -0.1360211 -0.044172864 0.32149646 0.30252934 -0.29527363
0.20394346 0.23807372 -0.17362031 -0.47340053 0.11509648 0.24208114 0.3548628 0.0620095
0.18911253 -0.39768568 0.22153735 0.016395608 -0.52633166 -0.43226245 -0.41824538 0.50859517
0.26764748 -0.1465361 0.18117367 -0.1010748 0.021349797 0.018897073 0.1696858 0.07122849
00000000: de3c 733f e68d aa3e 46e0 703d 3252 473e
00000010: e42f 623d 5e48 663f 0657 583e dd22 4a3f
00000020: c44f 213f eb43 e93e d676 363f e68e 293e
00000030: c7f2 733f 5c29 3d3f 772e 7a3f d4e7 053e
00000040: a7a8 1a3e 6ffb 493f ae3f 7b3f 8d7e 4a3f
00000050: 3848 7c3f c4d3 553f 579e ac3d 547d b33e
00000060: cbd5 033e 232b 063f 1f15 683f 04ee bb3e
00000070: 453d f73e 9caf 023e 43fc 0c3f 507c 6c3f
00000080: b31c 3e3f cc68 2d3f ace3 9b3e c74c 603f
00000090: d3d4 543d cd00 683e f88d 1a3f 1284 3a3f
000000a0: a304 593f bcf8 023e 712f 553f 75c4 243d
000000b0: 21cc f83e f2e0 e13d e70c 513f ee23 5a3f
000000c0: befb 833d 80c3 383f 59ac 1e3f 2378 5c3d
000000d0: f61c 2dbf cd0b 2ebd 550e 523c 0ce5 94bd
000000e0: 448f d1be afb4 a2be d6cc eb3d 5b56 a33d
000000f0: 5f9c a9be 3410 6a3b ebfd b9be 156a 313e
00000100: 5fd0 9b3e 43f0 c13e 8574 e2be 2b2f d7bb
00000110: 3fa1 aebe 662c 18be 224b ef3e 7ae3 0a3e
00000120: 7f8f 3f3d 8300 11be 4fd7 593c c90a 21bf
00000130: ebdd 54bd 048b 4abe 5a9b b83e 1e92 c73d
00000140: e901 033e 98f4 3abf 3c79 323e e0d4 513e
00000150: c17f fdbe da5c 95be 105c 10be 0df0 70be
00000160: 28ac c5bd 2d0c 70be 7711 21bc 9b47 23bd
00000170: e864 e83e 5a5e e2bd 5548 533e 2b12 74bc
00000180: f6f9 63be 2e69 553e 0861 b13e 8fc7 bbbe
00000190: d86c df3c 8c24 c73e f322 a5be 3382 e3be
000001a0: 21d1 cc3d 7e1e 28be b98a 8b3e 9925 f7be
000001b0: f8b2 5cbd 6b88 f33e 8673 05bf f983 acbe
000001c0: e69d 2bbe 3233 3abe dfc3 b6be c8b4 77be
000001d0: d3c3 acbe 9334 a0be 6175 2ebc 0a5b c63d
000001e0: 503c a53e 9434 e8be bfca d53e edf8 d4be
000001f0: 8d3c a83d 1301 11bf 0bf3 f13e 746c cebe
00000200: d3b5 903d c3f5 b8bd 51c8 1b3d 42d7 d1be
00000210: 5ad7 3dbe 4459 95be bf24 153e 2318 18bf
00000220: 450a 2d3d 3cd1 9abe 5cfd 3fbe cd4a 6bbe
00000230: 5b9f adbe 1abc 80be 48f4 bf3e 184f ac3e
00000240: c931 d83d 8593 b9be 0290 aebe 4cef ae3c
00000250: d3bc 5ebb ad03 793e 3e0f e73e 0515 3fbe
00000260: a2b5 70bd 7b6a 2cbe 9bd2 523e 2105 afbe
00000270: 56e5 383e d0d2 743d fc13 4cbe 34dc 79be
00000280: 7bec 5cbd 093c 7bbd 97ed d2be 791c 0f3e
00000290: f567 ad3e fe46 17bd 6f34 08be f222 88be
000002a0: 28e1 373e b52c a6be 2193 bf3e 15ed 323e
000002b0: 0cc6 513d dded 103d 6eb1 20be 2ac9 82bc
000002c0: 6a9c 7bbe a034 cd3d a68a 3abe 272b bbbe
000002d0: f5bf a7be de74 79bd 75f5 8fbe 179e 20be
000002e0: 0daa c93d 2c4e 083e 970c 963e 937a cabe
000002f0: e63d 5bbe 4006 3a3e 8cb9 21be 27ae 863e
00000300: c675 ae39 ee71 e93d f74a 943e 7989 abbc
00000310: 9358 2a3d 8cc2 94be 3b0f 3cbe 9a2f 793e
00000320: 7594 c6bd 31c2 f53e 2cf3 aabd 134c 593e
00000330: 18be b0be 5241 d33e 9fbc 05be 6e60 02bf
00000340: e8e7 ef3e d142 173e 4f97 9ebe 99f5 e5be
00000350: cbc3 af3e fc78 8abe c6af e4be 347d 183e
00000360: 32f3 95be ead2 5a3e e281 2f3d de05 743e
00000370: 00fe 5fbd 32b1 d8be 5acd 08be 72bc c63d
00000380: bc65 ba3e d683 a3be 99d0 0ebd 1e49 0bbe
00000390: 9bee 34bd 2f9b a43e 20e5 9a3e 1b2e 97be
000003a0: 8ed6 503e 99c9 733e 86c9 31be 8e61 f2be
000003b0: b4b7 eb3d 1ee4 773e 94b0 b53e acfd 7d3d
000003c0: b7a6 413e 759d cbbe b0da 623e 1550 863c
000003d0: acbd 06bf 8151 ddbe 4224 d6be 4b33 023f
000003e0: 1709 893e 8f0d 16be 9785 393e 4e00 cfbd
000003f0: c5e5 ae3c 09ce 9a3c 1dc2 2d3e 3ee0 913d

weight_ih_l0 f4 [384, 50]
-0.036865033 0.1818204 -0.27825537 -0.12953876 -0.019139497 0.023199277 -0.038393557 -0.06839865
0.12107391 0.29169536 -0.09406843 -0.027251046 -0.100564755 -0.047414817 -0.19197823 0.029739108
0.04003429 0.04496917 -0.16985057 0.18295044 -0.057447232 -0.1297384 0.20000717 -0.16375954
0.016441338 -0.11636109 0.26871425 -0.10566722 0.20802434 0.1309657 0.1695367 -0.07958352
0.21386518 0.030651916 -0.03071841 -0.10926527 -0.21724348 0.05919791 -0.060556628 -0.25044733
-0.038009293 -0.05320472 0.14909524 -0.11589692 -0.16635257 -0.12320521 -0.077307776 0.26838082
0.11126238 -0.1862106 -0.013091225 -0.0150232315 -0.116061345 0.051358674 -0.09104907 -0.045712534
-0.17910114 -0.093208425 -0.011764868 0.11627437 -0.035438992 0.09342166 0.016146595 0.06438834
-0.09994723 0.12418084 -0.052699517 0.32279962 -0.16067913 0.091023624 -0.17877696 -0.039725903
-0.035780784 -0.114607744 -0.22400554 -0.10705438 0.05472812 -0.06648074 0.11530927 0.30456313
0.15921216 0.008064055 0.22442992 0.115387484 -0.040074464 -0.09740377 -0.23850884 0.0758257
-0.12791616 -0.1016339 -0.090182774 -0.00996147 0.1500438 -0.27111432 -0.18559526 0.04458172
-0.01860912 0.18710825 0.14301707 -0.21413496 0.08785435 0.13414949 -0.18383536 0.03117181
-0.18393365 0.07629408 -0.25783178 -0.19075137 0.17119189 0.16391547 -0.11139241 0.014774056
-0.08650352 -0.18297365 -0.20670733 0.17553888 -0.010353267 0.13994327 -0.21514419 0.043097023
0.086453795 -0.054570116 -0.037927095 0.040509406 -0.041648798 -0.1437202 0.07850693 -0.14980988
0.108674884 0.095343985 0.08709723 -0.12882482 0.28635332 0.10392876 -0.21852605 -0.116186775
-0.14593263 0.013667225 -0.017020255 -0.15764634 0.10882846 -0.15143435 0.15519437 -0.20127128
-0.1810502 -0.13901815 0.0026647788 0.111890644 0.028539773 -0.24175504 -0.022818994 0.07777308
-0.016397305 -0.12744679 -0.19014162 0.07331798 -0.12695874 -0.12443354 0.12605657 0.16088897
-0.08622903 -0.11116789 0.034995813 0.047961693 -0.19597788 0.18363075 -0.07260223 0.09981807
-0.0018346463 0.081036545 0.106209494 -0.17307742 0.09534423 -0.141093 0.008807746 -0.100103796
0.033554845 -0.14163421 0.113462955 0.12047516 0.09295672 -0.10424894 0.16653766 0.1271594
-0.11659318 -0.08204456 -0.14367352 -0.15673897 0.037243094 -0.12489344 -0.08105334 -0.044476584
0.14701203 -0.18139878 -0.14416704 -0.10671588 -0.074256696 0.2651403 0.21099246 -0.20828485
0.05678734 -0.043385208 0.024836076 -0.043778386 -0.09667079 -0.121006265 0.11115293 0.051555164
0.08525463 0.014821752 0.052148763 -0.16419369 -0.11580153 0.0552835 0.037349187 0.07361074
0.07263017 0.19271787 0.0071438 0.014416147 -0.13155487 0.20075125 -0.012275431 0.076586254
-0.04631387 -0.0063469145 -0.121170394 0.07105118 -0.1706035 -0.129481 -0.09708941 -0.02829452
-0.09580813 -0.08514155 0.08920515 0.005107562 0.017256692 -0.35190564 -0.0669141 0.10408536
-0.11548113 0.023409624 -0.015058539 -0.06794136 0.19871572 0.06228498 -0.03377814 -0.032403857
0.020528054 -0.05304653 -0.15513156 -0.009941046 -0.03788837 0.24463435 -0.16413093 0.5385067
00000000: caff 16bd 202f 3a3e 7d77 8ebe cfa5 04be
00000010: 6fca 9cbc 690c be3c 9042 1dbd 9714 8cbd
00000020: 99f5 f73d 1859 953e f3a6 c0bd 963d dfbc
00000030: e5f4 cdbd 0a36 42bd f195 44be 6e9f f33c
00000040: fffa 233d 9831 383d 4fed 2dbe 5c57 3b3e
00000050: ca4d 6bbd 25da 04be aece 4c3e 95b0 27be
00000060: fcaf 863c b94e eebd ea94 893e 0e68 d8bd
00000070: 5504 553e df1b 063e 079b 2d3e affc a2bd
00000080: 79ff 5a3e ba19 fb3c 2da5 fbbc 78c6 dfbd
00000090: 1375 5ebe 8279 723d 3a0a 78bd a23a 80be
000000a0: a2af 1bbd 31ed 59bd 6cac 183e 5d5b edbd
000000b0: 5458 2abe 0353 fcbd 8a53 9ebd 3669 893e
000000c0: 88dd e33d fead 3ebe 947c 56bc 0024 76bc
000000d0: 92b1 edbd 795d 523d ef77 babd 113d 3bbd
000000e0: 4a66 37be 0fe4 bebd 6fc1 40bc 4221 ee3d
000000f0: 7a28 11bd db53 bf3d dd45 843c 09de 833d
00000100: 22b1 ccbd 8652 fe3d 73db 57bd fe45 a53e
00000110: 1289 24be 986a ba3d 4f11 37be a1b7 22bd
00000120: df8e 12bd 77b7 eabd b561 65be 543f dbbd
00000130: 982a 603d 0e27 88bd 4427 ec3d b3ef 9b3e
00000140: 8308 233e 191f 043c f5d0 653e 4650 ec3d
00000150: 1f25 24bd a17b c7bd a93b 74be 814a 9b3d
00000160: 74fc 02be 6f25 d0bd bfb1 b8bd 6f35 23bc
00000170: 15a5 193e 7fcf 8abe af0c 3ebe 529b 363d
00000180: 2772 98bc 4e99 3f3e 1173 123e 3246 5bbe
00000190: fbec b33d 7c5e 093e 563f 3cbe 065c ff3c
000001a0: 1a59 3cbe 1240 9c3d 8702 84be 5454 43be
000001b0: ed4c 2f3e 75d9 273e b421 e4bd e20e 723c
000001c0: c228 b1bd 725d 3bbe 16ab 53be 77c0 333e
000001d0: c0a0 29bc 4a4d 0f3e c24e 5cbe 8186 303d
000001e0: b00e b13d ea84 5fbd 7159 1bbd 31ed 253d
000001f0: ee97 2abd 632b 13be 3ec8 a03d c367 19be
00000200: f090 de3d b543 c33d 0860 b23d a7ea 03be
00000210: e79c 923e 9ad8 d43d 4bc5 5fbe 55f3 edbd
00000220: 5d6f 15be 7fec 5f3c 106e 8bbc 0b6e 21be
00000230: 75e1 de3d 9b11 1bbe 46eb 1e3e 0f1a 4ebe
00000240: 3965 39be c65a 0ebe 92a3 2e3b ec26 e53d
00000250: 3ecc e93c a28e 77be e6ee babc 7e47 9f3d
00000260: a453 86bc 6981 02be 7cb4 42be bd27 963d
00000270: 7901 02be 03d7 febd f914 013e 14c0 243e
00000280: d898 b0bd feab e3bd c557 0f3d 7b73 443d
00000290: 6dae 48be b309 3c3e 7ab0 94bd 6b6d cc3d
000002a0: 8478 f0ba 7df6 a53d 5d84 d93d 353b 31be
000002b0: d643 c33d af7a 10be 5d4e 103c 3803 cdbd
000002c0: ce70 093d 8f08 11be 445f e83d aebb f63d
000002d0: 1860 be3d 7880 d5bd d988 2a3e 1336 023e
000002e0: 68c8 eebd fa06 a8bd 271f 13be 2e80 20be
000002f0: 378c 183d 22c8 ffbd 4bff a5bd 142d 36bd
00000300: 528a 163e 9ac0 39be 86a0 13be db8d dabd
00000310: e513 98bd 78c0 873e 680e 583e a048 55be
00000320: d899 683d b0b4 31bd 0775 cb3c f750 33bd
00000330: 56fb c5bd 22d2 f7bd 26a4 e33d 822b 533d
00000340: fb99 ae3d efd6 723c f199 553d 6422 28be
00000350: 5a29 edbd f470 623d 76fb 183d 3ac1 963d
00000360: 20bf 943d d557 453e 8a16 ea3b b431 6c3c
00000370: 52b6 06be bc91 4d3e e41e 49bc 41d9 9c3d
00000380: 9db3 3dbd c7f9 cfbb 2f28 f8bd 4883 913d
00000390: afb2 2ebe ab96 04be d0d6 c6bd e9c9 e7bc
000003a0: 0e37 c4bd b15e aebd 31b1 b63d 565d a73b
000003b0: e85d 8d3c fa2c b4be 420a 89bd b52a d53d
000003c0: 5f81 ecbd 8ac5 bf3c 17b8 76bc d724 8bbd
000003d0: 227c 4b3e 891e 7f3d f25a 0abd e8b9 04bd
000003e0: 732a a83c 5147 59bd cfda 1ebe c5df 22bc
000003f0: d630 1bbd 6d81 7a3e f011 28be 93db 093f

weight_hh_l0 f4 [384, 128]
0.004037987 0.113082804 -0.14421445 -0.09891116 0.023535741 -0.16822205 0.13857655 -0.14970767
-0.13991208 -0.064636394 -0.048902314 -0.040914014 0.19438943 -0.08437708 0.13852356 -0.038554117
0.14408222 0.08384519 0.05728098 0.018849263 -0.10012956 -0.17303078 -0.21041654 -0.15076129
0.07154614 0.04399441 -0.028401747 0.012444476 -0.034715727 -0.095311634 0.18979305 -0.12144447
-0.21421194 -0.023231791 0.0071356962 0.029574202 0.42732847 0.20674394 0.064683594 0.06587353
0.029782753 0.112353325 0.038443826 -0.22851181 0.074999675 0.015928531 -0.34600723 0.023302957
0.2244384 0.14122552 -0.3049684 -0.22548503 0.0063662794 -0.059215516 0.11881766 -0.14527054
0.03690149 -0.19475223 -0.03484798 -0.022863448 0.115928724 0.04825394 0.08509385 -0.11614855
0.028588137 0.03900958 -0.090970315 -0.054970633 -0.09038499 -0.001329002 -0.049098197 0.017004209
-0.09546422 -0.18156885 -0.04902653 0.18358922 0.01706346 -0.053300567 -0.18528469 0.03830678
-0.036353823 -0.09016441 0.07079851 0.12918584 0.3013338 -0.106928244 -0.17191783 0.083023526
-0.0681334 -0.1112799 0.075017706 -0.02362526 -0.018659886 -0.34994316 -0.032918736 -0.35030663
-0.009719493 0.0472225 0.1369992 -0.043650705 -0.1168481 0.197016 0.2102871 0.02228511
-0.029959375 0.18218634 0.11007413 0.11891999 0.09002956 0.024725778 -0.12933716 0.016345281
-0.04937332 -0.18642287 -0.026011216 0.21881706 -0.2695204 0.022039777 -0.011596194 0.05096238
0.008180843 0.12353052 0.037852168 0.21566416 0.14962079 -0.0073281345 0.13113555 0.0239778
-0.013887694 -0.14767545 0.06023901 0.013140791 -0.106585056 0.058535803 0.07841899 -0.035552923
-0.036369573 -0.10326513 0.07467398 0.16641705 0.0253842 -0.0747276 -0.039703686 -0.124249436
-0.015748914 -0.055965584 0.13238506 -0.0012471705 0.022055255 0.0016310588 0.16149437 -0.09686693
-0.2976951 -0.00243443 0.118458726 0.05723797 0.04634097 -0.12433247 -0.08023097 0.005415806
0.008004907 -0.00405866 -0.099553324 -0.08748706 -0.1701461 0.009515342 0.06726315 0.11698041
0.06482136 0.28291953 0.041924044 0.2661563 0.17811356 0.032719105 0.014097429 7.415158e-05
-0.14232469 0.07001311 -0.094414994 0.03912061 0.073911816 -0.04647216 -0.03473441 -0.02922647
-0.022903806 0.00018708373 -0.27047718 -0.04177467 -0.0011197799 -0.10413781 -0.110600315 -0.042028286
0.06426752 0.004440656 -0.12825342 0.030040111 -0.20993058 -0.037053645 -0.16837724 -0.01920858
-0.060576487 -0.005440538 -0.1509173 0.044839997 -0.04664289 0.05233173 -0.11197043 -0.23203053
-0.041259807 -0.08035449 0.1462554 0.019182589 -0.19933648 -0.116181836 0.0040124836 -0.08519838
0.20948464 -0.0054089334 -0.036511973 0.06728101 0.13957681 0.11220421 -0.07290189 -0.053766742
-0.11608084 -0.04409414 0.12522668 0.046203386 -0.06451944 0.10946247 -0.037870556 -0.1353707
-0.10547386 0.11306747 0.1077419 -0.0040592323 -0.11853893 0.0025507477 0.049921945 -0.124283016
0.026579028 -0.034807604 0.027638469 -0.131419 0.05566756 -0.15276 0.0040409765 0.11645821
0.16025724 0.030943815 0.18304607 -0.04596878 -0.0013348187 0.021121487 -0.15296298 0.1432028
00000000: 1751 843b f597 e73d f4ac 13be ef91 cabd
00000010: 07ce c03c 6742 2cbe 03e7 0d3e f84c 19be
00000020: 1d45 0fbe 1660 84bd cb4d 48bd 7495 27bd
00000030: 060e 473e e4cd acbd 1fd9 0d3e ecea 1dbd
00000040: 4a8a 133e 07b7 ab3d 769f 6a3d c569 9a3c
00000050: ba10 cdbd fb2e 31be 6f77 57be 2b61 1abe
00000060: c886 923d 7c33 343d c8aa e8bc eae3 4b3c
00000070: 1432 0ebd bf32 c3bd 1c59 423e e1b7 f8bd
00000080: 605a 5bbe 9950 bebc 8fd2 e93b 9945 f23c
00000090: ccca da3e afb4 533e d578 843d b4e8 863d
000000a0: f6fa f33c 8019 e63d 4677 1d3d 00ff 69be
000000b0: 6e99 993d 8d7c 823c dc27 b1be d8e5 be3c
000000c0: 2ed3 653e 6c9d 103e d124 9cbe 8ce5 66be
000000d0: 399c d03b f88b 72bd ac56 f33d cdc1 14be
000000e0: 0426 173d 216d 47be c1bc 0ebd 204c bbbc
000000f0: 0a6c ed3d eca5 453d af45 ae3d 4adf edbd
00000100: ab31 ea3c 82c8 1f3d a54e babd e328 61bd
00000110: c41b b9bd e831 aeba 311b 49bd 694c 8b3c
00000120: bf82 c3bd 2fed 39be 0bd0 48bd d0fe 3b3e
00000130: abc8 8b3c b251 5abd 45bb 3dbe 92e7 1c3d
00000140: bfe7 14bd 1ea8 b8bd cffe 903d 4b49 043e
00000150: 6d48 9a3e 32fd dabd 3a0b 30be 3d08 aa3d
00000160: 8689 8bbd b7e6 e3bd e2a2 993d c389 c1bc
00000170: 9edc 98bc c02b b3be ccd5 06bd 645b b3be
00000180: 823e 1fbc 616c 413d 8549 0c3e 15cb 32bd
00000190: 0f4e efbd 90be 493e 8055 573e 438f b63c
000001a0: 5d6d f5bc 0e8f 3a3e 8c6e e13d 538c f33d
000001b0: 6b61 b83d b78d ca3c f670 04be 8ae6 853c
000001c0: ae3b 4abd a3e5 3ebe 7915 d5bc 9411 603e
000001d0: 94fe 89be c38c b43c f6fd 3dbc eebd 503d
000001e0: f108 063c 92fd fc3d e00a 1b3d 11d7 5c3e
000001f0: 3136 193e d920 f0bb 6648 063e 176d c43c
00000200: 3689 63bc 3c38 17be 2ebd 763d 794c 573c
00000210: 4449 dabd 3dc3 6f3d 239a a03d f19f 11bd
00000220: 43f8 14bd ab7c d3bd acee 983d 3b69 2a3e
00000230: 87f2 cf3c c90a 99bd 55a0 22bd 7d76 febd
00000240: de03 81bc 2b3c 65bd f38f 073e 1978 a3ba
00000250: 39ad b43c 40c9 d53a c85e 253e 2b62 c6bd
00000260: 7e6b 98be f58a 1fbb 7d9a f23d 5d72 6a3d
00000270: 07d0 3d3d 06a2 febd 2350 a4bd 1377 b13b
00000280: 0327 033c 82fe 84bb 9de2 cbbd 6a2c b3bd
00000290: c73a 2ebe 3de6 1b3c 43c1 893d 6d93 ef3d
000002a0: 10c1 843d d4da 903e 8cb8 2b3d a345 883e
000002b0: 6763 363e 7804 063d e7f8 663c d481 9b38
000002c0: 90bd 11be 0963 8f3d a65c c1bd ef3c 203d
000002d0: 145f 973d 9759 3ebd ab45 0ebd 5a6c efbc
000002e0: c3a0 bbbc e82b 4439 fc7b 8abe eb1b 2bbd
000002f0: 94c5 92ba 3446 d5bd 6b82 e2bd da25 2cbd
00000300: b19e 833d ec82 913b dd54 03be ae16 f63c
00000310: 0bf8 56be 90c5 17bd 156b 2cbe 505b 9dbc
00000320: 0d1f 78bd 8a46 b2bb 118a 1abe 25aa 373d
00000330: 9d0c 3fbd cc59 563d c150 e5bd 6999 6dbe
00000340: 0b00 29bd e590 a4bd fac3 153e ce24 9d3c
00000350: dd1e 4cbe bef0 edbd 277b 833b 7d7c aebd
00000360: 2483 563e 6c3d b1bb 948d 15bd a0ca 893d
00000370: 39ed 0e3e 52cb e53d 964d 95bd 843a 5cbd
00000380: cbbb edbd 0f9c 34bd 6c3b 003e c33f 3d3d
00000390: c522 84bd dc2d e03d 281e 1bbd 9e9e 0abe
000003a0: ae02 d8bd eb8f e73d c9a7 dc3d 4f03 85bb
000003b0: 8ac4 f2bd 722a 273b f47a 4c3d 1888 febd
000003c0: 43bc d93c 6b92 0ebd 126a e23c b492 06be
000003d0: ab03 643d 1e6d 1cbe 2b6a 843b a481 ee3d
000003e0: 791a 243e e27d fd3c 6e70 3b3e c249 3cbd
000003f0: 15f5 aeba f806 ad3c 54a2 1cbe c1a3 123e

bias_ih_l0 f4 [384]
0.109748535 -0.02758709 -0.0001250669 -0.05426502 0.009311101 0.082988545 0.07916738 0.032424837
0.054701608 0.028580438 -0.0014104933 0.04950836 0.024485156 0.068396 0.0503233 0.03814813
-0.107876025 0.02852233 0.08846656 -0.079590805 0.06404227 -0.03388742 0.012661742 -0.057711408
-0.1055562 0.13237435 -0.05466329 -0.039537106 0.03152188 0.01675477 -0.019943047 0.029901117
0.059113126 0.09092564 0.017873814 0.057529002 0.10029493 -0.025929773 -0.1174504 -0.052658133
-0.085170954 0.16174185 -0.009687599 0.12299625 -0.005868093 0.046800837 0.118600674 0.060481288
0.114445314 0.1450723 -0.08314401 -0.05174598 0.07328347 0.040461075 0.017097576 0.06109175
-0.017603956 -0.035381183 0.111411534 0.003459755 -0.04703229 0.056450423 0.02304185 0.005415284
-0.08727262 0.053281352 0.13150778 0.04059782 -0.16664779 0.07616213 -0.0037546102 0.081602365
0.073670514 0.030022059 -0.030257225 0.002623399 0.015046366 0.10053996 -0.08412897 0.08037275
-0.00519891 -0.116923794 0.011861595 0.04226885 0.111057915 -0.0030013106 0.09585223 0.056147724
-0.09239463 -0.0013722306 -0.014959814 -0.051302783 0.08999679 -0.008224759 -0.013167297 0.05620824
-0.07785504 -0.09154479 0.025198417 -0.047731455 0.09919376 0.1341403 0.018959302 0.028470073
0.098599605 -0.065686874 0.15367587 -0.010883517 0.12864138 0.052836664 0.118792236 0.05918785
0.022689758 0.053941593 0.014716312 -0.007191058 0.021976318 -0.0065447325 0.02478357 -0.009543786
0.01920821 0.15158398 0.034564763 -0.08142994 -0.07194418 0.13156295 -0.027747247 0.13677217
0.09435004 -0.023483885 0.098357186 0.23436113 0.20080878 -0.062099695 -0.043189563 0.11924196
-0.0019291211 0.26868176 0.005465416 0.05235656 0.062490325 -0.1739455 0.023195677 0.028897831
0.31305882 0.11524453 0.050437234 -0.027814966 0.015096029 0.22514664 -0.083381735 0.16020341
0.10355092 0.08599958 0.19526356 0.2953583 0.19929771 -0.08864452 0.058861937 0.2954432
-0.0042558834 0.275251 0.07957981 0.0029984114 -0.028390074 -0.017892703 0.12192826 -0.050762583
0.063046046 -0.03034038 0.3631932 -0.065664575 0.040856976 0.032432497 -0.18070498 0.42501858
-0.19654158 -0.03919766 0.05836101 0.15760706 0.0031838925 -0.050772436 -0.037944347 -0.03541219
0.037762802 0.06738385 0.041415308 -0.1841202 -0.07776498 -0.13363084 0.025157705 0.05023471
-0.12009973 -0.061157703 0.104853176 -0.051581528 0.16801046 0.22804119 -0.10162959 0.078149006
0.052980103 0.18987052 0.15173373 0.12550792 0.009018999 0.061445624 -0.038001355 -0.08840172
0.064669445 0.08405133 0.043582793 -0.04331524 0.015982678 0.23403876 0.2463674 0.296712
0.092453025 -0.054660928 -0.03802324 0.014044142 -0.19569723 0.023230689 0.024657289 -0.24569383
0.13141985 -0.010417993 0.09941139 0.14606905 -0.03361655 0.29285935 0.06086323 -0.22316562
0.12624736 -0.057004746 -0.028703943 0.14579377 0.23051544 0.17710611 -0.18410483 0.07254075
-0.08008286 0.11168626 0.3125748 -0.07000922 -0.14830296 -0.19965626 -0.048951797 -0.008287473
-0.12608735 -0.06845365 -0.15502387 -0.030899739 -0.112582535 -0.24554539 0.029134952 0.037556816
00000000: d7c3 e03d 52fe e1bc 6424 03b9 ff44 5ebd
00000010: 978d 183c e6f5 a93d 8222 a23d e8cf 043d
00000020: cb0e 603d 8621 ea3c 4de0 b8ba 47c9 4a3d
00000030: 1895 c83c 3413 8c3d ce1f 4e3d 3741 1c3d
00000040: 1bee dcbd a9a7 e93c f52d b53d 8100 a3bd
00000050: 9828 833d 89cd 0abd 3273 4f3c cc62 6cbd
00000060: d92d d8bd 248d 073e 9de6 5fbd a9f1 21bd
00000070: 161d 013d 4d41 893c 9a5f a3bc 30f3 f43c
00000080: 9b20 723d 3937 ba3d 1b6c 923c 88a3 6b3d
00000090: 6e67 cd3d ad6a d4bc d689 f0bd 0eb0 57bd
000000a0: 1c6e aebd a89f 253e bcb8 1ebc 75e5 fb3d
000000b0: 2249 c0bb 3cb2 3f3d e9e4 f23d 3abb 773d
000000c0: 4e62 ea3d d58d 143e 6847 aabd 98f3 53bd
000000d0: a515 963d 83ba 253d 3710 8c3c 583b 7a3d
000000e0: 2c36 90bc dceb 10bd bb2b e43d 0fbd 623b
000000f0: eea4 40bd 8f38 673d 43c2 bc3c b272 b13b
00000100: fdbb b2bd 8c3d 5a3d faa9 063e e649 263d
00000110: b8a5 2abe e4fa 9b3d e80f 76bb 241f a73d
00000120: 91e0 963d d2f0 f53c 00de f7bc 55ed 2b3b
00000130: 0885 763c e5e7 cd3d cf4b acbd 789a a43d
00000140: 9e5b aabb be75 efbd 2357 423c 1a22 2d3d
00000150: 5572 e33d a3b1 44bb 2d4e c43d 28fb 653d
00000160: 6539 bdbd 6bdc b3ba 021a 75bc de22 52bd
00000170: 3d50 b83d 24c1 06bc a5bb 57bc 9d3a 663d
00000180: 7772 9fbd d67b bbbd e96c ce3c 0f82 43bd
00000190: 1926 cb3d 135c 093e 8a50 9b3c 123a e93c
000001a0: 97ee c93d d786 86bd 355d 1d3e c750 32bc
000001b0: 91ba 033e 426b 583d 5849 f33d f66e 723d
000001c0: dfdf b93c dcf1 5c3d b01c 713c f7a2 ebbb
000001d0: ae07 b43c 3275 d6bb ea06 cb3c 8a5d 1cbc
000001e0: 895a 9d3c d538 1b3e c893 0d3d bec4 a6bd
000001f0: 7857 93bd 70b8 063e 324e e3bc 010e 0c3e
00000200: 983a c13d 4761 c0bc 7e6f c93d 5dfc 6f3e
00000210: d1a0 4d3e 405c 7ebd 8ae7 30bd 2135 f43d
00000220: 90da fcba a890 893e 3b17 b33b d573 563d
00000230: dbf5 7f3d c51e 32be dc04 be3c 25bb ec3c
00000240: 3f49 a03e 5305 ec3d 4697 4e3d 36dc e3bc
00000250: 5655 773c d78c 663e 0bc4 aabd 5d0c 243e
00000260: 8112 d43d 8c20 b03d 2cf3 473e 3439 973e
00000270: b314 4c3e 428b b5bd 3719 713d 5544 973e
00000280: f074 8bbb b3ed 8c3e bdfa a23d ff80 443b
00000290: 4d92 e8bc b893 92bc 86b5 f93d 6dec 4fbd
000002a0: 491e 813d 638c f8bc 76f4 b93e 267b 86bd
000002b0: a559 273d f0d7 043d ba0a 39be 099c d93e
000002c0: 3242 49be ba8d 20bd f40b 6f3d bf63 213e
000002d0: daa8 503b c2f6 4fbd 886b 1bbd 5f0c 11bd
000002e0: 2bad 1a3d 8b00 8a3d 19a3 293d 018a 3cbe
000002f0: 3f43 9fbd 86d6 08be 8817 ce3c e9c2 4d3d
00000300: d9f6 f5bd 8080 7abd 43bd d63d 2747 53bd
00000310: ef0a 2c3e a183 693e 2d23 d0bd 960c a03d
00000320: aa01 593d 6b6d 423e 1660 1b3e 2685 003e
00000330: 6cc4 133c 68ae 7b3d 4fa7 1bbd f60b b5bd
00000340: 6a71 843d 1b23 ac3d df83 323d 526b 31bd
00000350: 1bee 823c dba7 6f3e bc47 7c3e a3ea 973e
00000360: 0358 bd3d 23e4 5fbd 42be 1bbd 6719 663c
00000370: db64 48be 494e be3c 15fe c93c 2a97 7bbe
00000380: ed92 063e 3bb0 2abc 3398 cb3d 2093 153e
00000390: 82b1 09bd a9f1 953e b94b 793d 8785 64be
000003a0: fd46 013e cf7d 69bd 8824 ebbc f64a 153e
000003b0: 3d0c 6c3e 4e5b 353e fa85 3cbe 3f90 943d
000003c0: 7c02 a4bd c4bb e43d ce09 a03e fe60 8fbd
000003d0: bbdc 17be b172 4cbe ae81 48bd 2ec8 07bc
000003e0: 0b1d 01be 6d31 8cbd 94be 1ebe 7321 fdbc
000003f0: ac91 e6bd 4070 7bbe 6cac ee3c 2dd5 193d

bias_hh_l0 f4 [384]
0.04742774 0.012999615 -0.053228408 -0.122145884 -0.0006021709 0.01349591 0.009612529 0.018038427
-0.059404913 0.09641228 0.09357768 0.03927654 0.10875211 0.056143608 -0.06131818 -0.0985362
0.024953166 -0.0011810338 0.067149706 -0.083581634 0.01916745 -0.04808513 -0.032193124 -0.13462089
-0.04907748 0.08982688 0.029254705 -0.028422017 0.007007405 0.050824877 -0.057892285 -0.057823386
0.09562553 -0.035656523 0.015356702 0.00043023858 -0.018324075 -0.112177804 -0.08796626 -0.08172367
0.06694262 0.09340055 0.08130541 -0.03598639 0.06693098 -0.028662145 0.022077804 -0.033521213
0.03547889 0.08581193 -0.009427208 -0.13736156 0.15246382 0.100454144 0.063253954 0.024518743
0.047006417 0.03374784 0.14088766 -0.03354442 0.02291854 0.025719183 -0.016726445 -0.0077095293
0.06769442 0.0145901535 0.07853572 0.006125794 -0.079222605 0.08347869 0.02844332 0.0017048932
0.007448464 -0.060705036 0.10628929 -0.047454663 0.021872967 0.08798877 -0.08780571 -0.03257532
-0.011221028 -0.13254356 0.032527313 0.021453239 0.04892107 0.013476519 0.042713 0.003296491
-0.008736133 0.06919881 -0.06992402 -0.024524692 0.041104596 -0.10623227 -0.006908663 0.11751594
0.080178045 0.01712942 0.0019498093 0.035445523 0.044924807 0.042348426 -0.011668037 0.090164214
-0.00069725467 -0.103202276 0.14996678 0.05690669 0.03199834 -0.038494594 0.05166617 -0.08389203
0.07811382 -0.052707814 -0.04129978 0.12910372 0.0730265 0.08538407 -0.04997134 0.040219247
0.036037326 0.11845319 0.12108737 -0.034573484 -0.08297096 -0.015843105 -0.09489028 0.050624553
-0.001757188 -0.08123845 0.1783457 0.23784937 0.18341054 -0.10141477 0.036036298 0.26545992
0.08599771 0.26248097 -0.023318777 -0.009025319 0.034916908 -0.17728229 0.10957027 0.074341424
0.3014654 0.13290903 0.0339587 -0.15494153 -0.081693195 0.23515792 -0.024004167 0.050606284
0.009008657 -0.017442757 0.16611329 0.23216608 0.1663497 -0.01275988 0.027450103 0.21475066
-0.0067018797 0.3039929 0.016101152 -0.022260342 -0.0923288 -0.04016496 0.016589908 0.04909609
0.12595582 -0.16887812 0.3781076 -0.16009706 0.033754457 0.04472413 -0.18012643 0.29127863
-0.16870701 0.055645123 0.06872305 0.1347637 0.047739815 -0.041800745 -0.13026308 0.086404406
0.13508633 -0.0060845823 0.080894925 -0.112104535 -0.0717595 -0.10320961 0.04913589 -0.061726876
-0.12550804 -0.093328394 0.064446166 -0.06433612 0.15285964 0.22176772 -0.04393224 0.008400879
0.049900785 0.11688098 0.13569799 0.04392527 0.013627784 -0.0053539677 0.08036629 -0.1001336
0.15039335 0.08520823 -0.06904642 -0.0927111 -0.099584095 0.066746384 0.24131612 0.2609558
0.14746065 0.03386562 -0.029738914 -0.033683818 -0.1386417 -0.06707147 0.0041440064 -0.1419412
0.11645329 -0.043629758 0.20423424 0.2248359 -0.09058477 0.25979504 0.11275557 -0.09903035
0.19041385 -0.045803018 -0.12966542 0.0891982 0.13261518 0.18049875 -0.10217798 0.037314788
-0.049361568 0.21361569 0.17446947 0.02271277 -0.14262362 -0.032901075 0.0026621462 -0.055521697
-0.10307568 -0.0976545 -0.100609794 -0.029140536 -0.03789061 -0.20213705 -0.060820535 0.11309437
00000000: 9743 423d 56fc 543c 0806 5abd 9f27 fabd
00000010: 01db 1dba f31d 5d3c de7d 1d3c 53c5 933c
00000020: 9152 73bd cd73 c53d a8a5 bf3d 70e0 203d
00000030: 6db9 de3d d7f6 653d c628 7bbd 59cd c9bd
00000040: 956a cc3c ebcc 9aba c985 893d d92c abbd
00000050: 0e05 9d3c eaf4 44bd f0dc 03bd 0fda 09be
00000060: 7805 49bd 28f7 b73d 90a7 ef3c 4ad5 e8bc
00000070: 609e e53b bf2d 503d 7620 6dbd 37d8 6cbd
00000080: 51d7 c33d 930c 12bd ad9a 7b3c a591 e139
00000090: 5f1c 96bc 7abd e5bd a827 b4bd bd5e a7bd
000000a0: 3619 893d ca48 bf3d 7383 a63d 7766 13bd
000000b0: 1c13 893d e0cc eabc 83dc b43c 8a4d 09bd
000000c0: 5052 113d 2abe af3d 9474 1abc 82a8 0cbe
000000d0: 7a1f 1c3e e7ba cd3d 4a8b 813d 88db c83c
000000e0: cd89 403d 2d3b 0a3d db44 103e e065 09bd
000000f0: a9bf bb3c 09b1 d23c e605 89bc 38a0 fcbb
00000100: 5fa3 8a3d 8a0b 6f3c 56d7 a03d e2ba c83b
00000110: 763f a2bd e0f6 aa3d f701 e93c b976 df3a
00000120: 3f12 f43b d8a5 78bd 33ae d93d d25f 42bd
00000130: f02e b33c 7533 b43d 7bd3 b3bd b36d 05bd
00000140: 67d8 37bc 80b9 07be 5c3b 053d b4be af3c
00000150: 7661 483d 9ecc 5c3c d4f3 2e3d f109 583b
00000160: ff21 0fbc 1bb8 8d3d 5334 8fbd 02e8 c8bc
00000170: 4b5d 283d 4e90 d9bd 1162 e2bb 32ac f03d
00000180: 6334 a43d ff52 8c3c be90 ff3a 532f 113d
00000190: 1303 383d 8b75 2d3d 4b2b 3fbc 04a8 b83d
000001a0: f8c7 36ba b75b d3bd e490 193e fd16 693d
000001b0: b110 033d 82ac 1dbd e89f 533d 96cf abbd
000001c0: 23fa 9f3d 26e4 57bd f529 29bd c433 043e
000001d0: eb8e 953d d8dd ae3d bfae 4cbd f0bc 243d
000001e0: e09b 133d 9697 f23d a8fc f73d ed9c 0dbd
000001f0: aeec a9bd 66c9 81bc d655 c2bd b15b 4f3d
00000200: 7251 e6ba 5860 a6bd 41a0 363e c98e 733e
00000210: f9cf 3b3e 8cb2 cfbd cc9a 133d 5dea 873e
00000220: 911f b03d e863 863e 0507 bfbc eede 13bc
00000230: 0805 0f3d 7d89 35be 6166 e03d 5140 983d
00000240: ac59 9a3e 4e19 083e 4718 0b3d fea8 1ebe
00000250: c34e a7bd 3dcd 703e 63a4 c4bc 8948 4f3d
00000260: 0c99 133c 1de4 8ebc 9a19 2a3e f2bc 6d3e
00000270: 9357 2a3e d10e 51bc 0adf e03c 99e7 5b3e
00000280: 719b dbbb f5a4 9b3e 90e6 833c 525b b6bc
00000290: e216 bdbd 0384 24bd 8fe7 873c fb18 493d
000002a0: 90fa 003e 63ee 2cbe 5297 c13e 7cf0 23be
000002b0: 1d42 0a3d a630 373d 1073 38be 7922 953e
000002c0: 88c1 2cbe 24ec 633d acbe 8c3d 7fff 093e
000002d0: d38a 433d 4237 2bbd af63 05be cbf4 b03d
000002e0: 1254 0a3e 2d61 c7bb 3dac a53d 1097 e5bd
000002f0: a5f6 92bd 8f5f d3bd b742 493d 52d5 7cbd
00000300: 2e85 00be f522 bfbd 5afc 833d a8c2 83bd
00000310: 3d87 1c3e 1417 633e 4bf2 33bd d7a3 093c
00000320: c464 4c3d 4c5f ef3d 6af4 0a3e fcea 333d
00000330: 1247 5f3c 5670 afbb 1597 a43d d812 cdbd
00000340: b700 1a3e a781 ae3d 3668 8dbd 51df bdbd
00000350: bff2 cbbd 54b2 883d 931b 773e 009c 853e
00000360: edff 163e adb6 0a3d 069f f3bc 0bf8 09bd
00000370: 17f8 0dbe c45c 89bd 72ca 873b 0959 11be
00000380: 107f ee3d 1eb5 32bd c822 513e 623b 663e
00000390: 8284 b9bd db03 853e 64ec e63d 6dd0 cabd
000003a0: d9fb 423e f29b 3bbd 03c7 04be 8cad b63d
000003b0: 46cc 073e aad4 383e b042 d1bd 64d7 183d
000003c0: 5b2f 4abd 12be 5a3e 20a8 323e 2210 ba3c
000003d0: ed0b 12be 47c3 06bd 6777 2e3b b86a 63bd
000003e0: 5819 d3bd 15ff c7bd 820c cebd 22b8 eebc
000003f0: 2f33 1bbd 04fd 4ebe f41e 79bd 059e e73d

weight f4 [16, 128]
0.11017167 -0.098652765 0.37081876 0.25785398 -0.20232081 0.2632321 -0.4323225 -0.041187517
0.08954894 -0.03836485 -0.6227202 -0.4942718 -0.16397534 -0.5543785 -0.2779323 0.23270538
-0.14270927 -0.3375495 -0.36985776 0.31060573 -0.0009806181 0.38563937 -0.34377426 -0.00469983
-0.05178683 0.36120915 -0.17666394 0.3265072 0.2645241 -0.30848 -0.25209162 0.24667734
-0.039652795 0.29929435 0.71479833 -0.13373193 0.07288345 -0.14340684 0.03551511 0.17579351
0.34372216 0.18459763 0.6189416 -0.12906522 -0.32600912 -0.15743953 0.524127 -0.56314963
-0.30984122 -0.306145 0.2832303 -0.051772885 -0.39923993 -0.10607186 0.37539437 -0.23408961
-0.2533247 0.3242019 0.42424455 0.33038577 0.17097202 0.08790664 0.09897363 0.14071773
0.29348367 -0.0008436307 -0.027641442 -0.012148974 0.31834388 0.36384314 -0.4319927 0.2675976
0.047966897 -0.062504075 -0.04166745 -0.0831271 0.232257 0.58838564 0.37634793 -0.3667614
0.4005488 0.026710428 -0.15407443 -0.26902035 0.11680045 -0.15731402 0.3164143 -0.18191831
0.06615894 0.19301794 -0.09411217 -0.28360626 0.43013224 -0.038452957 -0.09882608 0.37503645
0.16847374 -0.36747175 -0.3342891 0.4017681 -0.054814808 -0.29212567 -0.03925636 0.4668033
0.23742428 -0.021809425 -0.30672282 -0.25150186 -0.2111269 0.1487221 0.5206348 -0.40291613
-0.31527263 -0.3303068 -0.2332459 0.054538596 0.2931752 -0.08655837 0.40710372 -0.5352585
0.18825813 -0.028619051 -0.31597194 0.011211305 -0.42859074 -0.35847294 -0.09470923 0.2536778
-0.23804605 0.084866785 -0.031719204 -0.083919555 0.218554 -0.12710401 -0.018211095 -0.04027879
0.014089977 0.048967276 0.1403805 0.1719642 0.035738353 0.0015346312 0.1510158 -0.11967688
0.03180279 0.13759889 -0.06980316 -0.031118572 0.09902218 -0.0022340238 0.15802698 -0.1351636
0.10455674 -0.14965972 0.029013842 -0.14739785 -0.07115873 0.054362755 0.0013428803 0.040501148
-0.10017287 -0.050737217 0.14732412 -0.06658726 -0.16773386 -0.09709065 -0.09306012 0.16976848
-0.101835184 0.01059024 0.04884649 -0.12675036 0.22680248 0.11408889 -0.14613943 -0.03012434
-0.022038335 0.19369915 0.001151647 -0.19639617 0.024898771 0.12424703 -0.0016246884 0.1515142
0.1517649 -0.15161158 -0.032487083 -0.030608568 -0.030421931 -0.20234674 -0.09495414 -0.017263904
0.18981305 -0.06591345 -0.085446075 0.12048667 -0.11195375 -0.10533455 0.07045687 0.032359734
-0.16287184 0.0218203 0.0550316 0.16152433 0.17365973 -0.009326288 -0.1416901 -0.11424573
-0.15934262 0.04949586 -0.044984624 0.23362735 -0.037132204 -0.18589465 -0.123043075 0.20412719
0.0628759 0.010681843 0.055828303 0.00029472655 0.14055449 0.008318304 -0.0365762 -0.003606453
-0.08436975 0.13895574 -0.011325386 0.045624774 0.2850874 -0.11469312 0.07510506 -0.14947325
0.0029424133 0.10378904 0.05891955 -0.061962377 -0.01908776 0.13028677 -0.14132504 0.007223017
0.22850403 0.11533218 0.12617996 -0.026266314 -0.009983245 -0.14253725 -0.1937656 0.10853181
0.08303746 0.1334243 -0.08406635 0.27359474 -0.16231534 0.10838147 0.062125992 0.01557943
00000000: afa1 e13d 760a cabd f5db bd3e 7005 843e
00000010: 302d 4fbe 5cc6 863e 6059 ddbe 3eb4 28bd
00000020: 6f65 b73d 7624 1dbd 976a 1fbf 3211 fdbe
00000030: 27e9 27be c0eb 0dbf 244d 8ebe 524a 6e3e
00000040: 6122 12be 4ad3 acbe ff5d bdbe b707 9f3e
00000050: 1588 80ba 8672 c53e 2e03 b0be 0801 9abb
00000060: 6d1e 54bd 68f0 b83e 64e7 34be f42b a73e
00000070: b46f 873e 17f1 9dbe 2712 81be fc98 7c3e
00000080: f86a 22bd 1c3d 993e 06fd 363f 06f1 08be
00000090: eb43 953d 3ed9 12be 4b78 113d 3703 343e
000000a0: 5afc af3e 2907 3d3e f572 1e3f ac29 04be
000000b0: abea a6be d437 21be 302d 063f 932a 10bf
000000c0: 82a3 9ebe 0abf 9cbe 9003 913e ce0f 54bd
000000d0: 2d69 ccbe 343c d9bd b133 c03e 30b5 6fbe
000000e0: c6b3 81be cbfd a53e 9536 d93e 5328 a93e
000000f0: 4a13 2f3e 6508 b43d b0b2 ca3d 4f18 103e
00000100: 7e43 963e 1927 5dba 4e70 e2bc 7e0c 47bc
00000110: f8fd a23e a649 ba3e 262e ddbe 8d02 893e
00000120: f078 443d 2302 80bd 7dab 2abd 8a3e aabd
00000130: c7d4 6d3e 71a0 163f adb0 c03e 26c8 bbbe
00000140: bb14 cd3e d4cf da3c b0c5 1dbe 09bd 89be
00000150: 1335 ef3d ed16 21be 0e01 a23e cb48 3abe
00000160: 577e 873d 7fa6 453e e2bd c0bd d734 91be
00000170: 4b3a dc3e d980 1dbd 5465 cabd c704 c03e
00000180: 6184 2c3e 4225 bcbe f127 abbe 8cb4 cd3e
00000190: 7e85 60bd 7f91 95be 47cb 20bd d800 ef3e
000001a0: 5a1f 733e aea9 b2bc c60a 9dbe dac4 80be
000001b0: a631 58be 9b4a 183e 5248 053f 064b cebe
000001c0: 6a6b a1be f91d a9be 03d8 6ebe dd63 5f3d
000001d0: 0f1b 963e 8445 b1bd e66f d03e b306 09bf
000001e0: bdc6 403e 8072 eabc 13c7 a1be 9faf 373c
000001f0: 3f70 dbbe c489 b7be eaf6 c1bd 0ee2 813e
00000200: 58c2 73be a3ce ad3d ffeb 01bd 04de abbd
00000210: 9fcc 5f3e 8e27 02be 6f2f 95bc 5ffb 24bd
00000220: a6d9 663c e991 483d e8bf 0f3e 6217 303e
00000230: 6162 123d ae25 c93a e3a3 1a3e 2719 f5bd
00000240: a443 023d b9e6 0c3e f6f4 8ebd 60ec febc
00000250: 24cc ca3d b368 12bb d3d1 213e 5468 0abe
00000260: d821 d63d 6640 19be 70ae ed3c 76ef 16be
00000270: abbb 91bd 7bab 5e3d 9603 b03a 88e4 253d
00000280: 6f27 cdbd d4d1 4fbd 22dc 163e e75e 88bd
00000290: 6dc2 2bbe 76d7 c6bd 4e96 bebd cad7 2d3e
000002a0: f78e d0bd b082 2d3c 4213 483d d9ca 01be
000002b0: e93e 683e 70a7 e93d 93a5 15be 52c7 f6bc
000002c0: bd89 b4bc 1259 463e dcf2 963a 141c 49be
000002d0: 82f8 cb3c 3a75 fe3d 7ff3 d4ba 8a26 1b3e
000002e0: 4268 1b3e 1140 1bbe 2d11 05bd d2be fabc
000002f0: 6a37 f9bc fc33 4fbe 5177 c2bd 086d 8dbc
00000300: 5a5e 423e a2fd 86bd 5afe aebd b7c1 f63d
00000310: 0248 e5bd a4b9 d7bd b14b 903d a48b 043d
00000320: e0c7 26be 7cc0 b23c d168 613d a266 253e
00000330: dbd3 313e 49cd 18bc 3617 11be aaf9 e9bd
00000340: b62a 23be 2cbc 4a3d cc41 38bd 023c 6f3e
00000350: f017 18bd 2b5b 3ebe 02fe fbbd b806 513e
00000360: 14c5 803d e602 2f3c 38ac 643d 8785 9a39
00000370: 84ed 0f3e 7f49 083c edd0 15bd 3e5a 6cbb
00000380: 0cca acbd 6a4a 0e3e 1d8e 39bc 0be1 3a3d
00000390: faf6 913e 3ae4 eabd afd0 993d 840f 19be
000003a0: 81d5 403b 598f d43d a055 713d 43cc 7dbd
000003b0: ef5d 9cbc e569 053e 83b7 10be 0faf ec3b
000003c0: f6fc 693e 4733 ec3d 5235 013e 742c d7bc
000003d0: c490 23bc 49f5 11be 7d6a 46be ed45 de3d
000003e0: 8b0f aa3d 61a0 083e fa2a acbd 9c14 8c3e
000003f0: fe35 26be 1bf7 dd3d d377 7e3d de40 7f3c

bias f4 [16]
-0.44945666 0.11763702 0.02494595 0.051372077 0.050465275 -0.03396343 0.04864043 -0.065986566
0.081595644 0.063877314 -0.104496524 -0.024335138 -0.02628353 -0.045423318 -0.15886481 -0.29262927
00000000: 2f1f e6be aeeb f03d 735b cc3c 876b 523d
00000010: adb4 4e3d 3d1d 0bbd 303b 473d f723 87bd
00000020: 9e1b a73d 1cd2 823d 4602 d6bd 7c5a c7bc
00000030: 8f50 d7bc cd0d 3abd 75ad 22be 81d3 95be
