checkpoints/beat_encoder.pth (torch_old, 308661 bytes, 4 tensors)

weight_ih_l0 f4 [384, 64]
000000 d2 56 38 be 9e 79 2e 3d 21 92 97 bc d1 ba d3 3c
       -0.1800187 0.042596452 -0.018502297 0.025845917
000010 85 38 ab 3d 60 92 58 3c 8a eb 38 3c 39 25 15 be
       0.083603896 0.013218492 0.011286626 -0.1456498
000020 ad 36 89 bd cd a4 03 be fb 29 c6 3d fd 13 b2 3c
       -0.06699882 -0.12855835 0.09675976 0.021738047
000030 d0 73 46 be eb 0b 27 be 14 b4 3f bd e8 bd 57 bd
       -0.19380116 -0.1631314 -0.046802595 -0.052671343
000040 0a 26 3a bd 9d 92 c4 bc 82 41 86 bd e2 0d 6b bd
       -0.045446433 -0.023995692 -0.065554634 -0.057386287
000050 bf e3 26 be 64 0d 8d bc aa 40 6f 3d a0 a6 fb 3d
       -0.16297816 -0.0172183 0.058411278 0.122876406
000060 64 2f 12 ba 26 fe 45 bb 0f 84 64 3d 5f 6a 48 3b
       -0.000557652 -0.0030211299 0.055790003 0.003058098
000070 1d 24 dc 3c fc 05 b6 3c 21 24 ec bd 0d 45 a6 bd
       0.026872689 0.02221965 -0.115303285 -0.08118639
000080 9a 08 98 be b8 10 76 3d 57 4f ae 3d 51 e0 71 bd
       -0.29694062 0.060074538 0.085112266 -0.059051815
000090 07 aa 9d 3d fb 46 b7 3d cd 56 0b bd c7 ff 78 3d
       0.07698446 0.08949085 -0.034018327 0.060790803
0000a0 91 d2 4d bd 5e 39 dc bc 74 24 cd 3c 2b 0b af 3c
       -0.05024964 -0.026882824 0.025041796 0.02136763
0000b0 2b d0 b3 3b 2b 0a 88 bd 5a 01 90 3d 61 d3 63 bd
       0.005487462 -0.066425644 0.07031508 -0.05562151
0000c0 2c da ec 3d 60 88 25 3d e2 24 2a 3e 74 0b d2 3c
       0.115650505 0.04041326 0.16615632 0.025640227
0000d0 8b fc b2 bd df 11 49 bd 75 67 50 3c 8c 51 c7 3d
       -0.08739575 -0.04908931 0.012719979 0.09732351
0000e0 85 41 a9 bd 14 2d 81 3a e3 ff de bc 8b 96 8a bc
       -0.0826445 0.0009855353 -0.027221626 -0.016917488
0000f0 9a 16 6c bc 7a d1 34 3d 4e e4 20 be 15 f9 da bd
       -0.0144096855 0.044145085 -0.15712091 -0.1069204
000100 d7 3e 80 3c 96 5c a5 3b 20 93 87 3d 1f 59 ac bd
       0.015654964 0.0050464375 0.06619859 -0.08415436
000110 36 a6 ae bd 9f 52 0c 3d 92 99 0e bc 29 5c d3 bc
       -0.08527796 0.03425848 -0.008703606 -0.025800781
000120 53 86 44 bc 54 6f 6d 3e 9a a3 c7 3d fe 8a c2 3d
       -0.011994916 0.23187 0.097480014 0.09499167
000130 3c c0 ae bd bb fd e3 bd 13 3e 6f 3c d1 50 92 bd
       -0.085327595 -0.111323796 0.014602202 -0.07144321
000140 49 f7 9c 3c 15 af 47 3e e2 2f c2 3c 8d f9 0f 3d
       0.019160884 0.19500382 0.023704473 0.0351501
000150 ad 9a 81 3d a4 61 30 3e e7 3f 3a 3d e5 29 43 3e
       0.0632833 0.17224747 0.0454711 0.1905895
000160 55 93 10 3e ee db 8b 3e 19 28 bd 3c 3f 22 25 3c
       0.14118703 0.2731623 0.02309041 0.010078966
000170 39 59 47 be d7 58 b7 3c 88 75 c7 3d 41 76 bb 3d
       -0.1946763 0.02238123 0.09739214 0.091534145
000180 91 7e 81 bd 63 5b ec 3c 37 22 0b bd 56 02 9c 3d
       -0.06322969 0.02885217 -0.033968177 0.07617633
000190 2d 8e 7b bd 8d 90 b5 3d ec c7 56 bd 44 d0 92 3d
       -0.061414886 0.088654615 -0.052436754 0.0716863
0001a0 c7 fb 64 3e ae ec 00 3e b3 0c 88 3d 50 85 b4 3c
       0.2236167 0.12590286 0.06643047 0.022036225
0001b0 c8 ca 5e be 4f 6f 84 bd 83 e2 71 3d b7 a5 9b 3d
       -0.21757042 -0.06466543 0.05905391 0.07599967
0001c0 13 15 75 bc 47 64 20 3d f7 18 e3 bd 7a 1e 8b 3d
       -0.014958638 0.039158132 -0.11088746 0.06792922
0001d0 1d bf 06 3e e3 87 52 3e 85 7a 26 3e d1 76 9a 3d
       0.13158841 0.20559649 0.16257675 0.07542194
0001e0 a8 b6 83 3d 29 d8 40 3e 34 1c c9 3d 27 94 24 3c
       0.06431323 0.18832459 0.098198324 0.010045088
0001f0 3f d6 b9 bd a2 e9 0f 3e 64 cc 15 ba f0 38 11 3d
       -0.09074067 0.14053968 -0.00057143555 0.03545469
000200 8c be d8 3d 76 3c 31 3c ca 80 91 bc 84 f0 98 bd
       0.10583219 0.010817638 -0.017761607 -0.0746775
000210 d6 bb c7 bc 1c 59 e4 bc c3 a5 18 bd 99 ca 28 bd
       -0.02438156 -0.027874522 -0.037267458 -0.041208837
000220 58 ab 41 bc c1 e7 84 bc c7 ac 63 3d db ab 53 3d
       -0.011820637 -0.01622379 0.055584695 0.051677566
000230 1d 59 0d bd 4b 39 6a bc 58 f1 4c bb 4d 04 a0 bd
       -0.034508813 -0.014295886 -0.0031271782 -0.0781332
000240 66 04 bb bd 55 de 46 bd 93 76 a7 bd b9 55 c7 3d
       -0.09131698 -0.048551876 -0.08176913 0.09733147
000250 ee d0 01 be 7d 79 05 be 31 bf ce 3c 76 4b 6d bd
       -0.12677357 -0.13034625 0.025237652 -0.057933293
000260 9f 67 95 bd 94 78 46 bd 87 96 06 bd 6b f8 34 3d
       -0.07295155 -0.048454836 -0.032858398 0.044182222
000270 d2 cb ca 3d a8 52 41 3d bd 9b 94 3d 9f 96 c4 bb
       0.09902157 0.047197968 0.07256267 -0.0059994007
000280 28 f6 10 3e 57 13 45 bd 10 a3 48 bd 8d 90 ef 3b
       0.14156401 -0.048114147 -0.048983634 0.007310933
000290 c7 59 82 3d f3 5f 69 bd 61 64 fa 3d 9f 26 8b bc
       0.0636478 -0.05697627 0.12226177 -0.01698619
0002a0 9f 55 e5 bc 7c de a8 bd 61 98 a4 bc a8 6d 07 bd
       -0.027994929 -0.082455605 -0.020092191 -0.03306356
0002b0 38 48 b5 3d 57 06 d8 3c 98 c6 5e bd 25 c0 74 bd
       0.08851665 0.02637021 -0.054388613 -0.059753556
0002c0 76 4b b4 bd 43 44 9c bb fa a5 8e bd f1 81 ea 3d
       -0.088034555 -0.0047688796 -0.06965251 0.114505656
0002d0 15 37 e0 bd 1f 52 57 bd ca 8d 90 bd cc 92 26 3d
       -0.10948006 -0.05256855 -0.07058294 0.04066734
0002e0 0b 30 8a 3b 36 2b 73 3d fb ff ed bc 16 1e a6 ba
       0.004217153 0.05936738 -0.029052725 -0.0012673761
0002f0 6d 22 66 3d 5e fe 9f 3d 56 28 58 3d ce 41 c8 bd
       0.056185175 0.078121886 0.052772842 -0.09778176
000300 57 f8 da 3c 14 ae 9d bd 97 05 c0 3d ad ad 94 3d
       0.026729746 -0.076992184 0.09376066 0.072596885
000310 e7 fe 50 3d bd 81 e7 3c 6e 36 19 3d 5c 0e ee bd
       0.051024344 0.028260106 0.037405424 -0.116238326
000320 b0 32 ab bd 71 c5 83 bd ed 63 c8 bc 37 b1 e8 3c
       -0.08359277 -0.06434143 -0.02446171 0.028404815
000330 64 50 0a bb 54 8d 59 bd 52 62 87 bd be 93 03 3d
       -0.0021105045 -0.053113297 -0.0661055 0.03212332
000340 2c 54 e6 bc 0b 9e bb bd 15 08 76 3d db 1d 74 3d
       -0.028116308 -0.09161004 0.0600663 0.059598785
000350 66 e2 96 3d 6c 6b 2c bd 88 90 0a 3d 32 46 8d 3d
       0.07367401 -0.042094633 0.033829242 0.06898154
000360 56 7b ca bb 9e fc 92 3c 97 ca f3 3d c4 d5 9b bd
       -0.0061792536 0.017942723 0.11903875 -0.07609132
000370 56 de 99 bc 28 15 d8 bc 53 aa 74 bd ce 69 03 bd
       -0.018782776 -0.026377276 -0.059732746 -0.032083325
000380 c5 07 9a 3d b9 fd 2e bd 89 6b 03 3e 13 73 8b 3d
       0.07521013 -0.042722438 0.1283399 0.06809058
000390 d6 25 ce 3c 52 ab 85 3d 6c 35 cc 3d dd 51 e8 bd
       0.025164526 0.065268174 0.09971127 -0.11343739
0003a0 64 a8 c5 bb 31 ba ad bc 1a 58 9a 3d 33 bd 82 bd
       -0.0060320366 -0.021206947 0.07536335 -0.06383743
0003b0 26 aa e8 3d a4 a9 83 bd 88 4e af 3b 72 2f c6 bd
       0.11360578 -0.06428841 0.005349938 -0.09677018
0003c0 41 db 55 3d 6d 5a 72 bd 98 1e 91 3d 30 4e b6 3c
       0.05221105 -0.059168268 0.070859134 0.02225408
0003d0 56 99 a4 3d c1 2b d2 3c f0 b7 2c 3d 52 49 bd 3c
       0.08037059 0.02565563 0.042167604 0.02310625
0003e0 27 1a 43 3c 5f 53 c1 3d b3 fb 99 3d 3c 6e bf 3d
       0.011908091 0.0943973 0.07518711 0.093471974
0003f0 33 1f 8c 3d 88 a3 fd bd 67 1c 66 3c 41 5e c6 bd
       0.06841888 -0.12384707 0.014044858 -0.09685946

weight_hh_l0 f4 [384, 128]
000000 f9 e5 96 bd 95 cd 79 bd d0 df a3 bb a4 07 b8 3a
       -0.073680826 -0.060987074 -0.0050010458 0.0014040363
000010 09 71 c3 bc 23 b9 d5 3a b3 8e 1c bd 04 4c a4 bd
       -0.02385761 0.0016305785 -0.038222026 -0.08022311
000020 64 e4 08 3e ac 8e d5 3c b3 26 8f bd 7f 54 13 be
       0.13368374 0.026069008 -0.06989803 -0.14387701
000030 36 69 53 bd ca 4c 1d 3d 1c 75 83 3d 39 41 a9 bc
       -0.05161401 0.03840331 0.06418821 -0.020660983
000040 ad ed 58 3d ae 2e 10 3e 9f 81 33 3d a9 53 58 3d
       0.05296104 0.14080307 0.04382479 0.05281416
000050 20 d1 80 bd 91 be 05 be e3 ae 30 bd 69 4d 18 3d
       -0.062898874 -0.13060977 -0.043135535 0.0371832
000060 ba d3 95 bd 43 e6 10 be 6d 9a 37 bd 0c 45 97 bd
       -0.07315774 -0.14150338 -0.044825006 -0.073862165
000070 04 f3 66 ba ec 2d 98 bd a3 26 2c 3a 63 4d a6 bc
       -0.0008810016 -0.07430634 0.00065670366 -0.020300573
000080 55 59 ad 3d 84 c1 14 3d b5 6d e1 3c 2c 6e 17 be
       0.08464304 0.036317363 0.027518133 -0.14788121
000090 df 00 4e 3e 5f fc 8b 3d d3 86 f8 bd 6a 7b 82 3d
       0.2011752 0.06835245 -0.12135091 0.063711956
0000a0 93 b7 dc bd d1 29 cc bb bd 4b 24 be 2a b0 d4 bc
       -0.107772015 -0.006230571 -0.16044517 -0.025962908
0000b0 f8 c8 5c bd 87 e7 5f bd f6 e6 60 bc 90 81 1f be
       -0.053902596 -0.05466416 -0.01372694 -0.15576768
0000c0 83 fb 5d 3d 0e 14 e3 3c 0f 03 2d 3d 95 46 25 bb
       0.05419494 0.027719524 0.042239245 -0.0025219072
0000d0 66 10 b7 3d a9 90 25 be 25 1c e4 3d f6 66 a1 3d
       0.08938675 -0.16168465 0.11138181 0.07880966
0000e0 24 e4 04 be f1 9a 8f bb 64 82 cf 3d 0e 81 4d 3c
       -0.12977654 -0.004382484 0.10132292 0.012542976
0000f0 2a 81 e0 bd a5 3b 38 3d 37 74 49 3d 06 a5 4f 3d
       -0.10962136 0.044978756 0.049183097 0.050694488
000100 19 f7 2c 3d d3 c7 92 bc f7 86 3e 3c b1 b1 d5 bd
       0.04222784 -0.01791755 0.011628858 -0.104342826
000110 5d b5 a4 3d 18 3e b7 bd 9c 7b dc bb ce 66 97 bd
       0.08042405 -0.0894739 -0.0067286026 -0.07392655
000120 94 75 ad bd 0c 36 9d bb 57 db 57 3d db 1d ae 3d
       -0.08469692 -0.0047977027 0.052699413 0.08501788
000130 16 fc 04 bd 9f af 3e 3d 03 4f 49 3d a2 dd 90 3c
       -0.03246697 0.046554204 0.049147617 0.017683808
000140 91 7c 72 3d 55 71 b4 bc d5 42 cb 3b 15 a6 19 3c
       0.059200827 -0.022026697 0.0062030354 0.009377976
000150 c0 e2 bc bd 9d 93 f8 3d 74 8c f2 bd 16 e1 a1 3d
       -0.09222937 0.1213753 -0.118431956 0.0790426
000160 7b 70 7e 3b 06 2b b1 bc d4 21 2a 3e 4e 9a b8 bc
       0.0038824368 -0.02162696 0.16614467 -0.022534516
000170 f6 dc 86 3d e3 6c 2e 3d 91 11 52 bc 4b d8 61 bd
       0.06585114 0.04258431 -0.012821571 -0.055137914
000180 55 3e c6 3d c3 fb eb bd 32 0f 12 3c 8f d1 c1 3c
       0.09679858 -0.11522629 0.008914756 0.023659496
000190 8e 3b d7 bc 54 29 25 3d 65 8b 11 3d 7a e0 a3 bd
       -0.026273515 0.040322617 0.035533328 -0.080018
0001a0 63 7f 40 bd cf d4 2c be 5e 49 09 be 44 26 8e 3d
       -0.046996485 -0.16878055 -0.13406894 0.06940892
0001b0 53 59 3c 3d c6 3b fb bd 32 c4 ae 3d bb ca 94 ba
       0.045983624 -0.1226726 0.08533515 -0.0011351922
0001c0 2c 13 c1 3d e9 0d 87 3d 49 86 70 3d 1b 91 cb bd
       0.09427485 0.0659445 0.058721814 -0.09939786
0001d0 90 f4 48 bd 53 ca dc bd f3 68 90 bb 67 6b 03 bc
       -0.049061358 -0.10780778 -0.004407042 -0.008021212
0001e0 fe 2a f4 3c c4 28 05 3e 27 f9 03 bd d2 9e 2e 3e
       0.029805657 0.13003832 -0.032220032 0.17052773
0001f0 f4 e5 78 3d 46 3f 51 bc 55 54 a5 bd 58 ae 03 be
       0.060766175 -0.012771433 -0.08072726 -0.12859476
000200 79 b6 dd bd bc b4 80 3d d3 72 15 3e 84 02 b1 bd
       -0.108258195 0.06284472 0.14594583 -0.08643058
000210 d8 ce 40 be 38 f4 cf bc 75 7e 1b 3c f5 3f 28 3e
       -0.18828905 -0.025385007 0.009490599 0.16430648
000220 32 28 b0 bd 07 40 bc 3d 7b 35 e0 bc ea fa 93 3d
       -0.08601417 0.091919 -0.027369251 0.072255924
000230 7a 93 06 3e fb eb 87 bc 67 7c 36 3c ad 33 7a bd
       0.13142195 -0.016592016 0.011138058 -0.061084438
000240 f7 0e 73 3d a5 62 0b bb 85 48 6e 3c 19 78 0b be
       0.059340443 -0.0021268514 0.014543657 -0.13620032
000250 ff 78 c0 3c 6c 14 b1 bb c7 5a b8 bd 6e a8 45 3c
       0.023495195 -0.005404046 -0.090016894 0.012064083
000260 19 a9 da bd b3 f0 c1 3c c3 0b d5 ba 60 ac d7 3c
       -0.10676784 0.023674345 -0.0016254116 0.026327312
000270 f5 9f 32 bd 37 76 ac bd 27 33 cd 3d d9 6e 89 bd
       -0.04360958 -0.08420985 0.10019522 -0.06710596
000280 d6 8e e5 3d be 57 05 3d dd bd 00 3e 41 4d ea bd
       0.112088844 0.03255438 0.12572427 -0.11440516
000290 9a fc fe ba 06 d8 8b 3e 2f 9a 90 bd c8 90 b9 bd
       -0.0019453943 0.2731325 -0.07060658 -0.09060818
0002a0 71 b4 c2 bd c8 11 27 be 64 5e 80 bd d3 72 02 ba
       -0.09507073 -0.16315377 -0.062680036 -0.00049762166
0002b0 d5 7e 91 bc ef 0c 10 3e 57 94 80 bd 04 6e a5 3d
       -0.017760674 0.14067434 -0.062782936 0.080776244
0002c0 b3 f4 11 be 1b 12 86 3d 9e ef 95 bd 42 0c 02 3c
       -0.14253502 0.06546422 -0.07321094 0.007937493
0002d0 d5 98 37 bd 6b 11 c3 3c 46 92 fe bd f1 5d 43 be
       -0.044823486 0.023812016 -0.12430243 -0.19078805
0002e0 5a 80 4a 3e 02 5a 35 bc c5 af fe bc 07 40 e7 bd
       0.19775525 -0.011068823 -0.031089673 -0.11291509
0002f0 fa de cb bd 70 ec bf bc 5d 3c 08 bd 31 ea 8a 3d
       -0.09954639 -0.023428172 -0.033260692 0.0678295
000300 8b a7 95 3c 8d 18 32 bd f4 fa 11 bd 0e 51 a2 bd
       0.018268367 -0.043480445 -0.03563972 -0.07925616
000310 67 9d 8c 3d 63 3a 56 3e 41 e7 09 3e 5b 3d d6 bd
       0.068659596 0.2092071 0.13467123 -0.104609214
000320 64 a2 07 3c 38 48 27 bc d9 11 51 38 48 5f 2f bd
       0.008278463 -0.010210089 4.9846105e-05 -0.042815477
000330 ad e3 ce bd c6 e1 fc bb a6 e7 5a 3c 4a 7d 90 3d
       -0.101020195 -0.007717344 0.013360893 0.07055147
000340 10 1c 01 bd 23 86 2f be 1c d0 5a bd 87 66 fe bd
       -0.031520903 -0.17141013 -0.053421125 -0.12421899
000350 e0 36 bc 3c 23 17 bb bd a1 5f 70 bc d5 b4 f2 bd
       0.022975385 -0.09135272 -0.014671237 -0.11850897
000360 31 a9 4a 3d ec e4 af ba f3 3d 38 bd af 6c 3c 3d
       0.04947776 -0.0013419664 -0.044980954 0.046002086
000370 c5 51 14 be 70 29 3a 3c bb b3 f5 bc 8f 15 98 3d
       -0.14484318 0.0113624185 -0.029992929 0.07425987
000380 1e a9 16 be cc 70 c0 3d d7 07 de bc 63 29 02 3e
       -0.1471295 0.09396514 -0.027103348 0.127111
000390 ed ca ed 3d e3 14 f4 3d d8 55 14 3e e5 da 73 3b
       0.11610971 0.11918046 0.14485872 0.0037209329
0003a0 26 04 cf bc 55 88 95 3d 7c ea 7f 3d 3f 46 53 3d
       -0.025270533 0.07301394 0.06247948 0.051580664
0003b0 58 fa 63 bd 59 32 e1 bd c1 56 c5 bd 12 5c 05 3e
       -0.05565867 -0.10995931 -0.096356876 0.13023403
0003c0 67 48 1c 3e 62 b2 60 bd 80 34 1e bb 94 02 8a bc
       0.15261994 -0.05485762 -0.002414018 -0.016846932
0003d0 a8 61 3c bd 5a 97 0c bd 46 8f ad bd 5d 17 1f bd
       -0.04599157 -0.034324028 -0.08474593 -0.03884064
0003e0 14 59 14 3e b3 a0 49 bc 84 86 1a 3e 40 2b e0 3b
       0.14487106 -0.01230638 0.15090376 0.0068410933
0003f0 c8 1f 62 3e 25 bb 50 bd d8 11 f4 bd 5c b0 35 3d
       0.22082436 -0.050959725 -0.11917466 0.044357643

bias_ih_l0 f4 [384]
000000 d1 ec 4c 3c df fd 0c 3e 7a 74 3e bc af 97 a0 bd
       0.012507633 0.13768719 -0.01162445 -0.07841431
000010 5c b2 7c 3d 40 35 36 bd 74 12 c9 bd 67 82 8b bd
       0.061693534 -0.044484377 -0.09817973 -0.06811982
000020 2a f9 57 39 65 de 06 3d a3 69 9e 3d 61 e1 63 3d
       0.00020596819 0.032926936 0.07734992 0.05563486
000030 fb a7 7f bd 4b 3c 38 bc 78 f4 0e bd 66 0b 01 3e
       -0.062416058 -0.011244844 -0.034901112 0.12602004
000040 ac e3 d6 bd f2 98 5b 3c d4 02 08 3d 35 ae 80 bd
       -0.10492644 0.013403164 0.033205822 -0.06283227
000050 e4 4f 74 bd da 94 04 bd f7 dd 4d bb 77 68 00 bd
       -0.059646502 -0.03236852 -0.003141282 -0.031349625
000060 5f 7c ce bd bd f5 4c bd 39 24 13 3d bf 23 9a bc
       -0.10082316 -0.05003904 0.035923216 -0.018815873
000070 a4 95 b1 3d ba 3b a2 3c 24 3a 99 3d 31 24 93 3d
       0.0867112 0.01980387 0.074817926 0.07184637
000080 39 36 4c bc ca d8 10 3d c5 9a 4b 3d be 97 2a be
       -0.0124641 0.035362996 0.049708147 -0.16659448
000090 03 a4 91 bc 47 eb 82 bc fb 44 be bc 4c 12 ac 3b
       -0.017778402 -0.01598133 -0.023226252 0.0052512046
0000a0 86 dc a8 3c 14 cf 75 3d bd c7 0b 3e d1 82 ec 3d
       0.020612966 0.06001194 0.13650413 0.11548389
0000b0 3b 2c 33 be 41 30 22 3d 82 d8 04 bd ad 5c 80 3d
       -0.17497341 0.0395968 -0.03243304 0.062676765
0000c0 e8 a8 ec 3d 91 29 c8 3d 8f 47 28 3d 88 b9 ed 3c
       0.11555654 0.09773553 0.04108387 0.029019132
0000d0 62 27 5e 3d 7a bf 30 bd 42 22 11 3d 52 01 95 3d
       0.054236777 -0.043151356 0.03543306 0.072756425
0000e0 e2 47 92 bd 6b b9 06 bd 8f 6b fa bd 93 1f d1 3d
       -0.07142617 -0.032891672 -0.122275464 0.102111004
0000f0 e2 16 d5 bd 47 3a 63 bb 9e 34 dd 3d 4e 2c 8d bd
       -0.10404755 -0.0034672187 0.108010516 -0.06893216
000100 a8 99 48 bc 2d fd 2e 3d ac 65 b8 bd f3 ed 26 3e
       -0.012243666 0.042721916 -0.09003767 0.16301708
000110 20 a7 0e 3e d7 4b d9 bd c5 43 a2 3d 62 2e f3 3d
       0.1393094 -0.106101684 0.07923082 0.11874081
000120 a0 94 d0 3c 72 ed d7 ba 17 12 0d be de 85 2b bd
       0.025461495 -0.0016473962 -0.13776432 -0.041875713
000130 cc 02 95 3c 3d 89 33 bc 36 24 18 bd 7b 0e fc bd
       0.01818981 -0.010958013 -0.03714391 -0.123074494
000140 dd 94 ea bd f6 c3 28 bd 93 9e 48 bd 4c 4c 37 bd
       -0.11454175 -0.041202508 -0.048979353 -0.044750497
000150 f1 1c 45 be f3 65 92 bc e7 24 02 be be 61 7c 3c
       -0.19249322 -0.017870879 -0.1270939 0.015404163
000160 75 bd 19 be 65 fe 3d 3d af 3f cc 3c bb a6 39 bd
       -0.15013678 0.046385188 0.02493271 -0.045325022
000170 43 c9 ef 3c df 3a db bc 96 88 09 3d 94 3d 0d be
       0.029270774 -0.02676147 0.033577524 -0.13793021
000180 5a 6a 79 3b 51 83 bd bd 9f c5 0f bc 00 76 c3 bd
       0.0038057775 -0.09253562 -0.008775144 -0.09543991
000190 09 9e 6f 3d 23 f1 e4 3c 8f 81 7f bd 0e 80 9c 3b
       0.058500323 0.027947014 -0.062379416 0.0047760075
0001a0 6b 4f cb 3c 22 c8 01 3d 02 f3 b8 bb 95 7d a8 bd
       0.024818143 0.031685002 -0.005644203 -0.08227078
0001b0 1f 2a 5b 3d c7 66 a3 bd 9c 78 62 3d 74 8a 47 bd
       0.053506967 -0.079785876 0.055290803 -0.048716024
0001c0 89 6c b2 bd a1 41 73 bd e6 89 32 3d 54 a4 c3 bc
       -0.08712108 -0.05938876 0.04358854 -0.023882069
0001d0 a2 25 ac bc d3 96 80 3c 31 03 3f 3d 91 2e 05 bd
       -0.021014038 0.015696919 0.046633903 -0.032515112
0001e0 bf 28 d6 3d 28 f9 bc bd dd f5 ad bd f4 34 aa bd
       0.104569905 -0.0922721 -0.0849416 -0.08310881
0001f0 ab 54 fb bc 2b 6f 90 bd 96 39 1b 3d 47 19 62 3d
       -0.030680021 -0.070524536 0.037896715 0.055199888
000200 0f a2 25 3d a5 cf f9 3c c3 51 5d bd 63 3e cf bc
       0.040437754 0.03049452 -0.054033052 -0.025298303
000210 3e 4d e8 bd 12 cb dc b9 9c d8 52 3d 0f 84 ab 3d
       -0.11342858 -0.0004211297 0.051476106 0.083747976
000220 d2 16 9a bd ba a4 89 bb 87 9f 30 be c9 f1 9a bd
       -0.07523884 -0.004200545 -0.17248355 -0.07565648
000230 00 6f b7 bc 0a 22 d3 bd 5d e0 ea bc c9 07 b6 3c
       -0.022391796 -0.10309227 -0.028671438 0.02222051
000240 0c 1e 00 3e 83 e4 c0 3d f2 75 79 3c 45 fa 8a bd
       0.12511462 0.09418585 0.015225874 -0.067860164
000250 3a 6d 8d 3b 9f 24 27 3d 29 b1 b0 3d af ee f2 bc
       0.0043159993 0.04080641 0.086275406 -0.029654829
000260 c5 9b ce bd 87 e4 ef bd 06 19 02 3d 04 bc 1b bd
       -0.100883044 -0.1171351 0.031762145 -0.038021103
000270 40 0d 27 bd c8 75 cd bd 60 66 35 3d 87 0c 70 bd
       -0.04078412 -0.100322306 0.044287086 -0.058605697
000280 1a d3 f7 bd f0 7b b4 3b 89 20 55 3d cc 36 8a bd
       -0.12100811 0.0055079386 0.05203298 -0.06748733
000290 67 32 93 bd 07 ea 46 3d 5b 39 70 bd 1e c7 a7 bd
       -0.07187348 0.04856303 -0.05864845 -0.081922755
0002a0 86 a2 66 3d de 06 f4 3d 05 af de bd da 8e 85 bb
       0.05630734 0.11915372 -0.10873226 -0.004075867
0002b0 ac 47 8e 3d 56 ec d8 bd cf 90 5b bd 26 ab eb 3d
       0.06947264 -0.105919525 -0.053604897 0.11507253
0002c0 13 14 01 3e f8 d5 f1 bc 6c dc b0 3b bc 75 33 3d
       0.12605314 -0.029520974 0.00539737 0.043813452
0002d0 7a 00 b4 3c 87 8a 82 bd 9c 58 ac bd 1c 06 ed bd
       0.021972883 -0.06374078 -0.084153384 -0.11573431
0002e0 c4 71 8a bc 0e 24 cc bd 47 5b ae 3d 55 8c 08 3e
       -0.01689995 -0.099678144 0.085135035 0.13334782
0002f0 23 42 7d 3c 13 d5 0d bd 40 08 19 bd 14 30 bf 3c
       0.015457663 -0.03462703 -0.037361383 0.023338355
000300 50 3b d5 bb db 8a bc bd 22 54 e2 bc 99 e9 a3 3c
       -0.0065073147 -0.09206172 -0.027628008 0.020008849
000310 cb 9a 5d bd 42 e0 2c bb c6 52 17 3e 9c 04 42 bd
       -0.0541027 -0.0026378785 0.1477767 -0.047367677
000320 0c 52 80 bd 46 c0 98 bd bd 1c f6 3c f5 6e b9 3c
       -0.06265649 -0.07458548 0.030043 0.022635916
000330 1c c5 66 bc a7 7d 14 3c 7a 92 2d 3e 96 47 e0 3d
       -0.0140850805 0.009063161 0.16950408 0.10951154
000340 fd 0a d3 3c a3 34 5a 3d 9a 2d ff bd 0f 11 a9 bd
       0.025762076 0.053272855 -0.1245987 -0.08255207
000350 8c 54 7e 3b 1f d5 94 3d 24 0a ba bc f8 d1 4f 3d
       0.0038807718 0.07267212 -0.022709914 0.05073735
000360 f5 02 a5 3c 9b f5 12 bd 85 e8 03 be e3 8c 04 3e
       0.020143012 -0.03587876 -0.12881668 0.12944369
000370 06 06 e1 bd bf 10 bf bb e6 44 a5 bc 6a 2c 93 bd
       -0.10987477 -0.0058308537 -0.020174455 -0.07186206
000380 59 ea b6 3d 76 ae 7b bc c5 57 5b bd 07 78 d3 3b
       0.08931417 -0.015361419 -0.0535505 0.0064535174
000390 a4 9b 83 3d 1e 84 05 3b 6a 48 4d 3d b0 2d d2 bc
       0.064261705 0.0020372937 0.050117888 -0.025656551
0003a0 6d 3a 01 bd 35 bc 28 bd 8f da fa 3c c9 d6 9c bd
       -0.03154986 -0.041195113 0.030621795 -0.076581545
0003b0 eb b2 1c bb cf 48 07 3d d4 52 2c 3c d0 d4 d7 bd
       -0.0023910354 0.03302842 0.010517795 -0.10538638
0003c0 05 07 5e bd 03 a3 28 bd 37 70 5e bd 70 d2 46 bd
       -0.054205913 -0.041171085 -0.054306235 -0.048540533
0003d0 97 6f 08 bc a6 8f 14 3b 6a 53 10 bb 8c 0a 87 bd
       -0.008327386 0.002266863 -0.0022022375 -0.065938085
0003e0 5f 6a 85 bc cb 21 73 3b 7e 4f 3a bd 2f 89 1e bd
       -0.016286073 0.0037099 -0.045485966 -0.038705047
0003f0 04 5f 44 3d cb 94 66 bd 0e 8c 2d bd b0 3a b5 bd
       0.047942176 -0.056294244 -0.042369895 -0.088490844

bias_hh_l0 f4 [384]
000000 90 cc 62 bd d2 0f da 3d c5 b8 7b 3d c5 9a 95 bd
       -0.055370867 0.10647549 0.061455507 -0.073049106
000010 e2 9a 12 3d 5e 13 f3 3d 7b 2e 35 be 28 d9 8c bd
       0.03579224 0.118689284 -0.17693512 -0.06877357
000020 be f7 f7 3c 72 41 84 bd 42 9a a0 bc 5e 58 a5 3d
       0.0302695 -0.06457795 -0.019604806 0.08073495
000030 55 9c 5e 3d f1 f4 0f 3b e6 b3 ff 3d 5a 5e 1c 3d
       0.05434831 0.0021966065 0.12485485 0.03817592
000040 63 1d a7 bd 3a 3d 42 bd ee e5 7d 3d c5 63 22 be
       -0.08159902 -0.04742167 0.061986856 -0.15858372
000050 ce 65 1e 3d 0b cc c1 bd ca f0 47 bd 9c 88 19 be
       0.038671307 -0.09462746 -0.04881362 -0.14993519
000060 85 c3 42 bd 8a 00 05 be 09 0e c6 3d 61 b6 fb 3c
       -0.047549743 -0.12988487 0.09670646 0.030726613
000070 6a 42 2a 3d 7b c0 af bc 77 b1 48 3d 42 cd 2f bd
       0.041567244 -0.021454087 0.04899737 -0.04292036
000080 18 58 65 bd fc b6 9e 3d 9c 6b d3 bd c9 a7 3c 3b
       -0.055992216 0.07749745 -0.10323259 0.0028786531
000090 89 28 b8 bc 85 3d e9 bc 7b 81 64 bc 29 b2 d8 bd
       -0.022480266 -0.028471718 -0.013946886 -0.10580856
0000a0 16 be 9a bc e1 6b 63 3c ac be fa 3d 5d eb 9b bc
       -0.018889468 0.013880701 0.12243399 -0.019033128
0000b0 db a9 35 be 26 7f 97 bd 86 23 33 bd 4b 89 ac 3d
       -0.17740576 -0.073972985 -0.04373505 0.08424624
0000c0 c3 e8 57 3d bd 62 74 3d a6 4f 94 3d 78 79 cf 3d
       0.052712213 0.059664477 0.07241754 0.1013059
0000d0 d2 d6 9e 3d d5 71 f1 bb 63 aa 0d bd ab cb 1c 3d
       0.077558175 -0.007368306 -0.03458632 0.03828017
0000e0 37 b5 92 3d ac ad f2 39 d2 78 11 be 6b 54 fc 3d
       0.0716347 0.00046287233 -0.14206246 0.12320789
0000f0 d3 54 67 bd 8b 43 8d bd a0 c6 1e 3d c4 ef 40 3d
       -0.05647738 -0.068976484 0.038763642 0.04710366
000100 6e 3f 81 bd 8a 82 99 3d 7c d4 8d bd 71 4d d1 3d
       -0.063109264 0.074956015 -0.06925294 0.10219849
000110 d0 15 b9 3d 57 1f db 3c f5 36 6a 3d 40 80 a2 3d
       0.090373635 0.026748342 0.057181317 0.07934618
000120 aa 9a ae 3d 4d 72 0f bd 1d d1 1b be 60 ce 57 bd
       0.085255936 -0.035021115 -0.15216489 -0.05268705
000130 a2 aa 1e 3e e3 03 01 be 9e 3b 99 bd 84 3c 11 be
       0.15494779 -0.12599139 -0.07482074 -0.14183241
000140 33 b5 d7 bd 07 07 eb bd 4a a5 fd bc 0c b3 fc ba
       -0.10532608 -0.1147595 -0.030962605 -0.0019279434
000150 03 ec 7b bd 18 68 6d 3b c2 6a 7e bd fb ec 0c 3d
       -0.061504375 0.0036225375 -0.06211353 0.03440569
000160 e7 68 1f be 6d df 0e bd a6 c6 8b bc 5f 8e d0 bd
       -0.15567361 -0.034881044 -0.017062496 -0.10183405
000170 dd b3 c6 bd 95 6f e0 3c 71 57 10 bb e0 f4 67 3c
       -0.09702275 0.027396956 -0.0022024775 0.014157504
000180 39 c9 fc 3c be 34 0a 3d a6 7d 23 3d fd ca ab bc
       0.03085767 0.033741705 0.03991475 -0.020970816
000190 c1 d3 ab 3d 3f 6e cf bd e9 41 df 3b 93 f8 b7 3d
       0.08389998 -0.1012845 0.006813277 0.08982959
0001a0 f1 f5 1a bb d3 64 c6 3d 57 e1 a8 bd c2 05 61 bd
       -0.0023645128 0.096871994 -0.08246105 -0.05493713
0001b0 fd e2 9c 3b b3 17 18 be 77 2d d3 3d 6c 68 88 bc
       0.0047878013 -0.1485279 0.10311406 -0.016651355
0001c0 13 90 79 bd b7 8e 47 bd 09 34 8d bb b9 69 d0 3d
       -0.060928416 -0.048720088 -0.0043091816 0.10176415
0001d0 7f d6 cd bd 56 04 0c 3d e9 34 83 3d de 6b 8d 3a
       -0.100506775 0.034183823 0.06406576 0.0010789593
0001e0 dc 8b ce bc 93 d6 9a bd 0a aa fe bd f1 5a cf bd
       -0.025213175 -0.07560458 -0.12434776 -0.101247676
0001f0 5c 37 31 bd ef 34 c0 bd 21 16 c6 3c f7 82 10 3d
       -0.043265685 -0.09385096 0.024180474 0.035281148
000200 97 25 b3 3c ae 0b 5a bd 9c 56 a8 3d 69 b5 e2 3d
       0.02186851 -0.053233795 0.082196444 0.110697575
000210 d2 79 f7 bd 0b 1f aa 3c c0 75 55 3d 48 60 89 3d
       -0.12083782 0.020766756 0.05211425 0.06707817
000220 69 36 f0 bc c6 9e 9b bd 2c c2 04 be 6c fb a8 3c
       -0.02932282 -0.07598643 -0.12964696 0.0206277
000230 6a c0 14 3d fb 39 e8 bc 11 36 23 bd 22 b2 a8 bd
       0.036316313 -0.02834796 -0.039846484 -0.08237101
000240 ce 6b fd 3c a2 3b 24 bb df 63 c8 bc b4 ae b9 bd
       0.030935194 -0.0025059958 -0.024461685 -0.09066525
000250 b8 78 c4 bd 3e b8 d3 3c 37 34 bf 3d 4e 82 6e bd
       -0.09593338 0.02584469 0.09336131 -0.058229737
000260 b4 95 cc bc 09 41 0d be 43 61 4c bd b3 12 19 3d
       -0.024973728 -0.1379434 -0.049897444 0.03737135
000270 9e 41 35 bd 1c da cf bd 1d ce a4 3c 1d 70 e6 3d
       -0.04425203 -0.10149023 0.020117814 0.11251853
000280 f2 86 fd bd ca 4c 8a 3d 41 1f f7 3d e5 af 56 3d
       -0.123792544 0.067529276 0.12066508 0.05241384
000290 36 1c bd 3b e9 69 dc bd a2 36 cc 3d ee c0 c1 bd
       0.0057711853 -0.10762388 0.09971358 -0.094606265
0002a0 61 e0 b9 3d 5a 22 ef bc 25 b5 25 3d 82 06 d2 3c
       0.09076 -0.029191185 0.040455956 0.025637869
0002b0 a4 0d b5 3d 03 d4 f8 3c a3 b3 58 bd 84 2f 30 3d
       0.08840492 0.030374533 -0.05290569 0.043014064
0002c0 14 86 24 3c d3 b7 6e bc a4 ef 42 bc 64 8d 65 bd
       0.010041732 -0.014570194 -0.011897955 -0.056043044
0002d0 22 98 0e 3e 61 5d 9e bd 24 7b 44 3c f8 6b 87 3c
       0.13925222 -0.07732654 0.01199225 0.016530976
0002e0 24 08 8b 3d ea d7 99 bd 04 81 ca bc ee da 8d 3c
       0.06788662 -0.075118855 -0.024719723 0.017316308
0002f0 c0 26 80 bd e4 a9 bc 3d 5e e0 d8 bd 50 ae 87 3d
       -0.06257391 0.092120916 -0.1058967 0.06625044
000300 59 81 01 bc 41 a3 17 bd a2 0d 8b bd 85 48 64 bc
       -0.007904374 -0.037020925 -0.0678971 -0.013933306
000310 0e 03 95 bd 10 72 bf bc 85 fc 95 bc d2 10 42 3c
       -0.07275973 -0.023369819 -0.018308887 0.011844831
000320 94 b6 9b 3d 84 14 c2 bd a0 5a 59 3d 28 c9 51 bb
       0.076031834 -0.09476569 0.053064942 -0.0032010768
000330 d8 14 55 b8 3a a1 d6 bd 07 51 36 3e 84 3c 3e bd
       -5.080257e-05 -0.1047997 0.17804347 -0.04644443
000340 f7 57 3d 3c c5 0c 4c 3c d8 54 3e bd ea 63 2f bd
       0.011556617 0.012454216 -0.046467632 -0.042819895
000350 1f 59 eb 3d a2 ba 12 3d 3d fc cc ba 4a 39 fe 3c
       0.11491608 0.03582252 -0.0015639138 0.031033177
000360 24 d1 b1 bd 40 1f 2d 3d 47 b8 80 bd 72 44 d8 3d
       -0.086824685 0.04226613 -0.06285148 0.1055993
000370 7d bc 19 be fd 98 64 bc db 0f 83 bd 0e ac 24 be
       -0.15013309 -0.013952491 -0.063995086 -0.16081259
000380 ce 6a 08 bd 0b 0b 19 3e 3b 3e 81 bd 54 51 22 3e
       -0.033304982 0.14945619 -0.06310698 0.15851337
000390 86 0f b0 3d 72 5d ec bc d4 ed 8c 3d 06 95 73 bb
       0.08596711 -0.028853152 0.068812996 -0.0037167682
0003a0 d9 d0 dc bd ed ac 2a be 4b 8b ed 3c 5d 14 9a bd
       -0.10782022 -0.16667528 0.028997084 -0.07523415
0003b0 ff 77 9d 3d 2a 8a a7 3c 49 03 a5 bd c0 a3 c0 3b
       0.07688903 0.020451624 -0.08057267 0.0058788955
0003c0 a1 6b 85 bc 67 fc 18 3d 8c f8 6a 3d d7 40 93 bd
       -0.016286673 0.037350085 0.05736594 -0.071901016
0003d0 fe 47 18 bd ba 9f 56 bd 97 1e 4a bd 19 85 f0 bc
       -0.037178032 -0.05239842 -0.04934558 -0.02936034
0003e0 73 33 87 3c c4 a5 10 3d bb d2 01 be 10 7b 4a 3c
       0.016504025 0.035314336 -0.12678044 0.012358442
0003f0 0e 38 08 3e 7e ef 4a 3d 89 28 99 3d 7f a3 6a 3d
       0.13302633 0.049544804 0.074784346 0.05728483
