checkpoints/beat_cls_layer.pth (torch_old, 7921 bytes, 2 tensors)

weight f4 [2, 256]
00000000: 5ade a93d 6d7a 663d 6eed a6bd d5d6 83ba
00000010: bcc0 103d 2fe7 943b 5f37 f13c 0439 443d
00000020: dc2e 0ebd 4d50 03bd 3c42 c53d 4422 adbb
00000030: 05d7 c6bd 4b4c c1bd b073 2abd 1450 84bd
00000040: 8857 933c c670 963d b1ad 003d 6891 0c3d
00000050: 1620 253d 4587 ca3c 0136 9b3d 313d 323d
00000060: e0a1 0a3c a807 1b3d 2303 9a3c 6839 913d
00000070: 9062 893c f274 943b c964 3dbd 53f8 853d
00000080: 9290 60bd be04 b53b 93ac 0c3d 4998 23bc
00000090: e306 8a3c a0c1 ea3d 50fe 66bb 540d a53d
000000a0: c029 30bc 37f8 073c 14cf 943d 7d47 fabc
000000b0: 11ad c23d 35b0 71bd 30f9 6ebd 317c cabc
000000c0: 3ece 53bd 6c2d 953d ea8f 89bd 4250 a93d
000000d0: 8e06 f23c f981 f13c c3d9 d33b fdf0 a53b
000000e0: 323e 64bd f227 b9bc 73fa 8abc 3093 21bd
000000f0: 57e3 10bd 3fd9 2bbc 9274 d83c d901 fdbc
00000100: ad7c bf3d 7c86 bf3d f65c 953c e7b4 933c
00000110: 3fda b73d af4e d5bd 82ba d83b c60f a9bd
00000120: bc98 843c 25d1 d83d 8bc8 303c 7574 98bc
00000130: afa6 7abd 13cc a23d 0bfb 30bd 1c6b 903d
00000140: d8c1 41bc 86ab 89bd 9b6a 17bd 5232 5fbc
00000150: fdca cc3d 5788 4cbd 1cc0 ccbd 94a1 f53c
00000160: 0aa3 923d 4748 143b 75ab c13c 7a59 74bd
00000170: da46 423d c2e1 bcbb d017 68bc 2f55 843d
00000180: fa5c bfbc 3a22 8fbd d48a 903c 74d1 bfbb
00000190: 6153 b73d 3d2a db3b e51f c0bd a7a2 943d
000001a0: c491 d53b 53ff bb3d e255 0fbd 53c0 b63c
000001b0: 757a 1ebd 4932 94bd d4c5 113d c9f7 043d
000001c0: 8b47 523d 7af1 41bd 1fdf b9bc 1c7a 6ebd
000001d0: 6ed0 303d 546f 3fbd 2e14 a4bd 3d22 e9bb
000001e0: 02e5 aabd 0fcd 71bd 11ac ecbc 004a a2bd
000001f0: bcc2 b13d 827f 0a3c 11c4 8f3d ec86 4f3d
00000200: ee3f 5cbd 50f9 053d b30b 02bd 12d9 583d
00000210: f398 5439 b984 48bd 0cc7 d8bc 0457 673c
00000220: aa5c 6bbc d13b 53bd 5e18 34bd c2eb bbbd
00000230: 95c6 48bd 5a4e 1b3d b1f9 83bd 8993 293b
00000240: 5995 62bc e6d1 48bd 18fe 50bd d3a9 0c3c
00000250: a889 0f3d b665 5c3d 5f03 943d 142e fd3c
00000260: 68fb 063a 3633 94bd ff20 943d 0b91 b13d
00000270: 4579 813d 8361 5c3d 3448 e63d 4333 80bc
00000280: 30df 1bbd ee01 06bd 95d9 583d 4c68 3fbd
00000290: 7262 983c dd48 eabc ba95 95bd a31d 623d
000002a0: be5d a03d f561 fabc bf0c 4a3d 9069 223d
000002b0: fac0 83bc 2532 713c 7e6e bd3d b2c6 df3d
000002c0: 2a56 aa3b 5c3d 94bd 583a b6bb 9f88 4a3d
000002d0: 3f44 41bd 885c 983d a8ae 173d ee2d bb3d
000002e0: 1ec8 06bd 6b80 8038 7bfd a9bd 4ca3 93bd
000002f0: f26f b3bc ebdf bb3d 1698 ddbc 5235 4cbd
00000300: a8df 0e3d 0da7 0dbd 709c 343d cea5 7a3c
00000310: 29c3 1c3b 5935 fabc 289e acbd c740 87bd
00000320: 78e6 a9bc 0a00 e6bd b708 77bd 3336 a5bb
00000330: a576 3c39 7be2 10bd 3522 b93d 5e55 1fbd
00000340: add7 2abd b8d3 083d 78eb 4abd 66bf aebb
00000350: cad1 5bbc be79 32bd ca58 26bd af6a e3bd
00000360: ca11 d03d 1ec5 da3c b282 e23a 9649 ec3c
00000370: ce34 5c3d 0f50 a0bd c998 12bd fa49 8b3c
00000380: 05bd 94bd 17c1 b83c 3807 f4bd 65d8 e83c
00000390: 7d86 efbc 4ccf a2bd b0d6 53bd 33d6 3c3d
000003a0: 4e4f 9f3b 6e19 583d 6b34 753c 609f b3bc
000003b0: 1052 233b f049 f53c de37 afbc 779e 74bc
000003c0: 32aa d3bd ed19 ed3c 40f9 9e3c 245f eb3c
000003d0: 8894 643d f64b dfbb b78c 843a 4ec7 243d
000003e0: e3d3 74bd 293f f13a 1c6a 5dbd 543e 913c
000003f0: 5a59 18bd 405b 0cbd b89e 003d 9225 65bc
0.08294363 0.056269098 -0.08150755 -0.0010058532 0.035340056 0.004544161 0.029445348 0.047905937
-0.034712657 -0.032059003 0.09631774 -0.005283626 -0.097089805 -0.0943838 -0.041614234 -0.06460586
0.017986074 0.073457286 0.031415645 0.034318358 0.040313803 0.024722705 0.0757866 0.043515388
0.008461446 0.0378491 0.018800324 0.070910275 0.016770631 0.0045305425 -0.046238694 0.06541505
-0.054825373 0.005524247 0.034344267 -0.009985038 0.016848987 0.11462712 -0.0035246797 0.08059183
-0.0107521415 0.008298925 0.072660595 -0.030551666 0.09505666 -0.059005935 -0.058343112 -0.024717422
-0.05171036 0.07284054 -0.067169026 0.08267261 0.029544141 0.029480921 0.006465168 0.0050641284
-0.055723377 -0.022602055 -0.016965127 -0.03944701 -0.03537306 -0.010488807 0.026422773 -0.03088467
0.09349952 0.09351823 0.018232804 0.018030597 0.08977174 -0.10415398 0.0066140303 -0.08254962
0.01618611 0.10586766 0.010790001 -0.018610219 -0.061194118 0.0794908 -0.043208163 0.070516795
-0.011826001 -0.067221686 -0.0369669 -0.013622837 0.099996544 -0.04993471 -0.099975795 0.029984273
0.071600035 0.0022626088 0.023641327 -0.059655644 0.04743085 -0.005764217 -0.014165834 0.0646156
-0.023359764 -0.0698895 0.017644323 -0.005853826 0.0895145 0.006688385 -0.093810834 0.07257586
0.0065176208 0.091795586 -0.034994014 0.022308504 -0.038691003 -0.07236154 0.035589054 0.03246287
0.05133776 -0.04734943 -0.0226894 -0.05822192 0.043167524 -0.04673703 -0.080116615 -0.007114677
-0.08344461 -0.05903345 -0.028890641 -0.07924271 0.08679721 0.008453252 0.070198186 0.05066578
-0.053771906 0.032708466 -0.03174944 0.05294139 0.00020274874 -0.0489547 -0.0264621 0.014119867
-0.014365355 -0.051570717 -0.04396855 -0.091758266 -0.049017508 0.03791652 -0.06444109 0.0025875291
-0.013829553 -0.0490283 -0.051023573 0.008585411 0.03504339 0.053807937 0.072272055 0.03090576
0.0005149157 -0.0723633 0.07232856 0.08670243 0.063219585 0.053803932 0.112442404 -0.015649443
-0.038054645 -0.032716684 0.052941877 -0.046730325 0.01860163 -0.028599197 -0.07303949 0.055204045
0.0783038 -0.030564288 0.049328562 0.039651453 -0.01608323 0.014721428 0.0924959 0.1092657
0.00519826 -0.07238266 -0.0055611543 0.0494467 -0.047184225 0.07439524 0.0370318 0.0913962
-0.03290569 6.127435e-05 -0.08300301 -0.07208881 -0.021903966 0.09173568 -0.02705006 -0.049855538
0.034881264 -0.03458314 0.044094503 0.01529832 0.0023920035 -0.030543016 -0.084286034 -0.06604152
-0.020739779 -0.11230476 -0.060311045 -0.0050418614 0.00017973276 -0.03537224 0.090397276 -0.038899772
-0.04170959 0.033405036 -0.049540967 -0.005332875 -0.013416717 -0.043573134 -0.04061202 -0.11104333
0.10159643 0.02670532 0.0017281382 0.028843682 0.053761296 -0.0782777 -0.03579024 0.017003048
-0.07262615 0.02255301 -0.11915439 0.028423497 -0.029238934 -0.07949695 -0.051718414 0.046102714
0.004861749 0.052758627 0.014966111 -0.021926582 0.002492074 0.029942483 -0.021388944 -0.014930359
-0.103351966 0.028943026 0.019405961 0.02873189 0.055805713 -0.006814475 0.0010112737 0.040229134
-0.059772383 0.0018405664 -0.054056272 0.017729916 -0.037194587 -0.03426671 0.031401366 -0.013986008

bias f4 [2]
00000000: 5ee9 74bd 7561 c73c
-0.05979287 0.024338463
