checkpoints/encoder_ln2.pth (torch_old, 308725 bytes, 4 tensors)

weight_ih_l0 f4 [384, 64]
-0.09890285 0.09146546 0.045957856 -0.062357403 -0.07864481 0.008839505 -0.07801919 -0.0032414205
-0.016246522 0.060714062 -0.018760605 0.0009908644 -0.021657376 0.17658888 0.11313168 0.00029122992
-0.034314048 0.02861542 0.0030242174 -0.0765769 -0.038480915 -0.07829124 -0.18753318 -0.050309386
-0.018825416 0.07998183 0.19186458 0.058866516 0.06971538 0.08597261 0.092185795 -0.00939546
-0.04637786 -0.035400525 -0.008131905 -0.035466887 -0.048562035 0.003620755 0.05602367 0.06313324
0.014813751 0.12414032 0.07983614 -0.022965498 0.009974947 0.1051146 0.013745025 0.054789804
0.11365417 -0.028130597 -0.015994873 0.045512203 -0.07282028 -0.1479114 -0.13583164 0.032250382
0.034221917 -0.079469085 0.13420546 0.1578951 -0.065810226 -0.034755815 -0.016572647 -0.009779558
-0.010694624 -0.03638405 -0.09727726 -0.0041998895 -0.111237615 -0.014952365 -0.04172918 -0.049029406
-0.06478797 -0.071757816 0.04138341 0.030413004 0.010780328 -0.0059568225 0.032731384 0.04865895
-0.00078552385 0.019886892 0.07233893 -0.015365735 0.021165835 0.110148616 0.057036217 -0.04282341
0.088597395 -0.0994052 0.110958315 -0.073781006 -0.0012919595 -0.045458697 -0.080642164 0.12681013
-0.05108397 -0.087522075 -0.07023521 -0.027149629 -0.10465007 -0.047163025 0.028100397 0.04542164
-0.0022716124 -0.060328428 0.02212628 -0.04548949 -0.06511977 0.08863555 -0.041046895 -0.04361858
-0.08964537 -0.027116517 0.06993534 -0.06064287 0.08696472 -0.06539967 -0.02604691 -0.09091958
0.17781433 -0.07312476 -0.038521323 -0.0041983863 0.056085456 -0.0053023514 -0.13727383 0.069451705
-0.09500834 -0.01667317 0.04651968 -0.00492026 -0.019339046 -0.038536366 -0.05888921 0.08810691
0.025886634 -0.128922 -0.01671059 -0.06381801 0.08591973 0.007491751 -0.016515343 0.08300827
-0.12643349 -0.05948626 0.05806116 0.025232567 -0.14184108 -0.07977933 -0.0358602 -0.12770665
-0.0014724924 -0.04173576 -0.00039773574 -0.08347403 -0.029784484 -0.058582958 -0.03944207 -0.029483354
0.0338216 -0.034856446 -0.0882331 0.014348587 -0.037275825 0.0038016608 -0.047687598 0.05509857
-0.05346938 -0.01902865 -0.11032777 0.053237066 0.03601642 -0.0011744148 0.12571457 0.006135294
0.04183632 0.03362548 -0.06435972 0.08522821 -0.08084972 0.017686926 -0.12548758 -0.097377434
0.067414805 -0.03328084 0.009083269 -0.07378756 0.020293893 -0.044721905 -0.12152481 0.054654296
0.059032004 0.017352765 0.029309453 0.03028442 -0.08841044 0.04842354 -0.12517567 0.04165696
0.07442749 -0.06250788 -0.053448487 0.04917862 0.106099255 0.082295395 0.018428836 0.10691719
-0.060397718 0.0334647 -0.11218723 0.060748942 0.15211071 0.15601434 0.04782829 0.07888832
-0.016949164 -0.003004907 -0.028848082 0.028189018 0.012885176 0.12995397 -0.08016155 0.13773942
0.008439594 0.11701008 0.0118084 0.08775683 -0.039849035 0.1029085 -0.055401012 0.025731066
-0.010816685 0.0142739285 -0.023464406 0.1058029 0.0696159 0.074819714 -0.00050963333 -0.036818888
0.06241662 0.013289725 -0.12434402 0.048910636 0.028159441 0.041687593 0.00363049 -0.024883438
-0.1514932 -0.054465245 -0.011947008 0.09312452 -0.051558178 0.004844549 -0.088766 -0.0046631037
00000000: 948d cabd 3e52 bb3d 4e3e 3c3d 7a6a 7fbd
00000010: 8810 a1bd 92d3 103c 86c8 9fbd 036e 54bb
00000020: 6d17 85bc 4faf 783d d7af 99bc e4df 813a
00000030: cf6a b1bc b7d3 343e 95b1 e73d 38b0 9839
00000040: e38c 0cbd e36a ea3c f331 463b 5ad4 9cbd
00000050: 2a9e 1dbd 2857 a0bd b308 40be 3711 4ebd
00000060: c237 9abc 84cd a33d 2678 443e 041e 713d
00000070: f0c6 8e3d 6812 b03d e8cb bc3d 6aef 19bc
00000080: b6f6 3dbd 2400 11bd af3b 05bc ba45 11bd
00000090: fce8 46bd 304a 6d3b 1379 653d 004c 813d
000000a0: 60b5 723c 483d fe3d 2181 a33d 2422 bcbc
000000b0: f66d 233c 5346 d73d d032 613c 466b 603d
000000c0: 84c3 e83d 2372 e6bc ae07 83bc 016b 3a3d
000000d0: cd22 95bd 1676 17be 7317 0bbe fa18 043d
000000e0: 482c 0c3d b0c0 a2bd 286d 093e 41af 213e
000000f0: 83c7 86bd 1d5c 0ebd 5cc3 87bc 703a 20bc
00000100: 8138 2fbc 7107 15bd 4d39 c7bd 3a9f 89bb
00000110: 8cd0 e3bd c4fa 74bc 37ec 2abd 0fd3 48bd
00000120: 8eaf 84bd c3f5 92bd a781 293d b124 f93c
00000130: f99f 303c 7331 c3bb 5811 063d 9b4e 473d
00000140: 9deb 4dba d6e9 a23c 6f26 943d 90c0 7bbc
00000150: f963 ad3c 9995 e13d cf9e 693d 9a67 2fbd
00000160: 8d72 b53d f494 cbbd 1d3e e33d 7f1a 97bd
00000170: f856 a9ba e632 3abd b827 a5bd 84da 013e
00000180: 6d3d 51bd c63e b3bd 7ad7 8fbd e668 debc
00000190: c752 d6bd 042e 41bd ce32 e63c 0b0c 3a3d
000001a0: 55df 14bb f11a 77bd 2c42 b53c 3053 3abd
000001b0: 845d 85bd 8e86 b53d ca20 28bd 65a9 32bd
000001c0: fe97 b7bd 7523 debc 423a 8f3d a864 78bd
000001d0: 8f1a b23d 43f0 85bd 5460 d5bc 0b34 babd
000001e0: f614 363e 6fc2 95bd 89c8 1dbd 9e92 89bb
000001f0: ddb9 653d 59bf adbb 8391 0cbe b23c 8e3d
00000200: bc93 c2bd 2c96 88bc 6c8b 3e3d 223a a1bb
00000210: eb6c 9ebc 4fd8 1dbd d035 71bd 6571 b43d
00000220: 3510 d43c 2104 04be a6e4 88bc 04b3 82bd
00000230: aff6 af3d 5d7d f53b 2f4b 87bc 3d00 aa3d
00000240: c877 01be dda7 73bd 8ad1 6d3d 87b4 ce3c
00000250: ca3e 11be 5863 a3bd 25e2 12bd 88c5 02be
00000260: a500 c1ba 1ef3 2abd 3087 d0b9 6ff4 aabd
00000270: 97fe f3bc aff4 6fbd 028e 21bd 1387 f1bc
00000280: 8588 0a3d a2c5 0ebd 8eb3 b4bd 5616 6b3c
00000290: 89ae 18bd 4925 793b 1254 43bd 0aaf 613d
000002a0: b502 5bbd f9e1 9bbc 87f3 e1bd 1c0f 5a3d
000002b0: f485 133d d2ee 99ba 52bb 003e 940a c93b
000002c0: 905c 2b3d dfba 093d 07cf 83bd 218c ae3d
000002d0: 8a94 a5bd 2ce4 903c d17f 00be d26d c7bd
000002e0: c610 8a3d 7d51 08bd fed1 143c ef1d 97bd
000002f0: 613f a63c 512e 37bd 00e2 f8bd 2fdd 5f3d
00000300: 8bcb 713d 6327 8e3c 611a f03c 0817 f83c
00000310: 8810 b5bd c357 463d 0d2e 00be 7da0 2a3d
00000320: 716d 983d 2204 80bd cdec 5abd 856f 493d
00000330: 914a d93d 7d8a a83d 12f8 963c 66f7 da3d
00000340: 9963 77bd 4812 093d 6bc2 e5bd e2d3 783d
00000350: e9c2 1b3e 39c2 1f3e 99e7 433d 3390 a13d
00000360: f9d8 8abc f9ed 44bb d052 ecbc a8ec e63c
00000370: 581c 533c a712 053e bd2b a4bd 900b 0d3e
00000380: 3946 0a3c fba2 ef3d 0578 413c dab9 b33d
00000390: be38 23bd b1c1 d23d 2cec 62bd f5c9 d23c
000003a0: 7738 31bc 32dd 693c 6d38 c0bc 31af d83d
000003b0: c892 8e3d 143b 993d ea98 05ba 67cf 16bd
000003c0: 92a8 7f3d 26bd 593c 14a8 febd 8556 483d
000003d0: a1ae e63c 9cc0 2a3d 84ed 6d3b 5ad8 cbbc
000003e0: 0921 1bbe f316 5fbd 62bd 43bc 11b8 be3d
000003f0: ab2e 53bd 06bf 9e3b f3ca b5bd f3cc 98bb

weight_hh_l0 f4 [384, 128]
0.0041618776 -0.050971884 0.032322135 -0.044613723 0.064960666 -0.16586377 -0.021774232 -0.03321975
0.042294372 0.067553125 0.1344093 0.07761797 0.07858555 -0.058060452 -0.025265152 0.060010944
-0.041181292 -0.02284909 -0.10196141 0.0025842541 -0.009197403 0.09222535 -0.09082791 -0.062364772
0.016541021 -0.039431013 -0.063217446 0.036670014 -0.072576925 0.12072954 0.102571554 0.03642772
0.020557117 -0.00067785726 0.047638427 -0.06620177 -0.08447429 0.062085904 0.023737054 -0.09810253
-0.030551001 -0.06494449 0.08700967 -0.007826344 -0.07955891 -0.09835925 -0.04165734 -0.026102656
-0.037906196 -0.052171573 0.1611592 -0.0107212765 -0.06095078 0.054471094 0.09109498 -0.011294438
-0.03524238 0.017689746 -0.031359218 0.0012463869 0.052248318 -0.071731016 -0.07861236 0.02069423
0.09629688 -0.047846895 0.051689856 0.06407657 -0.10016503 -0.0444596 0.049023025 -0.04447658
0.05402464 0.11933329 -0.04125968 -0.023428889 0.07763645 -0.04286561 0.17290649 0.082370974
-0.026987836 0.011253275 0.04030201 -0.048847426 0.12295211 0.005055159 -0.09110841 -0.03895219
-0.15359046 -0.030635351 -0.030874725 -0.07589527 -0.055915594 -0.01393895 0.05242872 -0.040911727
0.04433972 -0.015941504 -0.061244328 -0.047257245 0.055330843 -0.005776751 -0.0016830575 0.026408892
-0.024066586 0.04916045 0.08345265 -0.032746855 -0.102489084 -0.030169971 -0.07639706 -0.04546406
-0.15237245 -0.09340421 0.074112654 0.00473673 0.061349783 -0.019268733 -0.07998844 0.0072075333
0.13591406 -0.0065457416 -0.007191876 -0.06740062 -0.057159323 -0.08145003 0.012477681 -0.022722853
0.030725101 -0.05209056 0.12362692 -0.0383768 -0.019698579 0.09215918 0.028633464 0.03217936
0.012728117 -0.049964294 -0.0997511 0.00074542605 0.098152116 0.08537422 -0.016800547 0.13069403
-0.06652563 0.0139505435 0.010352092 0.0595841 -0.14869106 -0.0067999517 -0.01874424 0.09133632
0.040931635 0.002333555 0.04750182 0.040085953 0.034920502 0.0012682852 -0.06985631 -0.1371827
-0.1426885 -0.0023227674 0.15183905 -0.032675304 -0.05054315 0.022270711 0.089426056 -0.04106403
-0.043484427 0.009146258 -0.059826646 -0.08706039 -0.003021301 0.00881052 -0.16259395 -0.08529629
-0.023783611 -0.093024835 0.1680912 0.016451992 -0.09322916 -0.016199907 -0.011975928 -0.03608695
0.034810208 0.03369899 -0.09780361 0.10572863 -0.06128714 0.005059917 -0.03027999 -0.13711914
-0.060997568 0.065604344 0.01765422 0.06942113 0.027771216 0.0148296375 -0.12417424 0.007524412
0.029236384 0.056959793 0.11833118 0.057108335 0.008598895 -0.007362118 -0.02915446 -0.07077424
-0.0766207 -0.11201138 0.0795838 -0.0068424414 -0.005150086 0.07582917 -0.066400066 0.06260875
0.07847778 0.1208062 -0.11937788 0.0042274194 -0.042126466 0.110630505 0.17507212 0.13130088
-0.07035039 -0.062432762 -0.033700757 0.045157187 -0.089769736 -0.034129858 -0.007365713 0.124967255
0.16414797 -0.16196936 0.02432602 0.048887767 -0.014943034 -0.016324896 0.083884336 0.016219435
-0.02853588 0.012492036 -0.121837474 -0.09970488 0.024631614 0.117142744 -0.019146254 -0.049629714
-0.16683802 0.13862887 -0.029236652 -0.09516403 -0.029049331 0.008968317 0.038814805 -0.010759436
00000000: 5c60 883b e5c7 50bd 3764 043d e1bc 36bd
00000010: 190a 853d 31d8 29be e05f b2bc 6f11 08bd
00000020: dd3c 2d3d 4b59 8a3d 97a2 093e 2cf6 9e3d
00000030: 76f1 a03d ccd0 6dbd ddf8 cebc 09ce 753d
00000040: b7ad 28bd 042e bbbc 25d1 d0bd 975c 293b
00000050: b4b0 16bc a5e0 bc3d fc03 babd 3472 7fbd
00000060: 0981 873c 6a82 21bd 2678 81bd 4c33 163d
00000070: 36a3 94bd 0d41 f73d 0911 d23d 3c35 153d
00000080: 6667 a83c 3bb2 31ba 8320 433d cb94 87bd
00000090: db00 adbd ca4d 7e3d 3674 c23c fbe9 c8bd
000000a0: 1846 fabc 9e01 85bd 2032 b23d 113a 00bc
000000b0: c8ef a2bd 9370 c9bd e3a0 2abd 3dd5 d5bc
000000c0: 8743 1bbd dcb1 55bd eb06 253e 4ba8 2fbc
000000d0: 86a7 79bd 151d 5f3d 0190 ba3d 4e0c 39bc
000000e0: 505a 10bd 16ea 903c 8672 00bd ce5d a33a
000000f0: 5502 563d b6e7 92bd 84ff a0bd f286 a93c
00000100: 4c37 c53d 1bfb 43bd beb8 533d 943a 833d
00000110: 5323 cdbd 451b 36bd 5ecc 483d 132d 36bd
00000120: f148 5d3d 0365 f43d e9ff 28bd f1ed bfbc
00000130: dcff 9e3d da93 2fbd 660e 313e 1db2 a83d
00000140: 9815 ddbc a85f 383c b813 253d 3d14 48bd
00000150: 51ce fb3d bfa5 a53b 0c97 babd 558c 1fbd
00000160: d146 1dbe fdf6 fabc feec fcbc fb6e 9bbd
00000170: c007 65bd 3260 64bc 7fbf 563d 0e93 27bd
00000180: 919d 353d c297 82bc 55db 7abd d090 41bd
00000190: 98a2 623d e64a bdbb 0a9a dcba 7657 d83c
000001a0: 4a27 c5bc 785c 493d 39e9 aa3d 9121 06bd
000001b0: cce5 d1bd 0427 f7bc 1076 9cbd 8638 3abd
000001c0: 8607 1cbe b54a bfbd 60c8 973d 9236 9b3b
000001d0: e949 7b3d 76d9 9dbc fbd0 a3bd 2c2d ec3b
000001e0: 0e2d 0b3e a97d d6bb d4a9 ebbb 5609 8abd
000001f0: e51f 6abd 46cf a6bd 306f 4c3c 4725 babc
00000200: 35b3 fb3c e95c 55bd 1c30 fd3d fe30 1dbd
00000210: ea5e a1bc f4bd bc3d ba90 ea3c 81ce 033d
00000220: 9889 503c 5ca7 4cbd 4e4a ccbd b268 433a
00000230: fa03 c93d aed8 ae3d 4da1 89bc a8d4 053e
00000240: 973e 88bd d290 643c d29b 293c 750e 743d
00000250: 7842 18be 21d2 debb 858d 99bc 890e bb3d
00000260: eea7 273d 8eee 183b 4591 423d 2b31 243d
00000270: cd08 0f3d 973c a63a d310 8fbd 9f79 0cbe
00000280: ef1c 12be 9239 18bb b27b 1b3e 8ad6 05bd
00000290: 5606 4fbd 1171 b63c 0225 b73d c232 28bd
000002a0: ba1c 32bd 30da 153c c90c 75bd b84c b2bd
000002b0: 0501 46bb 005a 103c 077f 26be d2af aebd
000002c0: d9d5 c2bc ce83 bebd 1920 2c3e 54c6 863c
000002d0: eeee bebd abb5 84bc af36 44bc e9cf 13bd
000002e0: 2695 0e3d f407 0a3d 424d c8bd 4188 d83d
000002f0: 3908 7bbd a9cd a53b be0d f8bc f668 0cbe
00000300: 96d8 79bd 925b 863d 959f 903c aa2c 8e3d
00000310: 7680 e33c 02f8 723c 104f febd 588f f63b
00000320: 2481 ef3c ac4e 693d 9e57 f23d 6eea 693d
00000330: 61e2 0c3c ec3d f1bb 56d5 eebc 16f2 90bd
00000340: 50eb 9cbd 3966 e5bd d5fc a23d 8f36 e0bb
00000350: 0dc2 a8bb 534c 9b3d c2fc 87bd 0439 803d
00000360: f5b8 a03d 3e69 f73d 647c f4bd 2a86 8a3b
00000370: cd8c 2cbd 3f92 e23d 1b46 333e bd73 063e
00000380: de13 90bd 7fb9 7fbd ce09 0abd bef6 383d
00000390: 32d9 b7bd c0cb 0bbd 145c f1bb d5ee ff3d
000003a0: 6816 283e 4cdb 25be 5d47 c73c 8a3e 483d
000003b0: a1d3 74bc cabb 85bc 8dcb ab3d 9fde 843c
000003c0: 14c4 e9bc 66ab 4c3c ed85 f9bd 1232 ccbd
000003d0: 3dc8 c93c 89e8 ef3d 9bd8 9cbc 8748 4bbd
000003e0: 96d7 2abe baf4 0d3e b481 efbc 5ce5 c2bd
000003f0: ddf8 edbc d9ef 123c 46fc 1e3d 5848 30bc

bias_ih_l0 f4 [384]
-0.09968191 -0.08413674 -0.063650556 1.665307e-05 0.048492674 0.031761575 -0.05151344 -0.041932814
-0.09111765 0.091788344 0.08176452 -0.024553291 0.021352945 -0.019767862 0.064700946 -0.015233425
-0.09833845 -0.014638108 0.019970855 0.021360867 0.07445746 0.04271786 -0.02105501 0.009039649
-0.11230375 -0.11900917 0.115210205 0.05061319 -0.020572526 0.08620219 0.061425626 -0.10010151
-0.08878594 0.072457716 -0.00304219 0.057033736 0.04086057 0.01742089 -0.06597109 -0.011536949
0.029057013 -0.089056104 -0.14399754 0.02756759 -0.023868663 -0.0051029334 0.08557234 0.024070827
-0.116986 -0.06983762 -0.0015596648 -0.014565914 0.024865055 0.007941904 0.092378505 0.062335618
0.17065786 -0.08895109 0.06533918 0.040637944 0.11218046 0.052208085 -0.13297826 0.12360418
-0.059853695 -0.078936845 0.007921011 0.06291016 -0.1385637 -0.024132447 0.010254058 0.032726035
0.12338726 0.023442026 0.013208586 0.0110075055 0.02952025 -0.05052177 -0.029042602 -0.004229169
0.045962263 0.0017396163 0.09597419 0.063818075 0.0054296614 0.09931678 -0.018684646 -0.01581394
0.033293933 -0.037885707 -0.13291551 -0.03634625 -0.005411957 0.007102953 -0.05606644 0.040202633
0.07034026 -0.107562065 0.0038040772 0.10154565 -0.070563406 0.06676734 0.092449285 0.0054619024
-0.076254256 -0.08033221 -0.06442618 0.02632967 -0.02997552 0.026194708 -0.07927258 -0.039834753
-0.083599806 -0.03040131 0.049695943 -0.055639658 -0.028524272 0.0634425 0.14821072 0.081448294
0.00074101397 0.12041646 -0.0040484318 0.0046314015 0.035748333 -0.050959975 -0.08455491 0.0068951477
0.07650728 0.06551682 0.063841216 -0.02117836 0.13739227 -0.008013733 0.04407377 -0.084200844
0.08612279 -0.10279009 0.02133204 -0.11073338 -0.009720092 0.06483201 0.042371135 0.101966135
0.073843904 -0.017894872 -0.066612855 -0.039664503 0.017690925 0.020748165 -0.023102604 -0.064459994
0.042437445 -0.014481729 -0.0058836765 -0.11284221 0.03927599 0.054644816 -0.019064844 -0.073799044
-0.043688994 0.044812053 0.085232645 0.15031232 0.10830729 -0.015050697 0.103013955 -0.057609126
-0.06993361 -0.035443645 -0.08379436 0.0762483 -0.023734609 0.07688449 0.114115216 0.04812594
0.11131029 0.081649534 -0.08579383 0.078771845 0.028529858 0.037772045 0.07951674 -0.11544058
-0.03461678 -0.06476982 0.020904243 0.08691019 0.09651007 0.07528465 0.11597832 0.034967646
0.08738591 0.112655886 0.042782843 0.043893766 0.07648928 -0.09833221 0.09434144 0.14017236
0.008490326 0.05797943 -0.004556794 0.03948949 -0.01645611 -0.020232284 -0.040282004 0.021704532
0.11339549 0.07296253 0.026441706 0.12196435 0.074869305 0.01938868 0.015978025 0.08710914
-0.08575399 0.05400206 -0.010645972 -0.062958695 0.11166587 0.119325005 -0.033992603 -0.015465789
0.011559996 0.0005502095 0.05962592 0.074391276 0.011555896 -0.0045353156 -0.0012197911 -0.035354838
-0.035365846 0.04241301 0.030989937 -0.044457316 0.08136632 0.0056938943 0.04175794 -0.050655693
-0.09132752 -0.087099895 0.0390325 0.02621697 0.07898831 0.037975468 -0.05417505 -0.015986774
-0.045907658 0.013877514 0.046613872 -0.07221088 0.0050598052 0.053904027 0.019831555 0.049174093
00000000: 0726 ccbd e24f acbd 395b 82bd 32b2 8b37
00000010: 41a0 463d 6d18 023d c2ff 52bd bec1 2bbd
00000020: e49b babd 87fb bb3d 2874 a73d fc23 c9bc
00000030: 5fec ae3c 36f0 a1bc ee81 843d 9e95 79bc
00000040: ab65 c9bd add4 6fbc eb99 a33c fcfc ae3c
00000050: 277d 983d ecf8 2e3d 8e7b acbc 091b 143c
00000060: 82ff e5bd 14bb f3bd 54f3 eb3d c74f 4f3d
00000070: b787 a8bc c68a b03d 7099 7b3d 0502 cdbd
00000080: 67d5 b5bd b664 943d 7b5f 47bb 359c 693d
00000090: 6a5d 273d 41b6 8e3c da1b 87bd 7905 3dbc
000000a0: f908 ee3c 0c63 b6bd 1774 13be 6dd5 e13c
000000b0: 3788 c3bc 8236 a7bb 8d40 af3d 2f30 c53c
000000c0: 5b96 efbd 0707 8fbd ab6d ccba dfa5 6ebc
000000d0: cdb1 cb3c c21e 023c f130 bd3d a253 7f3d
000000e0: efc0 2e3e fd2b b6bd 8cd0 853d f973 263d
000000f0: debe e53d 25d8 553d 742b 08be 3024 fd3d
00000100: 2629 75bd a4a9 a1bd 21c7 013c 0bd7 803d
00000110: a4e3 0dbe 69b1 c5bc a300 283c bc0b 063d
00000120: 76b2 fc3d 7e09 c03c d368 583c d358 343c
00000130: 74d4 f13c eaef 4ebd c0ea edbc d794 8abb
00000140: ed42 3c3d d603 e43a 1e8e c43d 0db3 823d
00000150: 4deb b13b 9966 cb3d 8b10 99bc 3c8c 81bc
00000160: 385f 083d 0b2e 1bbd 011b 08be cedf 14bd
00000170: c956 b1bb e3bf e83b eca5 65bd 84ab 243d
00000180: 8e0e 903d 8049 dcbd d34d 793b 2af7 cf3d
00000190: 8c83 90bd 51bd 883d 0d56 bd3d c2f9 b23b
000001a0: 312b 9cbd 3785 a4bd e0f1 83bd 52b1 d73c
000001b0: 398f f5bc 4996 d63c aa59 a2bd c429 23bd
000001c0: 6036 abbd 2b0c f9bc f98d 4b3d 69e6 63bd
000001d0: bcab e9bc 24ee 813d 8dc4 173e 5dce a63d
000001e0: 9b40 423a e89c f63d b5a8 84bb 03c3 973b
000001f0: d86c 123d 68bb 50bd 202b adbd b1f0 e13b
00000200: d9af 9c3d af2d 863d 2fbf 823d 3d7e adbc
00000210: 8fb0 0c3e 084c 03bc b386 343d 7e71 acbd
00000220: 2561 b03d 9c83 d2bd 88c0 ae3c 2fc8 e2bd
00000230: 0541 1fbc a5c6 843d 5b8d 2d3d 9fd3 d03d
00000240: 793b 973d 4498 92bc 526c 88bd 3f77 22bd
00000250: 8fec 903c 0ef8 a93c ac41 bdbc 9a03 84bd
00000260: e3d2 2d3d c644 6dbc dbcb c0bb d119 e7bd
00000270: dcdf 203d 3ed3 5f3d e02d 9cbc f423 97bd
00000280: 3bf3 32bd d88c 373d 748e ae3d 79eb 193e
00000290: 36d0 dd3d 3397 76bc fbf8 d23d 8cf7 6bbd
000002a0: 5a39 8fbd 5b2d 11bd 619c abbd 1228 9c3d
000002b0: 156f c2bc 9e75 9d3d 3db5 e93d b51f 453d
000002c0: a6f6 e33d df37 a73d adb4 afbd 2253 a13d
000002d0: 73b7 e93c dcb6 1a3d acd9 a23d 1c6c ecbd
000002e0: 53ca 0dbd 0aa6 84bd 603f ab3c f8fd b13d
000002f0: 12a7 c53d d72e 9a3d 0b86 ed3d 3c3a 0f3d
00000300: 62f7 b23d 21b8 e63d 103d 2f3d f3c9 333d
00000310: 69a6 9c3d 6662 c9bd 1636 c13d 5889 0f3e
00000320: 021b 0b3c d77b 6d3d 2951 95bb bbbf 213d
00000330: f7ce 86bc 2dbe a5bc befe 24bd b4cd b13c
00000340: e53b e83d 616d 953d 479c d83c 72c8 f93d
00000350: 1455 993d 02d5 9e3c 59e4 823c 4766 b23d
00000360: ca9f afbd 4431 5d3d 716c 2ebc 7df0 80bd
00000370: 13b1 e43d ab60 f43d d43b 0bbd 3864 7dbc
00000380: 2366 3d3c ef3b 103a 4f3a 743d 745a 983d
00000390: f154 3d3c fc9c 94bb 66e1 9fba 3cd0 10bd
000003a0: c7db 10bd 44b9 2d3d 9cde fd3c e018 36bd
000003b0: 63a3 a63d d993 ba3b 600a 2b3d 587c 4fbd
000003c0: ec09 bbbd 6e61 b2bd 8be0 1f3d f9c4 d63c
000003d0: a0c4 a13d 2a8c 1b3d a8e6 5dbd b2f6 82bc
000003e0: ab09 3cbd 835e 633c 30ee 3e3d 4ce3 93bd
000003f0: b9cc a53b 78ca 5c3d c975 a23c c66a 493d

bias_hh_l0 f4 [384]
-0.075243786 -0.022860384 -0.05535683 -0.04597758 0.013757615 -0.0010214437 0.088664435 -0.023727717
-0.10624169 -0.062441107 0.12764643 -0.01139388 0.033142056 0.12009553 -0.005213107 0.11398517
-0.116607584 0.0043785768 -0.07519594 0.015797805 0.1105813 -0.08253293 0.024856642 0.0014938131
-0.02161219 -0.010413151 0.12012969 -0.015087204 -0.036490884 0.16747881 0.05855818 -0.11253137
-0.08134784 0.06659418 0.10080856 -0.030704312 -0.061658744 0.167931 -0.05496989 -0.085322656
0.06492878 0.035300806 -0.12442653 0.046366777 0.091646366 0.08014371 0.03516832 0.13052572
-0.07531255 -0.06296654 0.030652931 -0.06374418 -0.07597445 0.0844027 0.09483411 -0.08386151
0.16384615 -0.11987909 0.08836827 0.0012698293 -0.021414232 0.035408866 0.018378811 0.15579256
-0.1269478 0.021806013 -0.032447275 0.14963844 -0.06631821 0.037193976 0.05128107 -0.033342157
0.13547188 -0.04867227 -0.105914354 0.028567186 0.02816458 -0.0073929345 -0.071825325 -0.093529925
0.0602332 0.06451708 0.092774466 0.057479 0.03189522 0.13852601 0.015831098 0.107604794
-0.009366573 0.039593887 -0.08654452 0.02783351 0.115459494 -0.03792158 -0.029174384 0.13029386
0.030570358 -0.09593211 -0.08206165 0.02431977 0.003014202 0.0059987945 -0.019013109 0.019098489
-0.015778024 -0.050995737 -0.051012907 -0.007906657 0.05626886 0.088034794 -0.1018205 -0.050781123
-0.100444496 -0.0023566692 0.06240759 0.09256413 -0.031920064 0.07243573 0.012128257 0.04072952
-0.059921835 0.015927829 0.022753457 -0.12085055 0.052517228 0.009960464 0.020675378 0.08562948
0.017575366 -0.06282079 0.15514034 0.07162312 0.094323725 -0.033449277 -0.010821191 -0.023445662
0.053021543 -0.023366144 0.07778701 0.042537034 0.031153657 -0.011225835 -0.098485254 0.029954316
0.010414828 0.08380243 0.060300134 -0.060553845 0.14509568 0.06484105 -0.06230726 -0.045049768
0.0039766724 -0.02040072 -0.05823055 0.00829495 0.13959318 0.023824025 -0.005096288 0.034469537
-0.022330439 0.009964419 0.03609819 0.026714755 0.021176077 0.01854991 0.051850513 -0.07772607
-0.052742574 0.06905514 -0.07122661 -0.004851552 -0.0531091 0.094762236 0.04753709 0.0033090033
0.10819417 0.014733793 -0.09959452 0.08672455 -0.02709235 -0.0005195175 -0.050892163 -0.040653236
0.043484557 0.075199895 -0.025235023 0.0017682288 0.07259271 0.12065493 0.06281648 -0.05706332
0.06858681 0.06523193 0.00029372436 -0.108297415 0.11380226 -0.06578626 -0.049456254 -0.005434661
-0.055562824 0.13490771 0.0775817 0.06595091 0.022775175 0.040000156 -0.061953954 0.11081054
0.058645446 -0.0019320024 0.10337531 0.052468333 0.025645426 0.07078519 -0.014405999 0.10650513
0.08551058 -0.05596312 -0.07474323 -0.030531824 0.06511649 0.08290377 0.03743764 -0.032758728
0.10723161 -0.0088145435 0.13632475 0.060036007 0.1442149 0.13241076 -0.006510181 0.0029197673
0.012381625 0.12130735 -0.02610382 -0.08194018 0.093645774 0.10654732 0.08429827 0.05521909
-0.040955316 0.012202215 -0.03362224 0.069058426 0.14638977 -0.000706893 -0.0879568 -0.085057884
0.03756929 0.16548838 0.089092225 -0.021729019 0.10081578 -0.028908564 -0.07803471 0.030194549
00000000: 6a19 9abd b345 bbbc d8bd 62bd fd52 3cbd
00000010: 9f67 613c f7e1 85ba b395 b53d a160 c2bc
00000020: 3e95 d9bd 3fc2 7fbd bfb5 023e 65ad 3abc
00000030: f7bf 073d a5f4 f53d b6d2 aabb 0f71 e93d
00000040: f5cf eebd 2a7a 8f3b 5400 9abd 666a 813c
00000050: 7378 e23d 0607 a9bd 28a0 cb3c 0dcc c33a
00000060: 0c0c b1bc ec9b 2abc 8e06 f63d 5230 77bc
00000070: 7777 15bd 917f 2b3e b4da 6f3d d976 e6bd
00000080: b299 a6bd 8862 883d b874 ce3d 9c87 fbbc
00000090: e18d 7cbd 1bf6 2b3e 1b28 61bd a5bd aebd
000000a0: 61f9 843d 9497 103d 56d3 febd 17eb 3d3d
000000b0: 17b1 bb3d 6322 a43d a80c 103d 89a8 053e
000000c0: 773d 9abd 9af4 80bd db1b fb3c 4f8c 82bd
000000d0: 7e98 9bbd 53db ac3d 6338 c23d 95bf abbd
000000e0: 49c7 273e 2b83 f5bd 6cfa b43d 6770 a63a
000000f0: e66c afbc e308 113d 298f 963c 1688 1f3e
00000100: 9bfe 01be 86a2 b23c 6fe7 04bd d23a 193e
00000110: d7d1 87bd b658 183d 190c 523d c991 08bd
00000120: 24b9 0a3e 935c 47bd a0e9 d8bd bb05 ea3c
00000130: 68b9 e63c 6e40 f2bb 2819 93bd 9e8c bfbd
00000140: 17b7 763d 8821 843d 8a00 be3d 1a6f 6b3d
00000150: 90a4 023d c3d9 0d3e 38b0 813c e75f dc3d
00000160: 4176 19bc 332d 223d 413e b1bd 1a03 e43c
00000170: 0776 ec3d a953 1bbd 1eff eebc c16b 053e
00000180: b06e fa3c 0e78 c4bd f00f a8bd 413a c73c
00000190: eb89 453b 8991 c43b 61c1 9bbc 6f74 9c3c
000001a0: ea40 81bc e8e0 50bd e9f2 50bd ec8a 01bc
000001b0: 2d7a 663d 964b b43d 4487 d0bd deff 4fbd
000001c0: d8b5 cdbd 5972 1abb 1a9f 7f3d 4392 bd3d
000001d0: 9dbe 02bd 2f59 943d 99b5 463c ffd3 263d
000001e0: 9970 75bd 147b 823c 7565 ba3c 7e80 f7bd
000001f0: 4e1c 573d 3731 233c 695f a93c 825e af3d
00000200: 37fa 8f3c 30a8 80bd 1cdd 1e3e 24af 923d
00000210: cc2c c13d 1c02 09bd 5d4b 31bc 1e11 c0bc
00000220: 1e2d 593d 5b6a bfbc cc4e 9f3d 503b 2e3d
00000230: f435 ff3c 91ec 37bc a3b2 c9bd c162 f53c
00000240: f4a2 2a3c 9ca0 ab3d 46fd 763d 4f07 78bd
00000250: f693 143e 62cb 843d e635 7fbd 1b86 38bd
00000260: bf4e 823b 691f a7bc 2883 6ebd 8be7 073c
00000270: 84f1 0e3e 9a2a c33c c3fe a6bb ee2f 0d3d
00000280: 53ee b6bc cd41 233c b2db 133d e7d8 da3c
00000290: 7479 ad3c fbf5 973c 3461 543d d92e 9fbd
000002a0: 9908 58bd c86c 8d3d 42df 91bd c5f9 9ebb
000002b0: ed88 59bd b412 c23d 40b6 423d dddb 583b
000002c0: e894 dd3d 0266 713c 36f8 cbbd a49c b13d
000002d0: c7f0 ddbc 3b30 08ba 4d74 50bd 0284 26bd
000002e0: dd1c 323d 6702 9a3d aeb9 cebc eac3 e73a
000002f0: 7dab 943d ef19 f73d eda5 803d 3abb 69bd
00000300: 3e77 8c3d 5198 853d 04ff 9939 09cb ddbd
00000310: 2911 e93d f2ba 86bd a492 4abd 3e15 b2bb
00000320: d895 63bd 3f25 0a3e 28e3 9e3d 4511 873d
00000330: 0193 ba3c 34d7 233d 6ec3 7dbd a3f0 e23d
00000340: 3536 703d 3e3b fdba 6fb6 d33d 09e9 563d
00000350: 5b16 d23c d3f7 903d 2407 6cbc 5d1f da3d
00000360: 2c20 af3d 9639 65bd fb12 99bd e01d fabc
00000370: cb5b 853d 74c9 a93d 3658 193d 042e 06bd
00000380: 3f9c db3d e06a 10bc b798 0b3e 51e8 753d
00000390: 12ad 133e b096 073e 5b53 d5bb 9159 3f3b
000003a0: 4ddc 4a3c fd6f f83d aed7 d5bc 41d0 a7bd
000003b0: 5bc9 bf3d 7b35 da3d 92a4 ac3d 6a2d 623d
000003c0: c3c0 27bd cdeb 473c 79b7 09bd 816e 8d3d
000003d0: 33e7 153e c94e 39ba b222 b4bd d432 aebd
000003e0: 41e2 193d c975 293e fc75 b63d 0e01 b2bc
000003f0: 8178 ce3d a7d1 ecbc a9d0 9fbd 8f5a f73c
