checkpoints/encoder_beat2.pth (torch_old, 308725 bytes, 4 tensors)

weight_ih_l0 f4 [384, 64]
00000000: e8cf db3d 2273 eb3d c532 3b3d 7ca7 7cbd
00000010: 03ab a5bd dab0 ea3d 6166 1f3d 90ce 973c
00000020: 17a7 e73d 4619 41bd 3882 07be 944c c6bd
00000030: 3d9a fdbb ecaf e23d f880 013d bdf8 b03c
00000040: 9c46 683d b0d2 b93c a01d 14bd 7587 203e
00000050: 4ad2 c1bd 393c eebc fbc0 e5bd a371 843d
00000060: 6336 2cbd 4f6b 58bc 750f f43d 78be 223e
00000070: 4050 abbc 5ad9 c3bd cc09 fbbc bebd 503c
00000080: 2e04 633d cf8f acbd 6b8d a93c 1311 3a3c
00000090: 3921 47bd 2511 013e cad8 d13d 2c50 e8bc
000000a0: 4045 763d 7617 e2bd e195 7fbd e22b b3bd
000000b0: d242 6b3d 14a5 acbc 8773 323d 11ef afbd
000000c0: 6bd5 b8bd 571f a9bd 479a 3e3c 2c9f 8c3d
000000d0: 190b 00bd 5aea f9bc 002c ecbc b6d8 1c3b
000000e0: b8ba f63c 1f30 b03d 4770 003e 626e ed3d
000000f0: 366a 92bb 2105 a83d d20c 453c b03a 6c3c
00000100: c2be 01be ce2a 61bd 0ec9 1abe 0740 083e
00000110: 82ee 94bd a3b7 caba 2212 acbd 1cc3 6e3d
00000120: a37c 23be 13ad 9dbd 6a4b d2bc 17e6 dfbd
00000130: 344f 59be d1c9 48bd 77c1 d9bc 525e d8bb
00000140: 831c d9bd 7816 59bd bffa b3bd 6d02 14bb
00000150: 6018 8dbc 8217 5b3c a327 a3bd 88e4 1c3b
00000160: 93ba b63d 5ef5 b83d 02d4 85bd 4d71 03bc
00000170: 5b65 f43c 5ef4 c53d 7a45 843d f691 87bc
00000180: a723 8fbd 0690 483c 6735 1cbd 3cf6 923c
00000190: a4d5 febd e23c 14bd f914 16be 0b09 253c
000001a0: df3f d4bc 1c20 ba3c 6a7d f93c c331 c4bc
000001b0: 0fe6 b4bd 187e 3c3d 2e56 c03a 4366 813d
000001c0: 5ef1 15be 5d2e 88bd d27c 03be 7ac4 95bb
000001d0: 1a96 0c3d ab52 01bc 4f9f e7bd 77bf da3d
000001e0: 0bb0 f73b eb7d 233e 6515 b5bc b729 073d
000001f0: ef52 53ba 214f 893d 08d3 acbd 82c1 2dbd
00000200: b639 e0bd e8ab 543d f5f5 bfbd 1063 00bd
00000210: 23aa e7bd 98ea d6bd e496 e13c f5c2 10bd
00000220: 1074 95bd ce67 3bbd 88ea a1bd 5624 673c
00000230: 6cf8 8cbd 2f8d a43b f504 7f3c 8e09 3cbd
00000240: ade6 2d3d 2b93 75bd 81ca 07be 17c2 b4bd
00000250: e5b3 7abd c13e 5fbd 63b3 0e3d 2cbc ccbd
00000260: 0d1e 5a3d 2a0f 5abd a977 95bd 45c7 08bd
00000270: 3edd d53c e33d d43c 5a8d e6bd 379c fcbb
00000280: be38 6f3c 4f2a 4a3a 4a36 2bbe d45d 40bd
00000290: 01cf 21be 6d8a 08be 1972 24be 8ee7 5abd
000002a0: 1ffd ecbd 3604 64bd ecf2 00be 94f1 4abd
000002b0: b331 e3bd 7c74 92bd 0a7f fcbd 27a1 2ebd
000002c0: e051 07be 8210 9abc 99ac 8dbd 3f33 053d
000002d0: 2301 0abd 0895 003d b6a7 d6bb 929f 363d
000002e0: 6cd3 59bd 4eb1 2fbd 19b1 1dbe fee6 75bd
000002f0: f5df d33d a054 aa3d dab6 b4bd bc56 c5bd
00000300: b018 9fbd 05db cc3c 3292 bcbb ff63 223e
00000310: cdb5 1a3c afcb df3d 166b 703d 7b0f cf3d
00000320: edd1 1ebd 0d02 bb3d 9951 553d 879e 89bb
00000330: 4551 b1bc 42b0 913d 6c30 4c3d c448 a2bd
00000340: d524 14bd 843a 6b3d cda7 0f3e 83e3 fabb
00000350: b7eb 04be e2d6 953c 183f acbc abfb fbbc
00000360: c17b a3bd c18f e0bd f909 dabd 76da e63d
00000370: 89e8 79bb 9ade 18bd 8ee7 37be f2c3 563d
00000380: fc06 6d3d 6877 f93d a1aa d53c 3849 e43d
00000390: ad63 b3bb 9562 88bb 6a6d 7a3d 722f 483d
000003a0: 2280 393d 76f6 943c af5b c13c d8f8 b13d
000003b0: 9eab cabc d271 85bd b386 d0bc 5536 bf3d
000003c0: 0f06 debc 0ac3 83bc a104 13bc da01 713d
000003d0: 4a2e dfbd f6fb 8cbd 692a 97bd 9ff4 b43d
000003e0: 7f6d 84bd 2ca5 6cbd fd15 4ebd 56d7 c53d
000003f0: e3a1 5ebd 4d9b bdbb 3318 73bd 2217 d83c
0.10733014 0.11496569 0.045702714 -0.061683163 -0.080892585 0.11459513 0.038915996 0.018531114
0.11311167 -0.047143243 -0.13233268 -0.09682575 -0.007739334 0.11068711 0.031617135 0.021602983
0.056707963 0.022683471 -0.036161065 0.15676673 -0.094639376 -0.02908145 -0.11218449 0.06466987
-0.042044055 -0.013209178 0.11917011 0.1589297 -0.02091229 -0.09562941 -0.03064432 0.012740551
0.055423908 -0.08425867 0.020697316 0.01135661 -0.048615668 0.12604196 0.10246427 -0.028358541
0.060124636 -0.11039631 -0.062398795 -0.08748604 0.05743677 -0.02107481 0.043567207 -0.0859052
-0.09025081 -0.08257931 0.011633462 0.06866297 -0.031260584 -0.030507255 -0.028829575 0.002393288
0.030118331 0.08602928 0.1254283 0.115933195 -0.0044682277 0.08204103 0.012026982 0.014418289
-0.12670425 -0.054972462 -0.15115759 0.13305674 -0.07272054 -0.0015466105 -0.08401896 0.05829154
-0.15965514 -0.07699027 -0.025670726 -0.10932558 -0.2122162 -0.049020592 -0.026581509 -0.0066030407
-0.10601141 -0.052999943 -0.087880604 -0.0022584454 -0.017223537 0.013372304 -0.079665445 0.0023939926
0.08922305 0.09031175 -0.06534578 -0.0080226185 0.029833486 0.0966575 0.06458564 -0.016549092
-0.06989222 0.012241369 -0.038136866 0.01793968 -0.124430925 -0.036190875 -0.14656438 0.010072957
-0.025909362 0.022720389 0.03045531 -0.02394951 -0.08832943 0.04601869 0.0014674121 0.06318333
-0.14642856 -0.06649468 -0.12840584 -0.004570541 0.034322836 -0.007893245 -0.113096826 0.1068105
0.0075588278 0.15966003 -0.022104928 0.032998767 -0.00080613693 0.06704546 -0.084386885 -0.04242087
-0.109485075 0.051921755 -0.093730845 -0.031344473 -0.11311748 -0.10493964 0.02753777 -0.035342176
-0.07297528 -0.045753293 -0.079060614 0.014107784 -0.0688332 0.005021713 0.015565147 -0.04590755
0.042456318 -0.059954803 -0.13260843 -0.08826082 -0.061206717 -0.054503206 0.034839045 -0.099968284
0.053251315 -0.053237118 -0.07298214 -0.033393163 0.026106473 0.025908416 -0.112574294 -0.007709052
0.014600931 0.0007711993 -0.16719928 -0.04696448 -0.15801622 -0.13334055 -0.1605915 -0.053443484
-0.115717165 -0.05566808 -0.12592667 -0.049546793 -0.11093464 -0.07151124 -0.12328918 -0.042634156
-0.13214827 -0.0188067 -0.06917686 0.032519575 -0.03369249 0.031392127 -0.0065507544 0.04458577
-0.053180143 -0.0428937 -0.15399589 -0.060034744 0.10345451 0.08316922 -0.08823939 -0.09635684
-0.07768381 0.02500678 -0.0057547325 0.15858458 0.009442759 0.109275214 0.058695875 0.101103745
-0.03877442 0.091312505 0.05207977 -0.004199806 -0.021645198 0.07113697 0.049850866 -0.07924035
-0.03616794 0.05742885 0.14028855 -0.007656516 -0.12980543 0.01829094 -0.02102618 -0.030759653
-0.079825886 -0.10964919 -0.106464334 0.11272137 -0.0038132987 -0.037321664 -0.17959425 0.05243296
0.05786799 0.12180978 0.026082339 0.11146778 -0.0054745288 -0.0041621425 0.0611395 0.048873372
0.045288213 0.018183928 0.023603288 0.08690041 -0.024740037 -0.0651585 -0.025454855 0.09336535
-0.027102498 -0.016084213 -0.008973272 0.058839656 -0.10897501 -0.06883995 -0.07381136 0.0883572
-0.06466197 -0.057774708 -0.05031394 0.09660213 -0.054353606 -0.0057863356 -0.05934925 0.026378218

weight_hh_l0 f4 [384, 128]
00000000: 4c2d 4c3c bbd5 1abc 54fa 243e b316 e9bc
00000010: 4a86 27be 7e4c 183e 760f 30be fbf6 2abe
00000020: fa9e c03d 4f08 acbd bddb bc3d 19e7 ec3d
00000030: 0c29 7b3d de42 3fbe 9962 30bd 900d 0cbc
00000040: 667d 40bc 84d0 9bbd 759e 0c3d e47c 6a3d
00000050: 0523 4fbc 0961 4bbd ed9f 883d bed2 dbbb
00000060: 60c6 633e 104e 0dbc 9fbc 4fbb 6158 7b3d
00000070: 582f b3bc d4d0 d4ba 041b 59bd ee21 84bd
00000080: fa98 e23c cbc3 12bd 20ac c2bd 6d94 b2bc
00000090: 8032 6e3c 36db de3d 03f7 bb3d 1d63 fb3d
000000a0: 6a97 f7bd 0bf9 bd3d 8d18 c9bc e4f3 e33b
000000b0: 6ddc 043e 8465 f8bb 6715 3cbe 3be3 7dbd
000000c0: 12ea eb3d 10a0 0abd 543d e1bc fbfb 7fbd
000000d0: 899a 7cbd 15e5 95bc 5f0f abbd 6d5d a0bd
000000e0: 0021 4cbc 0bf8 3fbb daab 803d 1dcc 5dbc
000000f0: a402 403e 9343 06be 2723 e7bc e48e f23d
00000100: 08a0 163d 3c7a b23c 9de6 223e fd88 cabd
00000110: 5b11 a2ba fa9b 003d c8fb eb3c e43e 1e3c
00000120: f18c 573d a2a2 bbbd 457f 48bd a60e fd3d
00000130: 629f fc3c 918f c4bb 00d8 8b3c 84c1 df3d
00000140: 2bde 62ba db83 afbd 9df4 233d edea 0cbc
00000150: b383 243d 189a cabd d30c 0f3e f366 263e
00000160: 99b1 093d 64b9 6abd 16b4 db3d 866f 1dbe
00000170: 8b06 00be 6437 1a3e 551e d3bb 8079 b3bd
00000180: 32dc babd 8bf4 bdbd 9dcc fd3d 43c5 ecbc
00000190: f2c5 d83c 9c63 953d cbb0 8b3d 37d4 513c
000001a0: aa37 0ebc fbd7 7ebd af60 1bbd 0570 04bd
000001b0: 79ad 49bd 711a edbd d372 583c 3e79 213d
000001c0: c900 223e a562 a43d a47b 533d ddd6 01be
000001d0: 0d72 5dbd beca cf3d bf2b 063e ca96 393d
000001e0: 78f4 9dbc ae88 97bb b05d 903d bae7 193d
000001f0: e488 bebd 55b6 7d3d 9851 493d cb04 02be
00000200: f05b 2f3d 42b6 72bd 08e9 eb3d 2b85 d33c
00000210: 3a83 103d a78d d53d bb96 dabd 3755 dabd
00000220: 17d5 71bd 9c65 093d 0630 38bd 7562 2a3b
00000230: cafb a8bd 887d b0bd 0c56 8ebd e3bf 1abd
00000240: 7d0e 09be e2ed a6bd 0b45 ecbd b609 4abc
00000250: a511 7bbc 7cec 6c3d e0a3 023d 4547 aebc
00000260: 726a 813d 7290 a4bd 6f54 0bbd 42a4 d63c
00000270: 90d6 f53d 65f5 933d 87bd 07bb 639f d53c
00000280: ee70 1f3c 6726 533d 1dc2 2d3c 121d d3bd
00000290: aeb7 503d 047c b13d 9bdf cdbd 265c 30bd
000002a0: 570b 9c3c 7d97 833d ea21 b9ba b229 d3bd
000002b0: 4e15 d2bc 435b 38bd eadb 88bd 91b7 aebd
000002c0: c1e3 7cbd 76c7 9fbd 4c2d ff3c a27d 1abb
000002d0: 9279 f8bd 640b c23c a87d 86bd 4c22 81bc
000002e0: eff2 b53d d85d cc3a 2741 b23d f806 10bd
000002f0: 7d9a 393d 3d83 27bd d3a4 c0bc 215c 053d
00000300: a7e4 1b3e c6f2 9ebc 315f 9b3d e4b0 54bd
00000310: 831e 853c 0bca 0d3d 6276 033d 205a 17be
00000320: 284b b5bd 5533 13bd 7a49 7f3d ff22 febb
00000330: 909f 153d aad8 81bd 7d00 cc3d 9701 5a3d
00000340: 5843 a33d da90 7c3d 931f 4dbd e8b4 c5bc
00000350: 3a8a e23d 10bb 1abe 2e60 0cbe fb83 903d
00000360: 5a1e a83d c366 4abd ac8c 2ebe 2edd fabc
00000370: 5c82 bc3d 1879 8d3c 396b 833c c24b 6dbd
00000380: 3a86 ec3d 59d0 16be afd9 a53d c413 a6bd
00000390: fd0c 233d 00a1 2abd 1e1b 57bc dbe9 17bd
000003a0: 6324 97bb f415 ac3d f6f1 bcbd dd60 6b3d
000003b0: f8e6 a0bc 2665 0cbd 9f9b ee3c 2163 e6bc
000003c0: a6f3 1d3e 662c f63d 0633 133e 886f 0dbe
000003d0: 771f 80bc bdd6 473a 9b89 823c 22b7 463d
000003e0: 1f81 5cbd 77c9 fc3b 2b08 ca3c d0fa 20bd
000003f0: 26f4 7f3c 12f3 143d dc90 51bc a921 9fbb
0.0124619715 -0.009450371 0.16111118 -0.028453207 -0.16359821 0.1487293 -0.17193398 -0.16695778
0.094053224 -0.08400022 0.09221599 0.11567516 0.061318442 -0.18677852 -0.04306278 -0.008548155
-0.011748647 -0.076081306 0.034330804 0.05724801 -0.012642627 -0.049653087 0.066711284 -0.006708472
0.22243643 -0.008624569 -0.003169812 0.06136358 -0.021873161 -0.0016236552 -0.05300428 -0.06451784
0.027660836 -0.035831254 -0.095054865 -0.02179929 0.014538407 0.10881655 0.09177973 0.12274764
-0.12089427 0.09276017 -0.02454784 0.0069565643 0.12974711 -0.007580461 -0.1836754 -0.061984282
0.11519255 -0.033844054 -0.027495064 -0.062496167 -0.061670814 -0.018297711 -0.08352541 -0.078303196
-0.01245904 -0.0029292132 0.06282778 -0.013537434 0.18751007 -0.13111715 -0.028215004 0.118436605
0.03677371 0.021786802 0.15908284 -0.0988941 -0.0012364791 0.03139875 0.028806582 0.009658549
0.052624647 -0.09161879 -0.0489495 0.123563096 0.030837718 -0.0059985598 0.01707077 0.10925582
-0.00086543214 -0.08570071 0.040028203 -0.008600933 0.04016466 -0.09892672 0.13969736 0.1625021
0.033616636 -0.05730571 0.10727708 -0.15374574 -0.12502496 0.15060192 -0.006442825 -0.08763409
-0.0912403 -0.092751585 0.123925425 -0.028902655 0.026461575 0.072943896 0.0682083 0.012806944
-0.0086802635 -0.062217694 -0.037934 -0.032333393 -0.049237702 -0.11577309 0.01321097 0.039422266
0.15820612 0.080266275 0.051631585 -0.1267962 -0.054063845 0.10146092 0.13102625 0.04530982
-0.01928161 -0.004624448 0.070491195 0.037574507 -0.093034536 0.061941464 0.04915008 -0.12697141
0.042812288 -0.059255846 0.115190566 0.025820335 0.035281397 0.10427409 -0.10673281 -0.10660785
-0.05904111 0.033544168 -0.044967674 0.0025998626 -0.0825115 -0.08617693 -0.06950006 -0.037780654
-0.13384433 -0.08150841 -0.115366064 -0.012331417 -0.015324031 0.057842717 0.031894565 -0.021274218
0.06319131 -0.08035363 -0.03401607 0.026201371 0.12003815 0.0722454 -0.0020712332 0.026076978
0.009731514 0.051550295 0.010605362 -0.10308279 0.05095642 0.08666232 -0.10052415 -0.04305663
0.019048376 0.064253785 -0.0014124487 -0.10310687 -0.025644924 -0.04500891 -0.0668257 -0.08531106
-0.06174064 -0.07801716 0.031149529 -0.0023573418 -0.12132563 0.023687072 -0.06566936 -0.015763424
0.088842265 0.0015591932 0.08703833 -0.035162896 0.045313347 -0.040896643 -0.023516094 0.032558564
0.15223943 -0.019402873 0.07586516 -0.05192651 0.0162499 0.03461651 0.03209532 -0.14780474
-0.088522255 -0.035937626 0.062325932 -0.0077556367 0.036529124 -0.063401535 0.09961031 0.053224172
0.07971829 0.06166158 -0.05007894 -0.024134114 0.11061521 -0.15110421 -0.13708565 0.07056423
0.08208914 -0.049414407 -0.1704585 -0.030623045 0.092045516 0.017269656 0.016042339 -0.057933576
0.11549039 -0.14727916 0.080981605 -0.08109239 0.03980731 -0.041657448 -0.013129024 -0.037088256
-0.004612492 0.08402625 -0.09225838 0.057465423 -0.019641384 -0.03427615 0.02912694 -0.02812344
0.15424976 0.12020187 0.14374933 -0.13812077 -0.015640004 0.0007623246 0.015934756 0.048514493
-0.053834077 0.007714446 0.024662098 -0.039301693 0.015622174 0.036364622 -0.012790885 -0.0048563075

bias_ih_l0 f4 [384]
00000000: fd9b 043d c3eb 9f3d 52f7 79bd 6e7a f1bc
00000010: ed5b 5f3b b56f f3bc 9ecf 6abc e948 8fbd
00000020: 3510 f2bc 7019 7abc 4d53 ab3d 3088 9abd
00000030: a02c f3bc ca27 913d 413d fcbc 3b36 253d
00000040: 6476 61bb bd15 94bc 79ae 163b 5bd3 0f3e
00000050: e613 f8bc 5d29 473c a18c ae3d cd50 adbc
00000060: 5bf0 b7bd 2234 6cbb 1ec7 a63c 879a 0b3e
00000070: 59d8 fdbc 6e88 803d b349 bebc 7026 d53c
00000080: eb6d 8f3d b331 03be 250a 903c 5bb4 093e
00000090: 3b1d 27bd 2ae5 013e 906e 3c3d 2014 3d3d
000000a0: 810a 15bd 5955 8f3d be9d 253e 3aae 60bc
000000b0: 7476 153d 98b6 5c3b 52ec 00be cd2c dcbd
000000c0: 3bac ab3d 0779 d9bd 7ef7 b43d 9dc7 b4bd
000000d0: 9285 27bd 9a0c 5ebd dab7 b33d 4d09 a93d
000000e0: 6943 0d3e b8f9 c13c 9134 983d ae1e 8e3d
000000f0: 0577 533e 5375 233e 911d f83d 43da 8a3d
00000100: 74ef 393d e767 fb3d 01bf 2cbd 4bae c8bc
00000110: 8484 2bbd 8216 1c3c d907 17bc a36c 77bd
00000120: a1c6 11bc 84db 00bb 328f 0ebe db0f 713d
00000130: 2e60 f33b 4113 babd 2cce 75bc 9ccf 83bc
00000140: 61ed f43d 477e 6a3d 74ec 1c3e 1c70 8c3d
00000150: 6d62 113e 6ce5 2d3d 4586 e7bd 3a7b 5bbb
00000160: 283c fcbc 87a9 ecbc b43b 013d e241 093d
00000170: 1f0e 1cbd 373f 7b3c 1ebd 75bd 907c 28bd
00000180: 2a4a 4a3c 6742 803d 54a9 3fbd 3998 80bd
00000190: 41d2 9cbd 1854 bd3d a8ab 533d 652a df3d
000001a0: d986 093e 95af 4c3c d46f 7b3c 12e1 30bd
000001b0: c025 633c d3c6 ccbd db7e 0e3e c5c3 083d
000001c0: cd9f 573d f6da c63c 5f08 163e d234 99bc
000001d0: 1649 813d 7256 fbbd b9e1 153e 57fc 263d
000001e0: 4822 3abd b96a bcbc da10 ce3d fcd8 6fbd
000001f0: e805 06bd 11e1 f139 dbc6 c63c 6abc 99bd
00000200: 9f19 4b3c fda4 993c 972a 8c3d 5d6e e0bc
00000210: 44cd b13d 8da7 48bb 50ff 663d 5ac9 843d
00000220: 917b 003d 161e eeba 6885 0b3d 9cd6 f03c
00000230: 91ba 28bc fd63 53bd b29a b43c 7d3f ca3c
00000240: 13b0 3bbd 52e6 243d cab9 343d 4574 f7bc
00000250: a8de 0dbd 7a9c 68bb 9d99 823d c032 003e
00000260: 4865 aabd 3032 a53d 7212 a0bd 3ddf 8d3d
00000270: 5762 c33d de8d d33a 9fce ff3c 417d 96bc
00000280: 4743 093e f29b a6bd 4add f83d 5dde e5bd
00000290: 89b6 9d3d d07a 18be 48cc 34bc 309e a43d
000002a0: c62c ef3d 8793 ccbd 1e7d f43a 590a ccbb
000002b0: 1306 72bd deba 903d 2425 4bbd 437b da3d
000002c0: d8a8 3dbd 6b6e c4bd 9bb8 a8bc 6f59 153e
000002d0: f38d 7abd 9aa6 e53c 6ebd d13c 520e 1abd
000002e0: 0330 223d bee9 373c c815 a2bd 29b4 d93c
000002f0: 1b9e 89bc bb8a 9ebd 0884 a83d ec95 abbd
00000300: 10ac ef3c 7030 9ebd 8018 acbd 7f99 6dbd
00000310: 4454 cebc 5d09 91b8 573e 00be 0119 eabc
00000320: 23e8 9abd a617 933c 1a91 ba3d 2223 4b3d
00000330: f088 4dbd e25a 87bd 1548 54bc bbf1 adbd
00000340: 1e1b a53d c9ed b9bd 71fd 803c ce60 a8bc
00000350: ea91 aa3d 2054 f13d e6de 02bd d809 77bd
00000360: cae2 143d ee3b 333d 3817 c63d 0083 a13c
00000370: 2ac7 21ba ca63 663b c251 3fbd eee2 a9bd
00000380: 5a4e 95bd 8588 0fbe e73c 2a3d 9a74 073c
00000390: eb92 db3b b273 9d3d 53a4 1fbd bc74 f03b
000003a0: 5521 1e3c 22fc 1bbe 80cd 73bd 1ef0 f3bc
000003b0: 7e61 6e3d 1bf0 a1bd 4c33 813d 65e4 a5bc
000003c0: 90ba c93c d69b 8cbd 290b 95bd 2f8a 83bd
000003d0: ba64 d03d c24f 1a3d c438 a1bd 6427 4fbc
000003e0: 2863 3ebc 79b2 a13d 7280 8c3d 7534 813d
000003f0: b416 61bb 50b5 91bd 75f7 703c 2e42 19bd
0.032375325 0.0780864 -0.06102688 -0.029477324 0.0034081892 -0.029716352 -0.014331726 -0.069963284
-0.029548744 -0.015264854 0.08365498 -0.07545507 -0.029684365 0.07087667 -0.030790927 0.04033492
-0.0034402842 -0.018076772 0.0022992177 0.1404547 -0.030282926 0.012155858 0.085229166 -0.021156693
-0.08981391 -0.0036041816 0.020358618 0.13633166 -0.030986952 0.06276022 -0.023228502 0.026019305
0.07003387 -0.12811927 0.017582962 0.13447706 -0.04079936 0.12685075 0.046003878 0.04616177
-0.03638697 0.06998701 0.16173455 -0.013713414 0.03648992 0.003367817 -0.12590149 -0.107507326
0.0838246 -0.10618787 0.08836268 -0.08827136 -0.040898867 -0.054211237 0.08775301 0.08253727
0.13795246 0.023678645 0.07431901 0.069394454 0.20650871 0.15962724 0.12115014 0.06779911
0.045394376 0.12275677 -0.042174343 -0.024497172 -0.041874424 0.009526851 -0.00921818 -0.06040634
-0.0088974545 -0.0019662092 -0.13921812 0.05885301 0.007427237 -0.09085704 -0.0150027685 -0.016090207
0.11959339 0.057249334 0.15324575 0.06857321 0.14197703 0.042455122 -0.11304907 -0.0033490197
-0.030790403 -0.02888943 0.031551078 0.033510096 -0.038099404 0.015334896 -0.05999481 -0.041134417
0.012346784 0.06262665 -0.046792343 -0.06279034 -0.0765729 0.09244555 0.051677376 0.10896758
0.13430347 0.012493034 0.015346486 -0.043183394 0.013863981 -0.0999886 0.13915579 0.033389825
0.052642632 0.02427433 0.14651631 -0.018701945 0.06312768 -0.122723475 0.14636888 0.040767994
-0.04544285 -0.023000108 0.10061808 -0.05855654 -0.032720476 0.0004613479 0.024264744 -0.0750664
0.012396245 0.01875543 0.06844061 -0.027396375 0.086817294 -0.0030617446 0.05639583 0.06483717
0.031367842 -0.0018166925 0.034062773 0.029399209 -0.010298387 -0.051609028 0.02204642 0.024688477
-0.045822214 0.040258713 0.044122495 -0.030206809 -0.03463617 -0.0035493658 0.06376956 0.1251936
-0.08320099 0.08066213 -0.07816018 0.06927345 0.09540241 0.0016140302 0.031226454 -0.018370273
0.1340457 -0.08135213 0.121515825 -0.11224053 0.077008314 -0.14890599 -0.011035033 0.08037984
0.11678462 -0.09989076 0.001865301 -0.0062268195 -0.059087824 0.07066892 -0.049595967 0.106680416
-0.0463036 -0.09591373 -0.02059584 0.14584897 -0.06117053 0.028033543 0.025603022 -0.037611313
0.03959657 0.011225162 -0.07914311 0.026575165 -0.016799023 -0.077413045 0.08228308 -0.08378205
0.02925685 -0.077240825 -0.084031105 -0.058007713 -0.025186665 -6.915883e-05 -0.12523781 -0.028576376
-0.07563808 0.017955612 0.09109707 0.049594052 -0.050179422 -0.066091314 -0.012956639 -0.08493372
0.08061813 -0.09078557 0.01574585 -0.020553973 0.08328612 0.11783624 -0.031950854 -0.060312122
0.036349095 0.043758325 0.096723974 0.019715786 -0.00061713404 0.0035154694 -0.04670883 -0.082952365
-0.07290335 -0.14016922 0.041561987 0.008267546 0.0067008636 0.07688083 -0.03897507 0.0073381346
0.009651502 -0.152329 -0.059522152 -0.029777583 0.058198445 -0.079071246 0.06308612 -0.020250509
0.024625093 -0.06865661 -0.07277519 -0.06422841 0.10175462 0.03767372 -0.07872155 -0.012643669
-0.01162032 0.07895369 0.068604365 0.063088335 -0.0034345808 -0.07114661 0.014707436 -0.03741663

bias_hh_l0 f4 [384]
00000000: 207e 4a3d ae48 993d c0e4 09bd 18fd 723d
00000010: 221e fcbc 1127 9e3d c394 0c3d 3b15 8e3d
00000020: e49d 0f3b ee47 2f3c 23db 3a3b 7eca fdbd
00000030: 94a7 8e3d 69e9 863d ac07 663c 1c7e 823d
00000040: d8ef 27be 8731 273c f4ea 46bd 834e 783d
00000050: 24d1 8c3a 0ca5 503d 6f1b fd3b e37d c43d
00000060: 3278 b53c 27b1 15be 1b9e 55bc c87f 2dbb
00000070: ef42 9b3c 5b78 393d 3b10 78bd 2173 bd3d
00000080: 6303 ffbb bb7b 0f3d 3caf 0d3c 2712 f63c
00000090: fbe6 d2bd 5738 733c 6bea 8cbc 089d d1bc
000000a0: 8549 113d 4f05 83bd 5637 d63d 039d 643d
000000b0: 13f2 933d 4eb6 1b3a d17c 0abe b4af 64bd
000000c0: 5b46 053e a8b8 0abd f204 e13d 9b02 97bd
000000d0: ba3a 2bbd 6110 24bd 8ef5 39bd 3a67 203d
000000e0: cd8f 6e3d 24e0 1b3d 9017 ba3d 922a a83c
000000f0: 6849 3b3e 3e8c 263e f9ff b1bc 604e 6d3c
00000100: 4104 cd3d b73f 943d 0c66 acbb d3e0 a03d
00000110: 0165 2dbc 2c1b e63d 1013 48bd af1c b5bc
00000120: 3ae0 913d e712 9abd 4adf 69bd 382e 0c3e
00000130: 60fc 22bd d8bb 983c 9063 bf3d 71f8 19bd
00000140: 1391 9b3d f8ec bf3d 6e5f 0d3e 3895 9c3c
00000150: 8e40 a03d 354d f93b b86b ecbd d884 213e
00000160: bdb4 083e 53a1 84bd de8f 9c3d 42d7 e5bc
00000170: 7cac 8c3c 9a94 413d 5cef 21bb d848 edbc
00000180: 6635 a93d 6e56 c93b 5005 a93d dcbd 8e3d
00000190: a8a3 fdbb fb4e 16bd fce8 69bd b0d5 823c
000001a0: a0bb 8e3d 83a4 be3c cb43 033d aaf6 b6bd
000001b0: e2f0 8d3d 6e06 343d 2542 fc3c 4c83 acbd
000001c0: d7ce 5f3d a351 f83d 89a3 793d 5297 51bd
000001d0: 59d1 8b3c 96f5 92bc 80e8 8e3d 1f93 c3bd
000001e0: 1704 7b3d 2165 983d 5563 093d 7232 c63c
000001f0: 1d68 bc3d d1de 7cbd f409 f33a 98d7 d43c
00000200: cacd b93d fef8 0c3e 7639 713d b7b8 af3d
00000210: 6e46 0cbd d62f f5bc 21e6 a7bc 6cf0 c3bd
00000220: 6017 54bd 91d3 713d b8a0 f3bd c43c a23d
00000230: 1c28 c73b 7d21 463d 62ac 24bc b28b 303d
00000240: 188b 7dbd 3579 833c b34d 8c3d 0003 19be
00000250: 879d 9cbb 1000 793d 8525 ffbc 9bb1 803d
00000260: 01e6 17bc 8f7c ff3d 69d7 873c 1f94 c23d
00000270: b222 be3c 8150 90bd 85da 733d 6a73 d5bd
00000280: c235 e83d d0d7 63bd c8c7 2a3c 06c7 213c
00000290: da84 253e 7ed7 4ebd 8855 643c 6f60 643d
000002a0: 5eb7 ce3b c3bc a7bd 5472 5d3c 6925 33bd
000002b0: 42cd 8d3d 1523 df3d a3a5 053d 2b69 ba3c
000002c0: a780 273b 8911 a9bc 6cbb 363d f0f7 ce3d
000002d0: a6bb 8abd 61e1 1d3c bf25 f93b 4261 60bd
000002e0: f2da aa3d a59e b2bb 4fc3 debd 52be 4bbd
000002f0: 2373 8dbc f5b6 4bbd f6c1 91bb 3034 9d3d
00000300: c6b1 33bd 544a babd cb7c d53c a1db 8dbb
00000310: 4b07 bc3d faba 963c c877 21be 64b8 5fbc
00000320: e3f8 adbd 96c4 863d d8f3 9b3d 290b 8e3d
00000330: 7fbb 81bd 75d0 61bd dd8c 7c3c fa2c 8abd
00000340: 785e d13d b4c8 5bbc 2414 8abd 30b5 7abd
00000350: b767 703d f5d2 41bc ec26 94bd da7b d7bd
00000360: 9fa1 11bd bad8 9d3d 2fe2 7f3c 724a 833d
00000370: 12fd 8cbc 3b3d 193e 3235 de3d fc5d b3bd
00000380: 40cf 14ba 2b56 cfbd 9bf7 a53d 87ae e43d
00000390: 5b4d 9f3c 150d 4d3d 9189 3abd d3d8 aebd
000003a0: 7fc6 833d 46b4 20be 11cf 2cbd 5bbc 07bd
000003b0: 00a6 89bd 136d 92bc 8d52 e13d 1025 86bd
000003c0: e6a6 7e3d 1c45 b53c 97ad 85bd 6319 8ebc
000003d0: 82b9 b33d 4b16 89ba 7101 80bd 807a 89bd
000003e0: 4bba b53d b27a d7bc 8194 883d 0c22 b4bc
000003f0: 3fdd b53d 683d c6bc 1674 163e 61b7 b13d
0.04943669 0.07484566 -0.03366542 0.0593234 -0.030776087 0.07722295 0.034321558 0.06937643
0.0021914179 0.010698302 0.0028511963 -0.12392138 0.06965557 0.06587488 0.014039915 0.0637171
-0.16400087 0.010204679 -0.048563913 0.06062175 0.0010743481 0.05093865 0.0077242176 0.095943235
0.02215204 -0.1461836 -0.013038184 -0.0026473869 0.018952815 0.045280796 -0.060562354 0.09250475
-0.007782386 0.035030108 0.008647736 0.030037953 -0.10297962 0.014844975 -0.017201623 -0.025587574
0.035470504 -0.06397497 0.10459773 0.0558138 0.07223906 0.0005939946 -0.13524176 -0.055831626
0.1301512 -0.03386751 0.10987271 -0.07373544 -0.041804053 -0.040054683 -0.045400195 0.039160945
0.058242608 0.038055554 0.090865254 0.020528112 0.18289721 0.16264436 -0.021728503 0.014484018
0.10010577 0.07238715 -0.0052611884 0.07855382 -0.010583163 0.112356514 -0.048846304 -0.022108404
0.07122846 -0.075231366 -0.05709771 0.13689506 -0.039791465 0.018644258 0.09345162 -0.037590448
0.0759603 0.0937137 0.13805935 0.019114122 0.07824813 0.0076080807 -0.11543983 0.15773332
0.13350196 -0.06476083 0.07644628 -0.028056744 0.01717209 0.047260858 -0.002470932 -0.028965399
0.08262138 0.0061443364 0.082529664 0.069698066 -0.0077404566 -0.036696415 -0.057106957 0.015971035
0.069693804 0.023271805 0.032047074 -0.08933766 0.069307104 0.043951444 0.030793259 -0.084234804
0.054640617 0.12124946 0.060946975 -0.0511697 0.017067598 -0.01793937 0.069779396 -0.095495455
0.061283197 0.07441164 0.033541996 0.024193976 0.091995455 -0.06173593 0.0018542395 0.02598171
0.09072454 0.13766858 0.05889269 0.085801534 -0.034246854 -0.029930037 -0.020495476 -0.09567341
-0.051780105 0.059039656 -0.11895889 0.079217464 0.0060777795 0.04837178 -0.010050865 0.043101974
-0.06190023 0.016049007 0.068507574 -0.1494255 -0.004779521 0.060791075 -0.03114582 0.062838756
-0.009271146 0.124749295 0.016582208 0.09500908 0.023209903 -0.07046605 0.05953457 -0.10422404
0.113383785 -0.055625737 0.010423608 0.009874111 0.1616396 -0.050498478 0.013936408 0.05575603
0.00630848 -0.081903 0.0135160275 -0.04373685 0.069239154 0.10895363 0.032628667 0.022755226
0.002555886 -0.020638244 0.044612333 0.10105884 -0.06774072 0.009636254 0.0076033766 -0.054780252
0.08342542 -0.005451041 -0.10877096 -0.04974205 -0.017266816 -0.04973503 -0.004448171 0.076759696
-0.04387071 -0.09096208 0.026060482 -0.0043291603 0.091810785 0.018399704 -0.15768349 -0.013654802
-0.08494737 0.065804645 0.07614869 0.069357224 -0.0633459 -0.05513044 0.015414444 -0.0674686
0.102230966 -0.013414551 -0.06742123 -0.06120795 0.05869266 -0.011830081 -0.07233986 -0.1052167
-0.035554525 0.07707353 0.015617891 0.06410684 -0.017210517 0.14964764 0.1084999 -0.087581605
-0.00056766346 -0.10123857 0.081038676 0.11166101 0.019446066 0.050061304 -0.04554135 -0.0853745
0.064343445 -0.15693769 -0.04218966 -0.033138614 -0.06721115 -0.017874276 0.110020734 -0.06550038
0.062170886 0.02212768 -0.0652725 -0.01734609 0.08775617 -0.0010458914 -0.06250275 -0.06712818
0.08873423 -0.026303623 0.0666895 -0.021988891 0.0888009 -0.024199203 0.14692721 0.08677555
