checkpoints/encoder_beat1.pth (torch_old, 308661 bytes, 4 tensors)

weight_ih_l0 f4 [384, 64]
000000 69 1b 14 bd 16 78 df 3d dc 56 08 bd 97 36 14 3d
       -0.036158953 0.109115764 -0.03328596 0.036184873
000010 0e f0 eb 3d 2f df bb 3c 8e d2 3a 3c 9c 34 aa 3d
       0.11520396 0.02293357 0.011402739 0.08310816
000020 53 f3 b5 3c 18 2b 25 3c 77 5e de 3c f1 8c c5 3b
       0.022210753 0.010081075 0.027144654 0.0060287644
000030 cb fe 85 bd 60 7c bc 3d 89 e0 80 3d 72 7b 92 3c
       -0.065427385 0.0920341 0.06292827 0.017881129
000040 70 e6 8b bd 76 8a a7 bd 3e b6 58 bd 74 7b 5f bc
       -0.06831062 -0.08180706 -0.052908175 -0.013640273
000050 ef 0e 51 be a2 3f 4b bb 52 dc 99 3c 0e 4f 61 bc
       -0.20415853 -0.003101327 0.018781815 -0.013751758
000060 93 55 b9 bc b2 33 af 3d 24 58 01 be ae e4 ee bc
       -0.022623813 0.08554782 -0.12631279 -0.029161777
000070 b1 0a ed 3c c6 93 1e 3c 54 f5 b8 3c 8a c2 b1 bc
       0.028935762 0.009678787 0.022577919 -0.021699209
000080 8d a7 2d 3b 7e 18 15 3e 10 59 a3 3d c0 ba 8b 3d
       0.0026497573 0.14560124 0.07975972 0.06822729
000090 c9 aa ec 3c d6 8c d0 3d 7e 1b d5 bd e3 9d 30 3d
       0.02889003 0.10183112 -0.10405634 0.043119323
0000a0 ea b8 83 3c da 12 2d 3a 1c 4c 79 3d 3e 54 9d 3d
       0.016079385 0.00066022354 0.0608636 0.076820835
0000b0 1e 4b d3 b9 68 5e a8 3d c8 a8 88 bd d6 55 ed 3d
       -0.00040301023 0.082211316 -0.066728175 0.115886375
0000c0 52 b7 d7 3d 02 47 20 3d ba 05 30 bd a1 87 2a bd
       0.105330124 0.03913022 -0.04297421 -0.041633252
0000d0 30 f7 e0 bd 0a 44 0c bc 6e 34 42 bc 61 29 b5 bc
       -0.10984647 -0.008561144 -0.0118533205 -0.022114458
0000e0 c0 8c 57 bd 8e 1c 2a 3d 29 d0 5e 3c 71 b9 97 bd
       -0.052624464 0.041531138 0.013599434 -0.07408417
0000f0 d2 9a 30 bd ca 53 89 3c 86 c6 a8 bd 1d 48 9f 3d
       -0.0431164 0.016763587 -0.0824099 0.077774264
000100 44 ea b3 bd 82 8c ab 3c 86 f2 8d bc 6e e1 88 bd
       -0.08784917 0.020941023 -0.017327558 -0.06683622
000110 50 1b db bd 18 ef 2e bc 69 e2 de bd 32 a4 c8 bc
       -0.10698569 -0.010677122 -0.10883028 -0.024492357
000120 a9 0d 12 bd 98 28 1c 3d 6b 6a 5f 3d dc 4d c2 bc
       -0.03565756 0.03812465 0.054544847 -0.023718767
000130 4b 9f fc 3c b0 30 5b bd 0b 20 16 bd e6 ad 5c 3d
       0.030837676 -0.05351323 -0.036651652 0.05387678
000140 08 05 89 3d 80 70 6d 3d b4 89 80 3d 6f 4b 9b 3c
       0.06690413 0.057968616 0.06276265 0.018956868
000150 da 9f b8 3d 9c c3 1a bd 9b 92 9d bd ac 15 1f bd
       0.09014864 -0.037784204 -0.076939784 -0.038839027
000160 36 7f 9f bc 92 1c c9 bc e3 6d ab 3d 9e b4 05 3c
       -0.019469839 -0.024549756 0.083705686 0.008160738
000170 6b 0a 91 bd 8f 57 e8 bd 69 09 66 3c 58 7a 90 3d
       -0.07082065 -0.113448255 0.0140403295 0.07054585
000180 3f ff ea bd 8c 05 54 bd 2b 2b 33 3d 64 71 91 bd
       -0.114744656 -0.051763102 0.04374234 -0.07101706
000190 59 52 ad bb 15 65 31 bd 26 d9 06 bc e5 3e c1 3b
       -0.0052893576 -0.04330929 -0.008230483 0.00589739
0001a0 88 f2 3b bd bd 45 ba 3c d6 df 87 bd 7b 9a 11 be
       -0.045885593 0.022738332 -0.0663449 -0.14219086
0001b0 49 14 25 bd bc f2 1a 3d 9e b1 0a bd b8 48 a0 3b
       -0.04030255 0.037829146 -0.033860795 0.0048914813
0001c0 a2 41 9d bd bd 35 e2 bc 36 3e de bd 64 08 0b be
       -0.07678534 -0.027613515 -0.108517095 -0.1357742
0001d0 55 3d c9 bc a4 c4 87 3d a5 a0 89 3d b2 de 0e 3c
       -0.024565378 0.06629303 0.06720094 0.008720087
0001e0 3a db cf bd fc 5a 42 bd 1d 0b 4d bd 35 ed 9f 3b
       -0.10149236 -0.04745005 -0.050059427 0.004880572
0001f0 1f 98 5d 3d da 08 95 bd 79 65 ff 3d 9d 31 79 bc
       0.054100152 -0.07277079 0.12470526 -0.015209583
000200 49 13 05 3e 01 d4 3b bd 2a 41 07 3e 26 fc fa bc
       0.12995638 -0.04585648 0.13208452 -0.030637812
000210 61 29 89 bd 81 74 0b bd 49 bf 14 bd 12 f5 0c bc
       -0.066973455 -0.034046654 -0.036315236 -0.008603351
000220 74 15 af 3d 9c 2c a2 3d fd e4 92 3d e2 4c 47 3d
       0.08549014 0.07918665 0.07172582 0.048657306
000230 1c 99 57 3d 10 67 e9 3d d9 b9 96 3d f6 87 ad bd
       0.05263625 0.11396611 0.073596664 -0.08473198
000240 7b d7 fc bd 0d d4 a9 bc ba c4 77 bd be 0d 3e 3e
       -0.12345787 -0.020730997 -0.060490347 0.1855993
000250 c1 5e c8 bc 0a b3 06 3d 3f ef 1e be 16 0d 98 bd
       -0.024459245 0.03288559 -0.15520953 -0.07424371
000260 b0 5a 8d 3d 0f 81 54 3e 2b 4c ac 3d 99 36 87 3e
       0.06902063 0.20752357 0.084129654 0.26408842
000270 e4 1b 71 bd 50 e7 3e 3d 37 ef d5 3c d3 d7 26 3e
       -0.05886449 0.046607316 0.026115043 0.16293268
000280 15 04 c1 3d 8d 87 c1 3d b6 ed 2e ba 78 85 b5 bb
       0.09424607 0.094496824 -0.0006672995 -0.0055395924
000290 75 38 49 bc be 7f b0 bd 74 fb 13 bd 8b 9f cb 3c
       -0.012281527 -0.08618115 -0.036128476 0.02485635
0002a0 75 d5 37 3e 07 3a 16 3e cf 3c 3f 3d c0 3e 8f bb
       0.17952521 0.14670573 0.04668885 -0.004371494
0002b0 c0 3e db 3c 3f 83 5b 3c 31 2a 08 3e 9a e4 dd bc
       0.02676332 0.013397991 0.13297345 -0.027086545
0002c0 04 35 1a bd e9 18 ae 3c dc 4b 6c bd 79 b8 b1 3d
       -0.037648216 0.021252112 -0.057689533 0.086777635
0002d0 6a f3 8f bd a4 14 13 be 4a 22 97 bd 32 8b c3 bd
       -0.070288494 -0.14363343 -0.07379587 -0.09548034
0002e0 f4 34 71 3b da 66 94 3c de 18 63 3d 52 c3 26 3e
       0.0036805244 0.01811545 0.055443637 0.16285446
0002f0 d9 4c 0f be 94 e1 2b 3b e4 e3 80 3d fa e0 3b 3e
       -0.13994159 0.0026226984 0.06293467 0.1834754
000300 ee f0 63 3b 0a 22 65 bd a7 e8 ad 3d a5 ec 7e bd
       0.0034781056 -0.055940665 0.084916405 -0.0622374
000310 ac a1 03 3e 30 45 37 3c 37 7a 02 3c 60 8e 48 bc
       0.12854642 0.011185929 0.007963709 -0.012240976
000320 0e 7f 05 bd d0 e2 c3 3d c3 ea c6 3d f0 36 a4 bd
       -0.032591872 0.095647454 0.09712746 -0.08018291
000330 c0 56 ae bd c7 0b f1 bc 40 64 dd bc e9 45 62 bd
       -0.0851264 -0.029424561 -0.027025342 -0.055242453
000340 20 4b 52 bc 81 fb 6e 3c c3 4d e3 3d 51 26 9c bc
       -0.012835294 0.01458633 0.11098816 -0.01906124
000350 81 7c b1 bd cf ab 18 be 03 26 f6 bd 4c 8e 1c be
       -0.08666325 -0.1490929 -0.12018969 -0.15288657
000360 d4 6a 10 be 47 bd 0a bd cc 30 aa 3d e0 65 9a bc
       -0.14103252 -0.033871915 0.083100885 -0.018847406
000370 b6 2d c6 3d ae 8a bf 3c 86 f2 f1 bd 70 be c4 bd
       0.096766874 0.023381557 -0.11813836 -0.096066356
000380 01 38 00 bd ec 17 13 be df 2c 96 bd 76 42 d7 bd
       -0.03130341 -0.14364594 -0.07332777 -0.10510723
000390 24 27 c4 3d 02 70 a6 bd 9e 1c c1 3b f7 db c5 bc
       0.09577778 -0.081268325 0.005893304 -0.024152739
0003a0 49 ee 28 3d 83 18 56 3d a4 0f a7 3a f8 60 91 bd
       0.04124287 0.05226947 0.001274575 -0.070985734
0003b0 97 c2 17 3c da 59 89 bd c4 f7 56 3d 05 16 17 be
       0.009262702 -0.06706591 0.05248238 -0.14754494
0003c0 d6 c8 af 3b 3c 4e ff bc c2 55 05 3d 8d 87 c0 3d
       0.0053645177 -0.031165235 0.03255249 0.09400854
0003d0 7c 02 17 bd 14 56 2a be e8 76 e2 bd 48 11 11 be
       -0.036867604 -0.16634399 -0.11057836 -0.14166749
0003e0 65 01 80 bb 87 62 2f bb 57 9f e5 3d e7 73 6f bc
       -0.0039064162 -0.0026761608 0.11212032 -0.014615036
0003f0 07 ef cb bd e4 3e 03 3d 61 ce 6d 3d 12 87 66 bd
       -0.099577 0.0320424 0.058058146 -0.056281157

weight_hh_l0 f4 [384, 128]
000000 2c 79 b9 3d c2 d5 a3 3d 1d d0 4b 3c 77 31 bc 3d
       0.09056315 0.079997554 0.012439755 0.09189122
000010 fe 25 1e bd 6c e2 0f 3d e9 9a fa 3c 47 0c ce 3d
       -0.03861045 0.035128042 0.030591445 0.100609355
000020 b5 f8 a6 bc 21 e0 55 3c 9e 75 07 3d 57 69 7a 3d
       -0.020382265 0.013053925 0.033071153 0.061135616
000030 af 0c 4f 3d 94 1e 79 ba 5c 10 b1 bc 8c 2b c1 3d
       0.050549205 -0.00095031527 -0.021614246 0.09432134
000040 a7 2d 0e 3d 3b 81 a2 3d be e3 c7 3a 5b 79 8f bd
       0.034711506 0.07934805 0.0015250368 -0.070055686
000050 e1 ab df bb 72 94 a2 bc 22 2f 76 bd 5a 91 24 bd
       -0.0068259095 -0.019846175 -0.060103543 -0.04017768
000060 58 bf 08 bd 3b 9d 9e 3d 85 d7 44 bd e2 5f a6 3d
       -0.033385605 0.07744833 -0.048057098 0.08123757
000070 29 59 8d 3b 67 6d 19 bc 73 51 9e bd bd 45 ae bc
       0.0043136072 -0.009364462 -0.07730379 -0.021273488
000080 07 30 fb bd 7a d9 a6 bd ec 3e 96 3b 18 ac 0c 3d
       -0.1226502 -0.08146949 0.0045851376 0.03434381
000090 bb 86 92 3d 62 a4 db bb a0 53 97 3c 3c d7 79 bd
       0.07154604 -0.0067029456 0.018472493 -0.06099628
0000a0 96 0f 40 3d 5b 59 23 be d2 48 b2 bc 63 22 03 3e
       0.046889864 -0.15952055 -0.021763239 0.12806086
0000b0 a3 ef 0a 3d ff 94 ce 3c 03 5d ba bd dd 72 7e 3d
       0.03391994 0.025217531 -0.09099772 0.06212126
0000c0 e4 ba 0a 3d 86 55 fd bb 3a 70 b1 bd ae 00 97 3d
       0.03386964 -0.0077311425 -0.08663984 0.073731765
0000d0 57 b3 3d 3d fc ce 87 3b ed d5 98 3b db 62 4e 3c
       0.04631361 0.0041445475 0.004664174 0.012596811
0000e0 d9 17 3b 3d 70 73 fd 3d d5 ef ec 3d 54 c5 da bb
       0.04567704 0.123755336 0.11569182 -0.0066763554
0000f0 b8 41 f5 3d 42 66 e4 bd ec b6 47 bd 39 b5 1b 3e
       0.119754255 -0.11152317 -0.048758432 0.1520585
000100 60 f2 8d bd 5e 0e e9 3d a6 b3 ab 3d 5f bd 61 bd
       -0.06930995 0.113796934 0.083838746 -0.05511224
000110 36 80 57 3d 4f a3 b5 3d 19 dc 83 3d 6f ba 5b 3d
       0.052612506 0.08869039 0.06438465 0.053644594
000120 46 ca cf bd 92 0a fb bb c9 72 c2 3d df ea 62 3d
       -0.101460025 -0.007661172 0.0949455 0.05539977
000130 45 cd 43 3e d8 d6 39 bd 3e fd 57 3d 19 ac 44 3d
       0.19121273 -0.045370907 0.052731745 0.048015688
000140 ae 03 9e bc 5c 31 26 bb b1 25 54 bd d9 bf d9 bd
       -0.019288864 -0.002535901 -0.051793758 -0.10632295
000150 05 fe 07 bb 62 5c 5f bd 2b cc a1 3b 8e f5 ec bc
       -0.0020750773 -0.054531462 0.004937669 -0.028925683
000160 9b 36 e0 3d 27 61 4c ba 18 e0 d3 3d 14 4b 39 bd
       0.10947915 -0.0007796459 0.10345477 -0.045237616
000170 ab 94 de bd 9d 58 d1 3d d6 13 cd 3d ae fe c5 3d
       -0.108682 0.1022198 0.10013549 0.09667717
000180 34 fd 72 3d e9 6c a7 bc df e9 a5 bd 18 4a 14 be
       0.059323505 -0.020437675 -0.08101248 -0.1448139
000190 a0 20 8e 3d 5b ff 3a bc 20 8d 13 3e ce 2d 6d 3d
       0.069398165 -0.011413421 0.14409304 0.05790501
0001a0 5c a7 4b 3d bd 09 e5 bc 95 2f 83 3d 3a c1 f6 3d
       0.049720153 -0.027958745 0.0640556 0.12048574
0001b0 36 c8 2b bd 59 e4 23 bc 37 e3 71 bc f8 a7 6f bd
       -0.041938983 -0.010003173 -0.014763645 -0.058509797
0001c0 e3 70 c6 3d 56 05 20 3d a3 f5 3a 3c 1f dc a0 bd
       0.096895 0.03906759 0.011411103 -0.07854485
0001d0 37 c1 07 3d 85 ea ab bd f3 de 1e bd 6d 22 18 3d
       0.03314325 -0.083943404 -0.03878684 0.037142206
0001e0 79 7b 00 3d 03 ed 18 3d 55 99 8e bc fc 1d e8 3d
       0.031367753 0.037335407 -0.017407099 0.11333844
0001f0 f3 47 bf 3b 2e 9f e8 bc c6 38 b6 3c 77 3f 1e 3c
       0.0058374344 -0.028396215 0.022243869 0.009658686
000200 10 54 8d bc 55 a5 ab 3c ad 95 d4 39 eb 9d 01 3c
       -0.017251998 0.02095286 0.00040547308 0.007911186
000210 26 4c 47 3c 6b 77 a6 bb c6 d2 0b 3e 31 f0 21 be
       0.012164151 -0.0050801537 0.13654622 -0.15814282
000220 22 ba 20 3d 6a 85 a0 bc 9c c4 fe 3c 8f 51 dd 3d
       0.03924001 -0.019594867 0.03109961 0.10806572
000230 5e 5d 7b bc 69 74 83 3c 5d 91 79 3d c0 26 85 3d
       -0.015342085 0.01604672 0.060929645 0.065015316
000240 e4 e7 f4 3a f5 1d 4d bc 54 1b 03 3d 5b 11 74 3d
       0.0018684831 -0.012519349 0.032008484 0.059586864
000250 bc 1e 46 bd b7 c3 f2 3d e5 54 8f 3d b9 74 03 3e
       -0.048369154 0.11853736 0.06998614 0.12837495
000260 6d 4c 5d bd b1 b8 d1 bc ae ea 80 3d 03 34 66 bd
       -0.054027963 -0.025600763 0.062947616 -0.056201946
000270 97 a3 23 be a0 f6 75 b9 81 20 85 bd ff d0 6f bc
       -0.15980373 -0.00023456896 -0.0650034 -0.014637231
000280 bd 69 3b bd 04 f5 79 bd ee 31 ca bc 3b 9a 40 bd
       -0.045755137 -0.06102468 -0.024682011 -0.047022086
000290 8c 67 49 bc 46 3f a5 bc b0 2b 93 3d cd 33 92 3c
       -0.012292754 -0.020171773 0.07186067 0.017846966
0002a0 d6 f7 eb 3d 56 c5 65 3d 49 0e d0 3d 4e 94 14 3e
       0.1152188 0.056096397 0.10158975 0.14509699
0002b0 25 0e cc bd 85 62 c8 bd 37 4d f4 3d 8a fd 16 3d
       -0.09963635 -0.09784416 0.1192879 0.036862887
0002c0 35 5d b3 bd e4 de 0b 3c 37 4c 49 3d d9 9d b2 bc
       -0.08758012 0.008537028 0.04914495 -0.021803783
0002d0 2d 5a dc bc 9c c8 9b bc e6 a3 19 3c bc 2c ba bd
       -0.026898468 -0.019016556 0.009377455 -0.09090564
0002e0 89 45 8f 3d 54 28 00 be 23 c9 71 bd 44 3d 5b 3c
       0.06995685 -0.12515384 -0.05902971 0.013381306
0002f0 24 06 5d 3d 29 df 15 3d 45 2a 12 3e b8 d3 b4 3c
       0.053960934 0.036589775 0.14273937 0.022073612
000300 65 74 94 3d c0 01 ab bd 41 b3 ae bd c5 55 d3 3d
       0.07248763 -0.08349943 -0.08530284 0.103190936
000310 b2 1c e7 bd 01 d0 00 3d 45 de fb bc 5c 71 43 3d
       -0.1128477 0.031448368 -0.030745635 0.04771553
000320 1a dc 54 bd 62 39 81 3d ed c1 12 3e 43 45 bb 3d
       -0.051967718 0.06309773 0.1433179 0.0914407
000330 c4 c0 83 bd b0 96 be bd c5 24 66 3d 3d 4d e6 3c
       -0.064332515 -0.09306085 0.05618741 0.028113002
000340 38 c3 c4 3d d9 15 54 3d 09 22 bf bd 83 bd be 3c
       0.096075475 0.051778648 -0.093326636 0.023283726
000350 45 d9 9a 3b 9c 6e 9e 3c df 6d 46 3d 40 d7 d0 3c
       0.0047256076 0.019339852 0.048444625 0.025493264
000360 15 78 a3 bc 11 01 b0 bd 0d 48 8f bd 4c 45 9e 3d
       -0.01995472 -0.085939534 -0.069961645 0.07728061
000370 b4 45 49 3d 34 5e 2a bd 69 4c 9e bd 22 4b 90 bd
       0.04913874 -0.041593745 -0.07729418 -0.070455804
000380 28 83 65 3d 9f d9 47 bd 07 b9 4f 3d af 54 3a 3b
       0.056033283 -0.048791524 0.050713565 0.0028431823
000390 dd d3 bb 3c dc a9 1f 3d e3 97 a1 bd cb 32 8b bd
       0.022928173 0.03898035 -0.07890298 -0.06796797
0003a0 45 12 2c bd 6c 08 a8 bd fc b7 d5 bc 3e 10 12 be
       -0.04200961 -0.08204731 -0.026088707 -0.14264008
0003b0 9b f2 b8 3d 18 5d ae 3d 67 3b 10 bb 7e be 2e bd
       0.09030648 0.0851385 -0.0022008063 -0.042662136
0003c0 99 e6 ea bc 9c ba 10 bd fd c1 8a bd e5 e9 e1 3c
       -0.02867441 -0.035334215 -0.067752816 0.02757735
0003d0 12 b5 73 bd 40 d4 f3 bd 12 bb 07 3d cc 39 25 3d
       -0.059498854 -0.11905718 0.03313739 0.040338323
0003e0 56 36 d0 bd 7f 1d 15 bd 44 1e 81 3d d6 81 24 3d
       -0.10166614 -0.036405083 0.06304601 0.040162884
0003f0 81 76 b6 3c f2 a8 c2 3d 3c 00 2a 3d 4f 21 f8 bc
       0.022273304 0.0950488 0.04150413 -0.03028932

bias_ih_l0 f4 [384]
000000 41 77 8e bc 2d 72 9a bd 1f d0 da 3d 77 9e c2 bc
       -0.01739085 -0.075413086 0.10684227 -0.023757203
000010 ce 2d dc 3c 79 16 8f bc b1 c9 5c 3c 81 0f bf 3c
       0.02687731 -0.01746677 0.013475821 0.023322823
000020 d1 05 3d bd 4a 95 87 bd 1f ba 61 bd 47 01 b7 3c
       -0.046148125 -0.066202715 -0.05510914 0.022339476
000030 db 7b 47 bc 2f e1 06 3c 06 67 9a 3d a7 3c 97 bd
       -0.012175526 0.008232399 0.075391814 -0.073846154
000040 bd 8b 34 bb 5e ad a7 3d 33 c5 b5 3d 72 5d 03 3e
       -0.002754911 0.08187364 0.088755034 0.12828615
000050 d1 83 74 3d f8 50 de 3d 0b 5a 03 b9 0f 9a 14 bd
       0.059696022 0.10855287 -0.00012526677 -0.036279734
000060 7f 04 a0 3d 88 b1 b0 bd 74 bd d7 3d 35 39 2b bd
       0.078133576 -0.086276114 0.10534182 -0.041802604
000070 38 bb 3f 3d d2 29 d3 bd 24 78 b2 3d 2a b2 6e 3c
       0.046809405 -0.10310711 0.08714321 0.014568845
000080 35 74 9e 3d a4 38 81 3c 71 b1 45 3d 64 77 19 3c
       0.077370085 0.015774079 0.048264924 0.009366844
000090 dd 97 43 3c 7e a0 32 3e d4 0c 3e 3d c5 6f c6 3d
       0.0119380625 0.17444035 0.046398953 0.09689287
0000a0 cb 75 b0 bd 5f bf 8a 3d 29 30 54 3d df d6 0e 3e
       -0.08616217 0.067747824 0.05180374 0.13949154
0000b0 72 8a 89 bc f5 06 d2 3c f9 a5 e5 bd 21 4b 08 bd
       -0.016789649 0.025638083 -0.112132974 -0.033274774
0000c0 9a 5c be bd 71 8e 8d 3d d2 f3 91 bb 1e 0e a4 bc
       -0.09295006 0.06911934 -0.0044541145 -0.020026263
0000d0 bc ea a3 bd 6e 1d a4 3d 5b 53 1c bc 7b 87 e0 bc
       -0.080037564 0.08013426 -0.009541358 -0.027408352
0000e0 4f de e4 bd f1 3d 04 bc 02 e1 f6 3d 70 33 4b 3d
       -0.111752145 -0.008071409 0.120546356 0.0496096
0000f0 a7 c8 38 3e 5c d5 c1 3d 9b 7c df bc a3 de 77 3d
       0.18045293 0.09464523 -0.027281096 0.060515057
000100 09 9d 03 3d 22 0a 8b bc a9 4c 48 bd ae fe 1f bc
       0.032132182 -0.016972605 -0.048901234 -0.00976531
000110 30 d4 b5 3d f4 eb 76 3d 19 a7 e7 3c f3 fa f7 bc
       0.08878362 0.060283616 0.02827792 -0.03027103
000120 90 bf 1e bd 9c da 8a bb c2 44 57 3d 14 c3 bd bc
       -0.038756907 -0.004237486 0.052555807 -0.02316431
000130 ad 6d 3e 3d 8c 4b c0 bc fa d3 ce 3c 23 d4 90 3d
       0.046491314 -0.023473524 0.025247563 0.07071712
000140 ff b8 bb 3d 6e f0 5c bd b6 22 69 bc d8 54 30 3d
       0.091661446 -0.05394023 -0.014229467 0.043049663
000150 1a 29 2d 3e 02 43 80 bd 2e e5 80 bb 0f 9a 70 3d
       0.1691021 -0.06262781 -0.0039335703 0.05874067
000160 c0 fa e2 3d 78 7b 3d bd 4f 9a e8 3d de e2 18 3d
       0.11082983 -0.046260327 0.11357557 0.037325732
000170 6b f6 05 be 37 e7 70 bd bf ec 15 bd 73 49 c6 3d
       -0.13082282 -0.058814254 -0.03660273 0.09681978
000180 61 49 cb 3c 45 3c 7e bc b9 1b be bc 73 72 54 3d
       0.024815263 -0.015517299 -0.023206579 0.05186696
000190 be 15 45 3d 53 1a 08 3c a1 bd ad 3d cf da 68 3d
       0.048116438 0.008307057 0.084834345 0.056849297
0001a0 71 4b 07 bc f8 ea 81 3d fb 75 cf 3d 0f 3a 05 3d
       -0.008257733 0.06343645 0.10129925 0.032526072
0001b0 4e 93 c7 3c ba 8b 68 bc a0 73 10 3d 01 ab cb bd
       0.024362233 -0.01419347 0.03526652 -0.09944726
0001c0 23 ab 2d 3c 68 0d 91 bd af d3 0b 3d 61 66 e2 bc
       0.010599884 -0.07082635 0.034137424 -0.027636709
0001d0 81 76 ce 3d e7 11 ba 3d 08 fc 34 3d 30 da cd 3d
       0.100811966 0.09085446 0.04418567 0.100513816
0001e0 25 5d 0d 3e 9b c8 c4 3c ba f5 2d 3d e1 3e 44 3d
       0.13805063 0.024021437 0.04247067 0.04791153
0001f0 f2 43 27 3b be 5c 28 3d dc 34 71 3c c4 f4 a0 bb
       0.0025522676 0.04110407 0.014722075 -0.004911991
000200 2e 5e 10 bd ce 28 c2 3c 7e 43 8f 3d 23 a5 7f 3c
       -0.035246067 0.023701098 0.06995295 0.0156033365
000210 f6 59 19 3e e1 61 46 3e 25 5d f2 bd 35 1e 7c 3d
       0.14975724 0.19373275 -0.11834172 0.061552245
000220 3a 6e 23 3d a4 ea 8e bd dd 22 db bb ef 8e 6c bb
       0.039900042 -0.06978348 -0.0066875056 -0.0036095937
000230 f1 97 f9 bb 1a bf c0 bc b4 b9 91 3d f8 76 07 3d
       -0.00761699 -0.023528624 0.07115498 0.03307244
000240 12 e2 88 bb 94 fa b9 3b b8 c1 9c 3c 23 c5 0f be
       -0.0041773403 0.005675623 0.019135341 -0.14040045
000250 1a 27 ad 3b ee 13 72 3d f8 53 01 bb 70 ac 1f 3d
       0.0052842023 0.059101038 -0.0019733887 0.03898281
000260 5b f0 90 3c 41 3a 95 3c 9c 84 e5 3d 26 8a 3d bd
       0.017692735 0.018216254 0.11206934 -0.046274327
000270 ce c6 b0 3c 45 5c 7e bc 96 e4 00 be 1b c7 16 3d
       0.021579172 -0.015524928 -0.12587199 0.036810976
000280 29 ec 80 3d 71 92 66 bd 43 a3 42 bd 5d 4f 9e 3d
       0.06295044 -0.056292 -0.04751898 0.07729981
000290 75 7c e3 3b 06 4d 53 bd 01 ea 9f 3c 95 dc 90 bd
       0.0069423267 -0.051587127 0.019520761 -0.07073323
0002a0 dd f6 9b 3d 88 85 e6 3b b7 5b 5c 3d af ca 58 bd
       0.07615445 0.007034961 0.053798404 -0.05292767
0002b0 bd 84 c1 bc 9e 71 11 3d 24 9f 6f 3d db ae e8 3d
       -0.023622865 0.035508744 0.058501378 0.11361476
0002c0 2d b5 66 3d 58 bf 2c bd 87 e3 b5 bc 90 95 6c 3d
       0.056325126 -0.042174667 -0.02220322 0.05775982
0002d0 50 13 90 3c a3 7b ac bc b0 51 85 3d 69 29 94 3d
       0.017587334 -0.021055048 0.06509721 0.07234461
0002e0 46 75 d3 3c 73 17 fe 3c d0 41 06 bd c4 30 dc bd
       0.025812756 0.03101704 -0.032777607 -0.10751489
0002f0 9d ff ea bd f5 8e 90 bd 19 34 8e bd 22 f0 af 3c
       -0.114745356 -0.07058517 -0.069435306 0.021476809
000300 fe 43 45 bd 4a d3 95 3d 2f 6f 94 3d 99 a1 e6 3c
       -0.048160546 0.07315691 0.07247769 0.028153228
000310 1a 5d 1e be ff 7a ae 3d ea 65 6a 3c cc 14 ee bc
       -0.15465203 0.085195534 0.014306525 -0.029062651
000320 f2 f6 38 bd b6 42 de bd 56 59 01 be 2a bc f0 3b
       -0.04515738 -0.10852568 -0.12631735 0.0073466497
000330 65 15 5f 3d f7 d0 a9 bd 04 7d 50 3d bb 74 b8 bd
       0.054463763 -0.0829181 0.050900474 -0.090066396
000340 32 93 03 3d 4b c4 5d bc f5 6c ab bc 41 a4 86 bd
       0.0321228 -0.013535569 -0.020925978 -0.06574298
000350 51 a3 c5 bd f9 03 c7 bc a2 83 a4 bd 91 42 23 3d
       -0.09650291 -0.024293886 -0.080329195 0.039858405
000360 b5 08 ec bc 87 b3 b8 3d 99 3a e3 bd 2c f8 45 3c
       -0.028812746 0.09018617 -0.11095161 0.012083095
000370 09 d0 a0 bd 27 bd b2 3d c2 16 0f be 37 26 83 bd
       -0.078521796 0.08727484 -0.13973525 -0.06403773
000380 ed 04 8b bd 62 f5 01 3d db 93 d8 bd ac bb 3b 3d
       -0.06788049 0.031728156 -0.10575076 0.045833275
000390 b0 92 82 3d 80 4d 95 3d 77 c7 9f bd 64 49 96 3d
       0.06375635 0.072901726 -0.07801717 0.07338217
0003a0 36 eb 01 be 06 ab e7 bd 32 1b 0d 3d 70 5d 3e 3d
       -0.12687382 -0.11311917 0.034449764 0.046475828
0003b0 a8 fb ea 3d ce cc c2 3c d9 4d 45 bd 7c 75 5d 3b
       0.11473781 0.0237793 -0.048169944 0.003379195
0003c0 a3 eb 5f 3d 29 18 27 3d 2a d6 b4 3c 47 99 ea 3c
       0.05466808 0.040794525 0.022074778 0.028637541
0003d0 49 2a f9 3b 75 7e 7c bd 4e e5 1d be 91 69 84 ba
       0.0076039177 -0.061644036 -0.15419504 -0.0010102262
0003e0 60 c8 13 be 30 33 1c 3d 75 46 a3 3d d1 b4 cb 3d
       -0.14431906 0.038134754 0.07972423 0.09946597
0003f0 6f 40 8c bd 35 b0 c2 3c 96 6f e9 3c 3d e5 5d ba
       -0.06848227 0.023765663 0.028495591 -0.000846464

bias_hh_l0 f4 [384]
000000 11 51 09 3e 82 d9 66 3b 58 b8 a1 bb 76 cb ba bd
       0.1340983 0.003522486 -0.0049353056 -0.09120838
000010 32 db d2 3d 39 7e 69 bd 46 20 4f bc 72 ff 27 bd
       0.102957144 -0.05700514 -0.012641972 -0.041015096
000020 79 f2 a0 bd f1 87 dc bd 04 2e 18 bc e9 1b 23 3d
       -0.07858748 -0.10768116 -0.009288315 0.03982154
000030 e9 f8 d2 3d 72 91 1b 3c 51 ce 8e 3c 34 16 9b bd
       0.10301382 0.009495126 0.017432364 -0.07572594
000040 d6 d1 8d 3d a6 f9 bd 3d 5c 43 28 3e 74 26 28 3e
       0.06924789 0.09276132 0.16431946 0.16420919
000050 07 6a e6 3c f2 44 d3 3c cc 7d 04 be 43 c9 57 bd
       0.02812673 0.025789712 -0.12938613 -0.052682173
000060 dd 6a 85 bd 23 3e 95 3c 1e 26 5d 3d e6 cd 76 3d
       -0.06514523 0.018218106 0.05399143 0.060254954
000070 b1 cf 04 3e e8 c4 9d bd 45 47 26 3e c5 d0 01 3d
       0.12969853 -0.077035725 0.16238125 0.03169324
000080 0c ed 60 3d d6 ec d1 3c fe 03 95 bd 90 85 45 bc
       0.054913566 0.025625627 -0.07276152 -0.01205577
000090 24 6b f0 3d 51 e5 e8 3c 86 d9 69 3d 3c f8 6c 3d
       0.117391855 0.02842966 0.057092212 0.057853922
0000a0 3a ac a7 3d 34 b6 03 3d b6 2a ab bc 19 f9 8c 3d
       0.081871465 0.032156184 -0.02089439 0.06883449
0000b0 39 ad fa bd 19 9a 1f 3e 1e ef 12 be 95 90 5f bd
       -0.12240071 0.15586127 -0.14349028 -0.054581244
0000c0 b1 0b ad bb 70 b8 24 3e 63 26 c0 bd 72 f0 8f 3d
       -0.0052809347 0.16085982 -0.09382322 0.07028283
0000d0 5e 0c b0 bd 65 ae 17 3d 79 96 2f 3d 78 63 3d bd
       -0.08596109 0.03703155 0.04286811 -0.04623744
0000e0 7e 31 d5 bb be d2 02 3a 13 58 c6 3d 8b f6 cd 3d
       -0.006506144 0.00049905095 0.096847676 0.1005679
0000f0 47 f5 1f 3d d1 47 04 3e 3a 03 ad 3b 4a 1c 82 3d
       0.039052274 0.12918021 0.0052799257 0.06353052
000100 aa e9 08 3d 23 11 60 bc b5 57 8d 3c 6b 35 10 3e
       0.033425964 -0.013675961 0.017253736 0.14082877
000110 74 3a cb 3d 7c 2b 07 3c 7e 1b a6 3d 0e 6a 87 bc
       0.099232584 0.008250114 0.081107125 -0.016530063
000120 f9 3e b5 3c 7d 6b 00 bd 99 84 cc 3d 33 f5 3b 3c
       0.022124754 -0.03135251 0.099862285 0.011472034
000130 68 b3 52 bd 9d 4b 4a 3d 55 d3 ad bc 19 82 f4 bb
       -0.051440626 0.049388517 -0.021218935 -0.007461798
000140 71 03 3e bc 22 0d c2 3d d3 81 1b bd 2a 3b 9d 3d
       -0.0115975 0.09475161 -0.037965607 0.076773
000150 66 f6 a8 3d ef 50 43 bd 6d 60 70 3d 4f a1 1b 3e
       0.08250122 -0.047684606 0.05868571 0.15198253
000160 de e3 28 3e 3c 34 18 bd d5 a7 22 3d 87 5f d3 bc
       0.16493174 -0.03715919 0.03971084 -0.025802387
000170 73 49 33 bd 3f ce 28 3d 2b 6f 9f 3d d7 43 17 3d
       -0.04377122 0.041212317 0.077848755 0.03692993
000180 a5 13 06 be 95 ae b1 bd 69 68 ce 3c 69 65 e1 3c
       -0.13093431 -0.08675877 0.025196271 0.027514176
000190 28 77 2f bd 59 42 29 3e 17 ce d0 3d d7 23 ee 3d
       -0.042838246 0.16529216 0.101955585 0.1162793
0001a0 25 cf 81 3c d8 83 16 3e 46 58 5d 3d 9b c4 07 3e
       0.015845845 0.14698732 0.054039262 0.13258593
0001b0 57 d9 8d 3d fc bc f2 bc b4 cd 9b bd 42 a7 15 bd
       0.0692622 -0.02963113 -0.07607594 -0.036536463
0001c0 f0 34 9f 3d 62 ee d7 bd 00 2c 77 39 59 9b da 3c
       0.07773769 -0.10543515 0.00023572147 0.026685404
0001d0 26 27 4a 3d d3 52 14 3e ee f2 ec 3d 43 21 b4 3c
       0.04935374 0.1448472 0.11569773 0.021988517
0001e0 0b b9 f6 3d ab 97 90 bd c5 f0 7d bd 53 2e 87 3d
       0.12047013 -0.07060178 -0.061997194 0.066006325
0001f0 69 e8 cc 3c 2a 40 1e 3d 82 21 4b 3c 2f cb 88 bd
       0.025013166 0.03863541 0.012398126 -0.06679379
000200 1b c3 c0 bc ca 98 43 bd d6 17 81 3d 84 a9 22 bd
       -0.023530534 -0.047753133 0.063033745 -0.039712444
000210 db e2 12 3e 35 93 62 3d d5 38 16 be ec ea 93 bc
       0.14344351 0.05531617 -0.14670117 -0.018056355
000220 58 8f 53 3c ea 31 59 3b d5 0b 43 3c 34 af b4 bc
       0.012912594 0.0033141323 0.011904676 -0.0220562
000230 e3 16 7e bc c0 d2 06 bd 8e 52 f0 3b ce d6 e2 3b
       -0.015508386 -0.03291583 0.00733406 0.0069225794
000240 74 11 3e bd de cb ef 3c 10 5f 68 3c b0 5f 22 be
       -0.046403363 0.029272016 0.014182821 -0.15856814
000250 0c 13 61 3d 90 a2 1c 3d 41 21 bf bc 6e b7 7d bc
       0.054949805 0.03824097 -0.023331286 -0.015485628
000260 ac d2 e9 3d db cc b5 ba 80 85 e7 3d 4b 24 83 3d
       0.114171356 -0.0013870256 0.1130476 0.06403407
000270 46 d5 52 bd 2f 1a 49 3d f8 6b d0 bd c1 7e bf 3d
       -0.051472925 0.049097236 -0.101768434 0.09350348
000280 a3 ba fd 3c 9a f1 cf 3c 92 64 d1 bd ac 88 96 3b
       0.030972784 0.02538376 -0.102242604 0.0045939293
000290 11 31 ea 3d 1f 88 bf bd 4b 30 50 3d 64 e9 34 bb
       0.1143514 -0.09352135 0.050827306 -0.0027604932
0002a0 99 3d 68 bc b6 71 97 3c 1b a9 70 bd 37 6a b4 bd
       -0.014174842 0.018486839 -0.05875502 -0.088093214
0002b0 7b ae 09 3e 53 63 82 bd d0 6c 81 bc 77 51 24 3d
       0.13445465 -0.06366601 -0.015798956 0.040116753
0002c0 5c c4 c7 3d 04 a9 86 3d a0 5c fb 3d 40 91 15 3e
       0.097542495 0.06575206 0.12273526 0.1460619
0002d0 68 94 34 bd 77 02 6f 3d 91 f7 27 3d 3a 83 19 bd
       -0.044086844 0.05835196 0.041007582 -0.037478663
0002e0 b6 d9 15 ba 6e 14 49 bd 40 8d a0 3d f2 41 49 3c
       -0.00057163404 -0.04909175 0.07839441 0.012283789
0002f0 db 82 20 be 9e ab cb bd 21 c8 0a 3c 89 50 72 3b
       -0.15674917 -0.09944843 0.008470566 0.0036974272
000300 10 13 21 3d c4 00 eb b9 9d eb 52 3d 66 8b dc 3d
       0.03932482 -0.00044823263 0.05149423 0.10768776
000310 b5 3e 62 bd 02 b1 32 bd e5 9a a4 3c f1 eb 9b 3d
       -0.055235583 -0.04362584 0.02009339 0.076133616
000320 dc 7a b3 3a e0 4e e1 bd a3 66 33 bd c0 82 09 3e
       0.0013693231 -0.11001372 -0.043799054 0.13428783
000330 68 9b b7 3c eb 59 5c 3a 67 44 00 3d 17 54 8b 3d
       0.02241297 0.0008405733 0.031315234 0.06803148
000340 e5 d8 25 3d a8 07 1f 3d fb ba 94 3c c0 24 cf bd
       0.04049005 0.03882566 0.018155565 -0.101144314
000350 c4 31 fb bd 51 24 2c bd 8d fd c5 bd bb 79 96 3d
       -0.122653514 -0.04202682 -0.096675016 0.07347437
000360 22 b3 fb bd 2c 49 18 bb e1 4a 17 bc e5 9a 77 bd
       -0.12290026 -0.0023236973 -0.009234161 -0.060450453
000370 cc 30 d7 bd 2c 0e a3 3d 14 0f ba bd 3d 02 83 bc
       -0.10507354 0.079616874 -0.09084907 -0.015992278
000380 88 71 98 3c 5d b7 79 3d bf c2 1a be d3 2a eb 3b
       0.018608823 0.060965884 -0.15113352 0.007176736
000390 6d 46 2e bd 6d 63 8d 3c c1 aa 94 bd 46 57 b7 bd
       -0.042547632 0.017259324 -0.07259131 -0.08952193
0003a0 79 c2 da bd af 8a e3 3b e9 92 9f 3d fd fa ea bc
       -0.10681624 0.0069440226 0.07791693 -0.028684134
0003b0 3a d1 95 3d 8f 98 b9 3d 09 28 1f bd a5 62 ec 3d
       0.073152974 0.09062301 -0.03885654 0.115422525
0003c0 ef bd 74 3d d9 08 a7 3c 5d f1 20 3c b9 f6 e8 bd
       0.059751447 0.020389961 0.0098231705 -0.113751836
0003d0 7b 41 b8 bd 57 68 9a bc 8a 7d 36 be 73 63 b2 bc
       -0.089968644 -0.018848581 -0.17821327 -0.021775937
0003e0 d6 f7 76 bc 86 86 b9 bc 4b 47 b7 3c 06 e7 db 3d
       -0.015073737 -0.022647154 0.022372862 0.107374236
0003f0 db 6b 5b 3d d4 5c af 3d e8 e6 7b bd 17 8a 9b bc
       0.053569656 0.085626274 -0.061499506 -0.018986745
