checkpoints/encoder_ln1.pth (torch_old, 308661 bytes, 4 tensors)

weight_ih_l0 f4 [384, 64]
00000000: 28e0 0cbd b2ba d1bd 730d 1fbe ed19 29be
00000010: a1c7 cfbd d216 253d 26a8 803b b955 253c
00000020: 7746 143d 5bec b63a a75d 603a 0b03 1f3d
00000030: db0c 403d 8014 b8bd 61ec e7bd e5a8 94bd
00000040: e845 9cbc afe3 ad3d 99d7 4dbc 8e89 64bd
00000050: 44f9 d23d 1e9a 133e 4bfd 9e3d 13ff 6bbd
00000060: be51 dfbd 92dd 6bbd 87ef cbbd 0d43 e33b
00000070: 52da 16bd 75ff 203c 0177 2ebd b7fe 88bd
00000080: 14e6 6bbd ea3c df3c bf65 7bbd bdee 14be
00000090: bde0 94bd 7a15 753d 63dc 64bc b188 f63c
000000a0: 7a24 bdba 1218 a6bc f290 34b9 b90c 4d3c
000000b0: 8b88 353d dab7 03bd 383b d4bd b783 39be
000000c0: dbb6 983b 3f83 8e3c 072e cdbd 67d0 b4bd
000000d0: 1c33 a53d 1ddf dfbc ac10 6e3d 8154 563d
000000e0: 7177 e13d f95f f1bb 1fe3 c7bb 9dab f1bd
000000f0: 09a5 57bc da5b f03c 7db5 01be 10ee 62bd
00000100: 770f ac3d 6c65 183e b90b f63c 3af1 823d
00000110: 8ab1 01bc 3cac 743d b2d2 0fbe 5112 e03d
00000120: 6925 84bc 3b3f 96bd f9e7 5c3d 0137 5c3c
00000130: 7efd 17be c44d b7bd 9e43 3cbe e050 323d
00000140: 1d98 9cbd bc64 3e3d cb4e b73d 9141 803c
00000150: 04b8 173c 40d5 ba3c d77b 323d 9814 973d
00000160: e6cb c13d 2ea6 853c d59b a63c c584 fc3c
00000170: ec46 00be 804c 9e3d 971d 153d 2c55 acbc
00000180: a527 8b3d 598c 843b 4ccd 24bd b0ed b23a
00000190: 8522 a43c ed60 d03d 8598 39bd 8016 263d
000001a0: d670 0e3d b970 ddbd 3b24 123c 0513 78bc
000001b0: 9b1d bcbd 22ae 44bb b3cc 82bd 0133 88bc
000001c0: ea0b 11be 391b c23d ed5c 143d 13e5 9d3d
000001d0: 69fe 9d3b a467 e53d dd2a 8ebd c45e 0b3e
000001e0: 9bad 95bb cc5c f23b 648a 79bd be58 42bd
000001f0: 8015 a6bd d731 133d ca4f cebc f663 0dbc
00000200: ea72 5cbe 3d8e cd3d 577d 5e3c d30d 0dbe
00000210: e9db b13c ae33 06bd 51b2 bc3d c680 dc3c
00000220: 29b1 aabd 7535 6a3c 542b fd3a bca9 b43c
00000230: 6acf 773c a133 92bd 6b6b 6dbd 533f f93d
00000240: bb50 1c3e 30b9 a83d 199c 343c 6583 82bd
00000250: 97e0 923c ebcc e73c 94c1 403d 34f8 f0bc
00000260: a1f6 a0bd 9f45 2bbe 3c9a 833c 0ce2 f93b
00000270: bafc 86bc 922b aebd 5bbe 52bd 9466 873c
00000280: b038 7dbd 522e 90bd 4862 bbbd 501a a8bd
00000290: 0c0e f4bd 2d6f 82bd ed67 583d e7b8 c4bc
000002a0: c112 8b3d 6ff8 aa3d c9cd c8bd cda5 89bc
000002b0: 31f2 3e3d e2ce 453d 9dcc 20bd bcc0 a43d
000002c0: 7473 a03d a5df 473d 0e05 bb3c 4f13 07ba
000002d0: 6b8e 513c 2d02 253c ebd2 463c 8452 c3bd
000002e0: 057f d4bc b917 cebd ad0b 5bbc 38d3 2bbd
000002f0: d166 8c3d b4c9 0fbd 60c9 acbd 34d5 6c3d
00000300: f800 20bc 3014 21bb a634 0c3e d3d6 a03d
00000310: 74e2 fb3c d3d1 cdbd 0443 3ebd cd0e 843d
00000320: 058d 063e 7151 483d a4be a73d f30e 153d
00000330: 71bc 043e 6181 853c 9fea 123d e114 16be
00000340: a7fe 613b a71b 50bd e7e5 85bd 8ad4 8ebd
00000350: bcbc 463d a649 84bc 488e a23d 9116 20bd
00000360: d47a 98bc 01cd 1ebe f9ef fcbd 3f83 50bd
00000370: fb9c 3dbb 9b20 f7bd 6887 00bd ca18 8a3d
00000380: b4e9 333d fe70 fbbd 5ea1 cc3d 1d93 853d
00000390: dffe 103d 78d8 a8bc 804a 2dbe c34d babd
000003a0: c6b5 b0bc 46a1 9abd 8422 1f3d 1f9e ec3c
000003b0: ec35 833d da0f cf3c cf25 003d 2c27 2abe
000003c0: b65a 203c 8a78 263d 9a92 1b3d d47e dc3d
000003d0: f6a0 9b3d 70d7 a3bd d908 aebd c8df 00be
000003e0: 4631 573d 8580 80bd a91d b4bc 914c 953d
000003f0: 07c7 cd3b 5537 a6bd ce44 713d c44d 843d
-0.03439346 -0.102406874 -0.15532474 -0.16513796 -0.10145498 0.040304966 0.003926295 0.010091239
0.036200013 0.0013955937 0.0008558877 0.03882126 0.04688726 -0.08988285 -0.113243826 -0.072587766
-0.019076303 0.08490693 -0.0125636095 -0.055795245 0.1030145 0.1441426 0.077631555 -0.057616305
-0.10904263 -0.057584353 -0.099577956 0.0069354833 -0.0368293 0.009826531 -0.04259396 -0.06689208
-0.057592466 0.027250726 -0.06137633 -0.14544196 -0.07269428 0.059834935 -0.01396856 0.030094476
-0.0014430427 -0.02027515 -0.00017220134 0.01251524 0.04431967 -0.032157756 -0.103628576 -0.18116651
0.00466047 0.017396567 -0.10018545 -0.08828812 0.08066389 -0.027328068 0.05812137 0.052326683
0.1100911 -0.007366177 -0.006100073 -0.11800311 -0.013161906 0.029340673 -0.12666889 -0.055402815
0.08401387 0.1488244 0.030034887 0.063936666 -0.007915864 0.059734568 -0.14045218 0.109409936
-0.01613112 -0.07336279 0.053932164 0.013440848 -0.14842793 -0.089503795 -0.18385169 0.04353416
-0.07646201 0.046482787 0.089505754 0.015656264 0.009260181 0.022806764 0.043575134 0.07376975
0.09462719 0.016314592 0.020337978 0.030825028 -0.12527055 0.07729435 0.036405172 -0.021036707
0.06794671 0.004045051 -0.04023485 0.0013651159 0.020035991 0.10174737 -0.04531147 0.0405488
0.034775577 -0.10812516 0.008919771 -0.015141253 -0.09185334 -0.0030011018 -0.063866995 -0.016625883
-0.14164701 0.094778486 0.036221433 0.07709708 0.004821588 0.112014085 -0.06941769 0.13610369
-0.0045678145 0.007396316 -0.060922995 -0.047447912 -0.081095695 0.035936203 -0.02518453 -0.00862979
-0.21528211 0.100368954 0.013579688 -0.13774805 0.021711307 -0.03276413 0.09213699 0.026916873
-0.08334572 0.014294972 0.0019315281 0.022053592 0.015125135 -0.07138754 -0.05796377 0.12170281
0.15265171 0.08238447 0.011023545 -0.06372718 0.017929358 0.028295955 0.04705961 -0.029415227
-0.07859541 -0.16725777 0.016064756 0.007625824 -0.016477931 -0.08504404 -0.05145107 0.016528405
-0.06182164 -0.07040085 -0.09149605 -0.08208144 -0.11916742 -0.06368861 0.052833486 -0.02401395
0.067906864 0.08348166 -0.098048754 -0.016802693 0.04661769 0.048293002 -0.039257634 0.08044574
0.07834521 0.04879727 0.022829559 -0.00051527185 0.012790303 0.0100713195 0.012135248 -0.09537223
-0.025939474 -0.100631185 -0.013369483 -0.04194948 0.06855548 -0.03510447 -0.08436847 0.057820514
-0.009765856 -0.0024578683 0.13691959 0.078534745 0.03074763 -0.100497864 -0.04645063 0.064481355
0.13139732 0.048905794 0.08190659 0.03639121 0.1296251 0.016297044 0.035868283 -0.14656402
0.003448406 -0.05080762 -0.06537991 -0.06974132 0.048519835 -0.0161484 0.07937294 -0.03908402
-0.018613257 -0.1550789 -0.12350459 -0.050906416 -0.002893268 -0.12066766 -0.031379133 0.067430094
0.04392405 -0.12277411 0.09991716 0.065222 0.035399314 -0.020611033 -0.1692295 -0.09096863
-0.021571051 -0.07550292 0.038851276 0.028883992 0.06406769 0.025276113 0.031286057 -0.16616505
0.009787252 0.0406423 0.037981607 0.10766378 0.0759906 -0.08000076 -0.08497781 -0.12585366
0.052537225 -0.06274513 -0.0219868 0.072899945 0.0062798294 -0.081160225 0.058903508 0.06460145

weight_hh_l0 f4 [384, 128]
00000000: 2b53 c4bd f003 3bbe 4ca6 8cbd e21f 8abc
00000010: 1a0d 33bd 6d93 c03d 14b8 c3bd 3fb0 12be
00000020: 9545 2a3b 6cc3 383c 163d f3bb efcc 05be
00000030: c17e a4bd 09bb 083e 24cf 81bc 8c14 07bd
00000040: 3763 dd3d a86b ad3c 1852 ca3d bb74 1c3e
00000050: 6cb4 8c3c aadb 0bbc 13ce f0bd 6f01 a1bd
00000060: cdd0 09bc b027 4ebd bb40 c43c 49ab dd3b
00000070: 4281 20be 0ef5 9a3d ed4a 693d 9e2f c7bd
00000080: cc93 cb3d 29ce 28bd 2905 233d ef62 a9bd
00000090: 803f 35bd 6836 55bd c0d6 e93c 2c40 b8bd
000000a0: 63ec 22bb ea0c be3d 740d 2d3c 980f 923d
000000b0: 60c2 22bd b33f fabd f518 0fbb 5be8 c83d
000000c0: 7c31 a03d 9658 cbbd 54a0 823d fc5a b7bd
000000d0: 9190 c6bc 07f3 dcbd 147b 603d 77bb 1abd
000000e0: f6eb 49bd 3cd2 99bd bbf3 9d3d 0657 873d
000000f0: 3453 babd 0a2e aebd 9189 343d e7b9 e83d
00000100: f47e 053e 8a8e 4ebd f06e ac3c d71e b1bd
00000110: f9cf 1abe 9d2f 35be 178c debc aa42 2abc
00000120: 96c3 91bd 1743 64bd 33a7 ad3d 5791 e53d
00000130: 00f1 96bd ccaa ab3d d028 dc3a 8f89 ddbd
00000140: ddbe f5bc a3f9 953d f5dd b03d 1fc7 ca3d
00000150: 068d 1abe 7817 273c 947f a13d 4132 72bc
00000160: a92e 633d bfc6 29bd 11a2 2d3d f567 a33d
00000170: c1ae 82bd d6e5 d63b 0ec9 2c3c 9ef4 4f3e
00000180: f751 de3d ddf5 12bc fa52 06bd 9860 dabb
00000190: 9df4 cebd bffe 953d 67fa 28bd fb0a b0bb
000001a0: fee7 1cbe 4a21 003c f181 eb3b d36d edb9
000001b0: f5ea 633d 37e3 a53d 87ed a1bd 4e2f 13bd
000001c0: 01d9 d73c e378 813b a1c8 a13d 24bc cc3d
000001d0: 99d7 07bd 5546 e73c afd5 e0bd 5416 2ebd
000001e0: 13ca 4abd 56a7 913d c725 183c 106e 00bd
000001f0: c91d 7a3d 1eab b4bd 9a3b afbd c4f6 09be
00000200: 3fd1 903c 76f3 b4bc 628a 963d 9fc3 b43c
00000210: b7f3 abbd 8219 16be 72f7 873d 4f76 bcbd
00000220: d1d9 c2bc 306f aa3d 4bf5 e7bd c03b 8e3c
00000230: 37a3 91bd fb6f 343d 7f93 a83d 4651 04be
00000240: f74e 273e a93e 70bd 787f d5bd 61d3 7fbd
00000250: 3159 33bd bd51 913c 8848 35be 0699 d6bb
00000260: 6c5b 1bbc 0b93 bc3c 1859 33bd 6cc2 6fbd
00000270: 58ed b83d 4970 793c 28c2 a53c 2d33 863b
00000280: b331 cdbd 859b 30bd 4ac0 303d 431d d5bd
00000290: c9cb a7ba 3800 ab3d afb9 09be 4bbd ca3d
000002a0: 2826 47bb 9723 663d cd8d 823d e2e9 f03d
000002b0: 97c0 e93c 44aa a63b 93b8 f0bc ed48 073d
000002c0: 20c4 a5bc 350a c1bc f99d dabd 1b9d 523e
000002d0: ca5b afbc 31db 933d 895c afbd 8fd7 a33c
000002e0: 050d 303d 2509 e9bd bba4 4b3d e936 323d
000002f0: 607e 3bbc 0262 0c3e 866e 3b3d 05dc b7bc
00000300: edfd 8bbd f6ee d6bd d7ca c43c c2bb e13c
00000310: 0d91 53bd cade fd3d cd23 923d 93c6 a43a
00000320: 5476 f4ba c176 d83d 907e b83c fb99 4bbe
00000330: 3859 073e fba3 5ebc e9f5 82bd f245 65bb
00000340: 5100 a73d d0c4 f73b a43d 463d b785 edbd
00000350: 7a54 96bc 2964 3fbe 51a0 17be a17d b8bc
00000360: 593c 953b 98d7 1c3e e56b c2bd 8a3f c9bd
00000370: ca4a 8ebd 60f1 9bbd 4726 28be d4e1 f1bc
00000380: de87 aebc ec64 ad3d b092 0ebd dabf 833d
00000390: aeaf 9dbd 309c 273e f797 49bd fcb1 87bd
000003a0: a792 393c cceb f7bd 6d31 50bc 036b 1f3d
000003b0: a570 0a3d 0549 8dbd 3a6e 84ba c8cc ae3d
000003c0: 714d 22be 61ab 5bbd e766 e83c 3b71 18bd
000003d0: 2f38 d9bd db41 923d 713e 363d c7f2 04bd
000003e0: c27f 473d 34b6 273e 4dbf 25be 05f1 d83d
000003f0: 3154 5a3d 6bb8 bd3c 6821 e3bc beb2 383d
-0.095861755 -0.18263221 -0.06867656 -0.016860906 -0.043713666 0.09403119 -0.095565945 -0.14325045
0.0025981416 0.011277061 -0.0074230535 -0.13066457 -0.08031989 0.13352598 -0.015845843 -0.03297858
0.10809939 0.021169499 0.098789394 0.15278904 0.017175876 -0.008536259 -0.117580555 -0.078616016
-0.008411598 -0.050330818 0.023956647 0.0067648035 -0.15674308 0.07566272 0.05695622 -0.09725879
0.099402994 -0.041212235 0.039799843 -0.08270823 -0.04425001 -0.05205384 0.028544784 -0.08996615
-0.0024860136 0.09279807 0.0105622895 0.071318805 -0.03973615 -0.12219181 -0.0021834944 0.09809943
0.078219384 -0.09929006 0.063782364 -0.08952901 -0.024238857 -0.10788541 0.054804876 -0.037776437
-0.049297296 -0.07510802 0.077125035 0.06608395 -0.09097901 -0.08504875 0.044076506 0.11363583
0.1303671 -0.050428905 0.021048993 -0.0864846 -0.15118398 -0.17693944 -0.02716641 -0.0103918705
-0.07117383 -0.055728044 0.08479156 0.11209362 -0.07370186 0.08382186 0.0016796831 -0.10817253
-0.029998237 0.07323005 0.08636085 0.099012606 -0.15092859 0.0101984665 0.07885662 -0.014782489
0.05546442 -0.041449305 0.042390887 0.079788126 -0.06380988 0.0065581603 0.010545982 0.20308158
0.10855477 -0.008969751 -0.032793976 -0.006664347 -0.1010525 0.073239796 -0.041254427 -0.0053724027
-0.15322873 0.007820437 0.007187121 -0.00045285988 0.055643994 0.080999784 -0.07906633 -0.035933785
0.026348593 0.0039511784 0.07899595 0.099968225 -0.033164594 0.02823178 -0.10978257 -0.042501763
-0.04950912 0.07111995 0.009286351 -0.031354964 0.06106356 -0.088217005 -0.0855629 -0.1347304
0.017677901 -0.022088747 0.07350613 0.022065936 -0.08396094 -0.14658168 0.06638993 -0.09202253
-0.023785504 0.083219886 -0.11326083 0.017362475 -0.07111209 0.044052105 0.08231258 -0.12921628
0.16338716 -0.058653507 -0.10424703 -0.062457446 -0.04378623 0.017739171 -0.1770345 -0.0065490035
-0.009482246 0.023019334 -0.04378614 -0.058535025 0.09029645 0.015224525 0.020234182 0.004095456
-0.10019245 -0.043117065 0.04315213 -0.10405972 -0.0012801822 0.08349651 -0.13449739 0.09899386
-0.0030387733 0.056186285 0.063747026 0.117633596 0.028534217 0.005086215 -0.029384887 0.03302853
-0.020235121 -0.023564437 -0.10674662 0.20567743 -0.021406073 0.07219542 -0.085625716 0.020000247
0.042981166 -0.11378697 0.049717646 0.043509398 -0.011443704 0.13709262 0.0457597 -0.02244378
-0.06835542 -0.10494797 0.024022503 0.02755535 -0.051652003 0.12396009 0.07135735 0.0012571387
-0.0018650987 0.105695255 0.022521287 -0.19882958 0.13217628 -0.013588901 -0.0639456 -0.0034984318
0.08154357 0.0075613037 0.04839863 -0.1159777 -0.018350828 -0.18690552 -0.1480725 -0.022520842
0.004554313 0.15316617 -0.094932355 -0.09826572 -0.06947859 -0.07614398 -0.16420852 -0.029526629
-0.02130502 0.08466515 -0.03480786 0.06433077 -0.07699524 0.16368175 -0.04921719 -0.06625745
0.011326469 -0.121055216 -0.0127070965 0.038920414 0.033798832 -0.06898693 -0.0010103651 0.08535153
-0.15849854 -0.053630237 0.02836938 -0.03721736 -0.10606419 0.07141467 0.044493143 -0.032458093
0.048705824 0.16378099 -0.16186257 0.10592846 0.053302947 0.023159226 -0.02772589 0.045092337

bias_ih_l0 f4 [384]
00000000: 8344 b7bc a449 243e 954d 873d a24e b7bd
00000010: 85d2 d43d 2b13 90bd 6d5a b0bd f94c ed3a
00000020: 868c a3bc e8d2 153d 89ed b9bc 2721 1b3d
00000030: 9a12 cdbd df6f 6abb 59f1 a43d 8921 d03d
00000040: 119f d7bd a9d2 1d3d e717 3abd dfa7 583d
00000050: 45ea e33c bcef 6ebc 01f7 fcbb eff1 303e
00000060: 6141 6fbd 8064 f73c c875 8c3d 7aea e2bb
00000070: 4d28 efbc 2130 98bd 2f96 5abb 7b87 a1bd
00000080: 8c78 7abd e324 d0bc 284f 843d 6f03 06bc
00000090: 7725 133e 3c25 fe3b a9ce 103d 50c5 173d
000000a0: d9c2 d43d e93b c3bb 0948 063d 1db2 c5bc
000000b0: 68ad 0bbc 0aad af3d 633f 8cbd f725 ccba
000000c0: 067d 75bd 7965 a5bc 4ca0 a83d c7eb 8b3d
000000d0: 8e63 a6bd 2e86 413c fc44 aebd 20c0 cbbd
000000e0: dfeb 08bd 0588 b83c a158 793d 1b76 0d3e
000000f0: 6060 183c 7139 b23d 8b7f d03d f4b9 803d
00000100: 20af 5ebd 4b85 44bd 4c98 0c3d a4dd 453c
00000110: 265e bcbd 2df5 07bd 3a2e 1e3e e429 583d
00000120: abcb 9bb9 a733 2ebd 34f3 2f3d a608 0e3d
00000130: 8788 a8bc 1903 eabd c717 833c 8000 0e3e
00000140: 88cb 613d 7059 f9bb e74e bebd c5cf 1dbd
00000150: a55b 303c 8921 193e 7cb2 9abb f9b5 c7ba
00000160: b732 50bd 3048 13bc 70bf 6d3d e565 1e3e
00000170: a97b 0f3e 4bdf 20bd 3fde 0abd 69af a93b
00000180: 06cb fd3d add2 3fbc 7b6a 84ba e253 03bd
00000190: ad10 153e 7826 10bd e6f9 84bd f531 823d
000001a0: ebd5 203e b538 0b3d 0243 45be de48 b83c
000001b0: dfb2 9cbd 8e6f 5c3d f190 e9bd 365f 76bc
000001c0: 261d 27bd 1321 633d 5ad3 713d b868 9a3d
000001d0: 289f 7c3c 41ed 9fbc 5df0 bfbb 5277 afbd
000001e0: 653b 04bd cf05 e0bd 0327 353d 39a7 2d3d
000001f0: 6d4c 783d aa70 8c3d 61d0 2abd 2f76 5b3c
00000200: 7e3c 673c 7ab1 6b3d 2ee5 9e3d 9d60 3d3d
00000210: 5640 4ebc b22f d8bc a57d 343d f64f 11bd
00000220: 46ae a93d 1bbc 353e 2850 fcbc 7643 74bd
00000230: 2a61 f43d 4284 a8bd 976d 5e3d 02b3 09bd
00000240: 0f7d 7cbd abbd c13d f245 3d3c d0ba ab3d
00000250: f230 a63d 6cab b53d 4cdb 42bd 72d0 b23d
00000260: 1b90 abbc fde0 db3c 83bb f73c eb45 cbbd
00000270: 1d86 533d 1139 dabd 62fb 12be f065 c43d
00000280: 1ffd 03bd 8ca5 09bd eeb6 843a ace3 61bc
00000290: e212 54bd 32ae babd 4f41 d6bd bb49 acbc
000002a0: dc28 2b3c 5f22 8bbc 7301 31bc 96e9 4ebc
000002b0: 475d c93d 17d9 da3d 3ea5 493d d1a5 b23d
000002c0: f2cf 5dbd 782d 57bd 0c77 863d 9840 d5ba
000002d0: 59f0 8dbd 7645 a73d 7cff 0c3d 63fa c43d
000002e0: c340 863c 46b4 8e3d f9b7 0c3d cdd5 23bc
000002f0: ea40 8c3d 9118 5a3d a7ae 2d3c fa87 f73b
00000300: 090e ec3d 819c 58bc eff4 d73c f7d2 c3bc
00000310: 2ff6 18bd e6db e93c f08c 0fbd 8f4f 7e3d
00000320: d175 3fbd e6c4 863d 5917 7f3d c0fc 9abd
00000330: 6b92 bf3d 7e3e dcbc 07cc e3bc e32f 133e
00000340: ac0e bbbb a6f5 873d 839f f03c 1e89 b5bc
00000350: b65e 9a3d eedf 5ebd 1189 993c 7262 de3c
00000360: 4a06 3b3d 9d60 e93d 8686 abbc cdbf bfbc
00000370: c992 623d 8e9a 383d 4677 0a3e 3324 70bd
00000380: 0ce6 c53c 8d89 133d 864c 05bd df90 9f3c
00000390: 2999 98bd 2df8 9b3d 136e 8d3c 656e 153d
000003a0: b09b f93b 109e be3c 8f1d 853d e522 76bc
000003b0: 650c 48bd 1d8c 153e 5222 b53d c4ac 1e3e
000003c0: 591a 7ebd 7909 4d3d f671 9e3c 0802 99bd
000003d0: 05d0 c13b 4fbb 963d 21ce 2bbd 1530 df3c
000003e0: dad3 293d cf79 993c 417c 483b 443e 94bc
000003f0: a248 ac3c 0c0d d2bd a853 38bc f179 ab3d
-0.022371536 0.16043717 0.066065945 -0.08950545 0.10391716 -0.07034906 -0.08610997 0.0018104605
-0.019964468 0.03657809 -0.022696273 0.037873413 -0.100133136 -0.0035772247 0.08053846 0.10162646
-0.105283864 0.03853098 -0.04543295 0.05289447 0.02782167 -0.014583524 -0.007719875 0.1727979
-0.05841196 0.03019929 0.068584025 -0.0069249244 -0.029194022 -0.07431055 -0.0033353677 -0.07887169
-0.06115012 -0.025408214 0.0646041 -0.00817953 0.1436976 0.0077559035 0.035353336 0.037053406
0.10388727 -0.0059580696 0.03278354 -0.024132783 -0.00852523 0.085779265 -0.068480276 -0.0015575279
-0.059933685 -0.020189987 0.08233699 0.0683208 -0.08124457 0.011811776 -0.085092515 -0.09948754
-0.03342807 0.022525797 0.06087554 0.13814585 0.009300321 0.08702362 0.10180577 0.06285468
-0.05436623 -0.04797868 0.03432493 0.012076769 -0.09197645 -0.033192802 0.15447322 0.052774325
-0.00029715648 -0.04252973 0.042956546 0.034676217 -0.020572914 -0.11426372 0.016002549 0.13867378
0.055125743 -0.0076095387 -0.09292393 -0.038528223 0.010764037 0.14954199 -0.004720984 -0.0015236727
-0.050829615 -0.008989379 0.058043897 0.15468557 0.14012016 -0.03927545 -0.033903357 0.005178381
0.12392239 -0.011707944 -0.0010102534 -0.03206242 0.14557143 -0.035192937 -0.06492977 0.06357185
0.15706603 0.033989627 -0.19263843 0.022495683 -0.076513045 0.053817324 -0.114045985 -0.0150373485
-0.040799282 0.055451464 0.05903945 0.07539505 0.015418805 -0.019522311 -0.005857511 -0.085676804
-0.032283206 -0.10938608 0.044226658 0.042395804 0.06061976 0.068574265 -0.04170263 0.013394876
0.014113544 0.0575423 0.07758556 0.046234716 -0.012588581 -0.02638993 0.044065136 -0.035476647
0.08285193 0.17747538 -0.03079994 -0.05963465 0.11932595 -0.08228351 0.05430373 -0.03361798
-0.061642703 0.094600044 0.011552321 0.08385241 0.08114804 0.08870587 -0.04757242 0.08731164
-0.020942738 0.026840681 0.03024078 -0.09925445 0.051641572 -0.10655416 -0.14353707 0.095897555
-0.032223817 -0.033605143 0.0010125318 -0.013787191 -0.05177582 -0.09115256 -0.104616754 -0.021031251
0.010446753 -0.016984163 -0.010803568 -0.012628933 0.09832244 0.10685938 0.049229853 0.08723033
-0.05415339 -0.052533597 0.06565675 -0.0016269861 -0.06930608 0.081675455 0.034423336 0.0961807
0.016388303 0.06967978 0.034355137 -0.009999705 0.06848319 0.053246085 0.010600722 0.0075540515
0.115261145 -0.013220907 0.02636191 -0.023904307 -0.037344154 0.028547239 -0.035046518 0.06208759
-0.046743218 0.06580524 0.062278125 -0.075677395 0.09354099 -0.026885267 -0.027807249 0.14373736
-0.005708536 0.066386506 0.029372936 -0.02216011 0.07537596 -0.054412775 0.018742116 0.027146552
0.045660295 0.11395381 -0.02093817 -0.023406887 0.055315766 0.04506927 0.13522062 -0.058628272
0.024157546 0.03601985 -0.03254368 0.01947826 -0.07451088 0.07615695 0.017264402 0.036482234
0.0076174363 0.02326873 0.064997785 -0.015022968 -0.048839945 0.1460423 0.08844437 0.15495592
-0.062036846 0.050057862 0.01934145 -0.074710906 0.0059146904 0.07359945 -0.041944627 0.027244607
0.041461803 0.01873484 0.003059164 -0.018096097 0.021030728 -0.10256395 -0.011250414 0.08372868

bias_hh_l0 f4 [384]
00000000: a341 c13c 22ee 7d3c e192 8abd 70e4 9dbd
00000010: 0a3d c73c 20db 143d 30e9 f7bd 886e 95bc
00000020: a993 79b9 94fb df3b 66dc 343d e62c 90bd
00000030: 5200 92bd 08cd 323c 0bb9 d23d 7284 1dbd
00000040: 67fa e0bd ca26 0b3e 207c 31bc 49ff 8e3d
00000050: fdf8 0dbc 2a45 a33d 86f9 96bc fca7 923d
00000060: 8298 ccbc 149f d23d 86a2 453d 9c78 35bd
00000070: 0f3c 0abc c379 67bd 70b9 0b3d 22b9 bebc
00000080: fc95 17bd fff6 5f3b 2ac9 e13d 65cc d73d
00000090: c4fd 9e3d e416 4f3d ede8 cebc 3660 ad3d
000000a0: d715 6c3d 0fa4 0dbc 7470 393d c0d9 98bd
000000b0: be4d f13a 2181 843d 5ab3 353d cd9f 5a3d
000000c0: 1c2f 11bd c94d bf3c da84 533c e643 283e
000000d0: c9cf 94bd 8ec2 26bc 029a 2a3c 2db3 c4bb
000000e0: 3d21 ddbc 5936 43bd 5386 e03d 0523 013e
000000f0: 883b fe3c 997b c23d c5e8 91bc 4449 473d
00000100: f9a4 293c 7d06 d63d c390 8abb 02c3 22bc
00000110: 4560 8cbd 16af c3bc 1ded 003e 3876 53bc
00000120: 0c25 113e 9080 f03b 1208 643d cadd 743d
00000130: 5b8d 8bbd 160e 233d a033 533d 0d34 c63d
00000140: e17a abbd 6761 a43c c3d2 1d3c bbdc d0bc
00000150: 6063 37bd 81a2 ea3c 9c38 a13c 58ff 393d
00000160: 0792 07be 2a3e e83d cc7d 063e 0d6e 0b3d
00000170: 62af 563d 3755 4bbd 7d5a 2e3d f32d 7d3d
00000180: 044b e03a 918c 173d 5f55 d5bc 5113 d43d
00000190: 0722 663d f6e0 333d 86b8 7ebd 7cdc 673d
000001a0: 72b4 f13d c01e 8e3c 58e1 c3bd 5631 ed3d
000001b0: a9f9 dcbd e8d1 5b3d da2e 1dbd 59e0 b93c
000001c0: c114 e83d 2123 da3d 370d 543d 8b83 4c3b
000001d0: 9fe2 fe3d 97c8 c4bd f80b 34bd 3add b0bc
000001e0: 0505 383d a01a 8d3c 1306 723d 9736 93bc
000001f0: 3c14 9b3d c42e ec3d 849a d9bc 3718 873d
00000200: 7e2a 7f3c 9ee6 ff3c f2f1 883d 409b 7dbc
00000210: f81e 613d 870f b33b 95f5 323c ca42 033d
00000220: 88d8 4a3d 64d4 e03d 366f 4abd bb4c 593d
00000230: 1931 943d c207 f6bb 5cbd 70bd 1028 eebc
00000240: 96e3 883d 92dc acbc 91f9 febd a419 833d
00000250: 6ae4 6a3d b86d f5bb 764e 2cbd 5ef6 4e3d
00000260: a476 f93c c672 b43d 4dec b1ba d88e 553d
00000270: 249b a0bd 2cc3 79bd f134 babd f9f4 553d
00000280: a30a 073e f593 953c 600b 10bd 9abf 1ebc
00000290: e0a0 8c3d cd4b a8bb 111b 10be 63da fe3d
000002a0: 9821 a73d 3167 98bd 4822 1c3d 2042 68bc
000002b0: 64f2 de3c bf17 a13d 648a 8fbc b7b4 5e3d
000002c0: d39d fdbd e462 913d 5bbb aa3d db62 dcbd
000002d0: 181f 97bd a033 063d 75a0 823d 91c5 033e
000002e0: b528 b3bd 5f58 e6bc 28c7 1b3e 6b6e 67bd
000002f0: 432a a03d 8d7c e4bc b037 debc 1825 513d
00000300: 64b9 953d 9f26 bdbc 8be0 1dbd 1f69 9abd
00000310: 3eea ae3d 374c a2bb 5a43 cb3b 9834 1c3c
00000320: 6b47 9b3d ab71 cc3c 3a08 003e 3eb3 abbd
00000330: 2675 d93b dc3b 303c b953 bbbd fb04 973d
00000340: 3880 46bd 84f7 cd3c a429 913d eccb 30bd
00000350: 7ebd 353d ac8d 84bd 1822 8c3d feba c23c
00000360: 0718 96bd df4b b23c 895d 863c 4fb2 143e
00000370: 218d 893d 46b2 47bd a97a ee3d cf06 24bd
00000380: 739a 4cbd 7d3d a9bc 5055 a2bd 02d9 0abd
00000390: ce5d 0cbd 0b94 a93d 0da3 983d 68bb a23d
000003a0: 0cdd 753d 83ad ddbc 5daa 813d 7d83 c1bc
000003b0: 8fac abbb aeef 0d3e ffb0 ef3c 924e 043e
000003c0: 440e 5e3d 738b 5c3d 7b96 a13d f4c7 a5bd
000003d0: 503d af3c 6fb5 403a 237e c53d 0fc8 52bd
000003e0: e82c 8f3c 9f18 da3d 226e 70bd edda 80bd
000003f0: cbf4 863d f42b bbbb 1e0c f73d ffa0 c93d
0.023590868 0.01549867 -0.06766296 -0.077095866 0.024321098 0.036341786 -0.12105024 -0.018241182
-0.00023801498 0.0068354104 0.0441555 -0.07039814 -0.07128967 0.010913141 0.102892004 -0.038456388
-0.109852605 0.13589016 -0.010832816 0.069822855 -0.00866532 0.079721764 -0.018429529 0.07160947
-0.024975065 0.10284248 0.048250698 -0.044304475 -0.008437171 -0.056512605 0.034112394 -0.023281638
-0.03700827 0.003417432 0.11024697 0.10537032 0.07763246 0.05055894 -0.025257552 0.084656164
0.057638016 -0.008645072 0.04527326 -0.074634075 0.001841001 0.06469942 0.044360496 0.053375054
-0.035445318 0.02335252 0.012910092 0.16432151 -0.072661944 -0.010178221 0.010412695 -0.0060028047
-0.026993388 -0.04765925 0.1096312 0.12611015 0.031034246 0.09496231 -0.017811188 0.048653856
0.010354274 0.10450456 -0.0042286827 -0.009934189 -0.068542995 -0.023887198 0.12590452 -0.0129066035
0.14174289 0.0073395446 0.05567176 0.059781827 -0.06814071 0.039808355 0.051562905 0.09677897
-0.08373047 0.020065976 0.009632769 -0.025495877 -0.044772506 0.028641941 0.019680314 0.04540953
-0.13239299 0.11339982 0.13133925 0.0340405 0.05241335 -0.049641814 0.042566765 0.0618114
0.00171122 0.03699929 -0.026041685 0.10355247 0.056184795 0.04391571 -0.062187694 0.056606755
0.11801995 0.017348647 -0.09564465 0.11581676 -0.107898064 0.05366698 -0.03837476 0.022689985
0.113320835 0.106512316 0.051770415 0.0031206335 0.12445568 -0.09608572 -0.043956727 -0.021589864
0.044926662 0.01722461 0.059087824 -0.017970366 0.07572219 0.11532357 -0.026562937 0.065964155
0.015574096 0.031237897 0.066867724 -0.015478909 0.054961175 0.0054644975 0.010922809 0.032046117
0.049522907 0.1097801 -0.049422465 0.05305169 0.07235927 -0.007508249 -0.058774337 -0.029071838
0.066840336 -0.02110127 -0.12449945 0.06401375 0.05734674 -0.007489886 -0.042067014 0.050527923
0.03045208 0.08810954 -0.0013574451 0.05213818 -0.07842091 -0.060977146 -0.09092129 0.052235577
0.13187651 0.018259028 -0.035167098 -0.009689236 0.06866622 -0.0051359893 -0.14072825 0.12443998
0.081607044 -0.07441557 0.03811863 -0.014175922 0.02721519 0.07865857 -0.017522044 0.05437156
-0.12383618 0.0709894 0.083365165 -0.10761043 -0.073789775 0.032764077 0.06378261 0.12868334
-0.087479986 -0.02811831 0.15212691 -0.056501787 0.07820561 -0.027891422 -0.027126163 0.051060766
0.07310751 -0.023089705 -0.03854422 -0.075395815 0.08540772 -0.004952933 0.0062030973 0.009534024
0.07581981 0.024956545 0.12503138 -0.08383797 0.0066362796 0.010756459 -0.09146828 0.07373997
-0.048462123 0.025142439 0.070880204 -0.043163225 0.044370167 -0.06472334 0.0684244 0.023770805
-0.073288016 0.021764694 0.016402023 0.14521144 0.06716371 -0.048754 0.11644489 -0.040045556
-0.04995198 -0.020659203 -0.07926428 -0.03389836 -0.034269147 0.0828019 0.074529745 0.07945901
0.06002526 -0.027060276 0.06331322 -0.023622269 -0.0052390764 0.13860962 0.029259203 0.12920597
0.054212824 0.053843927 0.0789003 -0.08094779 0.02139154 0.00073512545 0.09643199 -0.051460322
0.017477468 0.10649227 -0.05869878 -0.06291757 0.06589659 -0.0057120267 0.12062858 0.09845161
