checkpoints/ln_cls_layer.pth (torch_old, 7921 bytes, 2 tensors)

weight f4 [2, 256]
-0.0062070126 -0.041371696 -0.06702247 0.06503293 -0.0025880798 -0.1213707 -0.17090538 -0.14613432
0.06664541 0.073997475 -0.06285933 -0.0340731 -0.054239918 -0.089164406 -0.09104116 -0.033528976
0.0941375 0.03145896 0.109849006 -0.030336123 0.049059786 0.028223103 0.0042130454 0.015368757
0.07061874 -0.0722502 0.03863235 -0.061809972 0.032674108 -0.060549367 -0.00084230467 0.040657222
0.053954434 0.007176196 0.09301257 -0.045965422 0.11524342 0.0028959408 0.0038273414 0.058663215
0.047005292 0.050255254 -0.040702894 -0.04383102 0.14026052 -0.0053275763 -0.047635745 0.015381343
-0.02460358 -0.0834663 -0.015502361 -0.032367554 0.0005982589 -0.1547288 0.027368544 0.08760443
0.038496524 0.025047364 0.011505596 -0.045218263 0.10418039 0.08701277 0.19476081 0.07912479
-0.06711997 0.09998939 -0.03307904 -0.15008254 0.08784048 -0.07238723 0.006901132 0.025767148
-0.123949885 0.043684665 0.009749859 -0.048527278 0.12542374 -0.057789218 -0.03810898 0.14916417
-0.006322522 -0.15661205 0.060855925 -0.045058377 0.04518577 0.075316645 -0.03365229 0.01738302
0.11014045 0.07437404 -0.03773219 -0.10505306 -0.044300437 0.076034784 -0.08699539 -0.09119863
0.10634745 0.06517601 0.06498328 0.016419161 0.0012884168 0.013316703 -0.14153762 -0.012381067
0.03715635 -0.057834636 0.07207639 -0.028396381 0.05903456 -0.02004584 -0.0747181 0.09265238
-0.039243206 0.010878212 -0.03402278 -0.05938601 -0.015596678 0.035652965 -0.16165015 -0.04095485
0.015328062 -0.16267218 0.058729667 -0.01067795 0.07195888 -0.06250532 0.04035319 0.07930828
0.06394927 0.039785657 -0.022974331 -0.055734027 0.118438356 0.10574305 -0.032751366 0.0038841742
-0.09750385 5.780211e-05 -0.0662275 -0.11407101 -0.088124596 0.06655263 0.1431378 -0.017532822
-0.037674103 -0.09017924 -0.019693991 0.029435059 0.008401602 0.017727954 0.0795807 -0.10175154
0.021313073 -0.0588039 -0.046430882 -0.09095186 0.09921195 0.10595174 -0.11122548 0.093709655
-0.07985599 -0.08438313 0.0678192 0.036613964 0.12382378 0.059770092 0.1377355 -0.058023892
0.009071959 0.12314856 0.07544282 0.02641776 -0.046762764 0.063664556 0.070672974 0.050051965
-0.11581061 0.14188772 -0.030547794 -0.042882137 0.055192567 0.10510612 0.12598462 0.027671454
0.027283534 0.10373128 0.06580258 -0.09278129 0.04609671 0.06064889 -0.07302765 -0.10065866
0.0012160061 0.05284995 -0.0009802129 -0.16758426 0.104102634 0.07736705 0.047861207 -0.026960371
-0.0082337465 -0.008575495 0.031587787 0.07514789 0.0017128028 0.035725124 -0.060487747 -0.030567423
0.095159635 -0.040935956 -0.04473546 0.053115845 -0.06346493 -0.007734597 0.016047496 0.09476611
-0.0009733767 0.08494415 0.058432724 -0.054917037 0.16250934 -0.08443824 0.047890976 -0.030657351
-0.07571751 0.094085276 0.12359056 -0.044705775 0.07296724 -0.06736423 -0.0322324 -0.067297064
0.014042259 -0.053590868 0.0032535447 0.02633795 0.103841275 0.02188861 -0.10718278 -0.056233436
0.058733266 0.052582126 -0.01739002 -0.037333887 -2.110823e-05 -0.04950946 0.0028363292 -0.02533878
-0.07558061 -0.12188315 0.05869422 0.073005594 -0.07319336 0.049333427 0.052734572 -0.019466698
00000000: 3264 cbbb 5e75 29bd 1443 89bd fc2f 853d
00000010: c69c 29bb 3491 f8bd d201 2fbe 3ca4 15be
00000020: 647d 883d fd8b 973d 64bc 80bd 3c90 0bbd
00000030: ad2a 5ebd d49b b6bd ca73 babd ae55 09bd
00000040: 29cb c03d 1cdb 003d 84f8 e03d 7683 f8bc
00000050: eaf2 483d 2334 e73c 960d 8a3b 3dcd 7b3c
00000060: 8fa0 903d eaf7 93bd f43c 1e3d 742c 7dbd
00000070: 49d5 053d 9d02 78bd 1cce 5cba 3088 263d
00000080: 53ff 5c3d 4c26 eb3b 607d be3d 3d46 3cbd
00000090: be04 ec3d d3c9 3d3b 22d4 7a3b d748 703d
000000a0: 9f88 403d 74d8 4d3d 14b8 26bd 2888 33bd
000000b0: 74a0 0f3e f392 aebb b31d 43bd 0702 7c3c
000000c0: 728d c9bc 61f0 aabd 9dfd 7dbc d793 04bd
000000d0: 7ad4 1c3a 3a71 1ebe ff33 e03c f469 b33d
000000e0: 88ae 1d3d 2130 cd3c f881 3c3c c936 39bd
000000f0: 875c d53d c033 b23d 616f 473e 2e0c a23d
00000100: 3276 89bd 3dc7 cc3d e37d 07bd 3daf 19be
00000110: b6e5 b33d c23f 94bd e422 e23b a015 d33c
00000120: 70d9 fdbd b1ee 323d dfbd 1f3c 8ac4 46bd
00000130: 156f 003e 63b4 6cbd 2918 1cbd 7ebe 183e
00000140: 292d cfbb e95e 20be 1044 793d 228f 38bd
00000150: b714 393d 9d3f 9a3d fcd6 09bd d666 8e3c
00000160: 5191 e13d 6b51 983d 128d 1abd 0f26 d7bd
00000170: 6074 35bd 20b8 9b3d a42a b2bd 59c6 babd
00000180: b1cc d93d 007b 853d f415 853d 7a81 863c
00000190: 18e0 a83a 4d2e 5a3c 3def 10be f5d9 4abc
000001a0: 4231 183d 03e4 6cbd c99c 933d 879f e8bc
000001b0: 39ce 713d 2c37 a4bc ce05 99bd 88c0 bd3d
000001c0: 7cbd 20bd 873a 323c 785b 0bbd bf3e 73bd
000001d0: 3589 7fbc d808 123d 9e87 25be 46c0 27bd
000001e0: 8d22 7b3c 8993 26be 858e 703d 92f2 2ebc
000001f0: 2d5f 933d ca02 80bd 6349 253d 616c a23d
00000200: d6f7 823d 49f6 223d aa34 bcbc 5d49 64bd
00000210: cf8f f23d d08f d83d 4c26 06bd a18d 7e3b
00000220: 19b0 c7bd 8b70 7238 49a2 87bd 109e e9bd
00000230: ab7a b4bd bf4c 883d b792 123e fea0 8fbc
00000240: 2950 1abd e5af b8bd 4b55 a1bc cb21 f13c
00000250: dfa6 093c 373a 913c 35fb a23d 1d63 d0bd
00000260: c198 ae3c 5cdc 70bd 4f2e 3ebd f844 babd
00000270: a32f cb3d 3afd d83d 2fca e3bd d9ea bf3d
00000280: 8a8b a3bd 10d1 acbd cbe4 8a3d 86f8 153d
00000290: 5297 fd3d 7cd1 743d 890a 0d3e 76aa 6dbd
000002a0: 8ea2 143c 5035 fc3d c481 9a3d 0f6a d83c
000002b0: 508a 3fbd 9062 823d febc 903d 4a03 4d3d
000002c0: 1d2e edbd 044b 113e 5e3f fabc 2ea5 2fbd
000002d0: 9a11 623d e141 d73d 1d02 013e 3faf e23c
000002e0: b881 df3c 1171 d43d 81c3 863d 1e04 bebd
000002f0: e7cf 3c3d f86a 783d 858f 95bd 2126 cebd
00000300: 6562 9f3a 3079 583d 7d7a 80ba 359b 2bbe
00000310: c333 d53d 9e72 9e3d 1d0a 443d ffdb dcbc
00000320: d6e6 06bc 3c80 0cbc 3262 013d 23e7 993d
00000330: 2080 e03a 8254 123d 00c2 77bd 8868 fabc
00000340: 0ee3 c23d 76ac 27bd 883c 37bd 0090 593d
00000350: e7f9 81bd 8172 fdbb 0a76 833c bc14 c23d
00000360: 342a 7fba 33f7 ad3d 2757 6f3d b0f0 60bd
00000370: d968 263e f5ed acbd 5429 443d 2025 fbbc
00000380: c811 9bbd c8af c03d 0c1d fd3d 671d 37bd
00000390: d96f 953d 42f6 89bd 1f06 04bd 0bd3 89bd
000003a0: 8111 663c 1982 5bbd 6c39 553b afc2 d73c
000003b0: bcaa d43d be4f b33c a582 dbbd 0855 66bd
000003c0: 4b92 703d 5b60 573d 8475 8ebc 6beb 18bd
000003d0: 9411 b1b7 6eca 4abd b5e1 393b 4693 cfbc
000003e0: 02ca 9abd df9d f9bd 5a69 703d f583 953d
000003f0: 66e6 95bd d911 4a3d 3500 583d a078 9fbc

bias f4 [2]
-0.07199023 -0.018950252
00000000: 9d6f 93bd 8f3d 9bbc
