checkpoints/ln_decoder.pth (torch_old, 313322 bytes, 7 tensors)

weight f4 [16, 50]
000000 5f 52 4a 3e 2c 93 e0 3c 5a b2 1f 3f d9 19 3c 3e
       0.19757985 0.027413927 0.6238152 0.18369235
000010 71 f3 03 3f 48 79 32 3f c5 92 1e 3f 56 21 8a 3e
       0.5154334 0.6971631 0.619427 0.26978558
000020 f5 79 fb 3e 18 ac f1 3e 78 5a da 3e 34 29 f5 3e
       0.49116483 0.4720161 0.42647147 0.47882998
000030 08 f1 29 3d 71 db 1d 3e 07 a9 0f 3f 86 9a 85 3e
       0.04148963 0.15415742 0.5611729 0.26094455
000040 f5 7e 74 3f 07 c1 86 3d 70 6a 24 3d ad aa 2a 3f
       0.9550622 0.06579786 0.04014057 0.6666668
000050 d3 ab ee 3e 07 7f 69 3f d6 23 b0 3d 56 25 51 3f
       0.46615466 0.91209453 0.08600585 0.81697595
000060 ff d4 9d 3e a3 13 61 3e 2f 98 a8 3e c1 cc 18 3f
       0.30826566 0.21980147 0.32928607 0.5968743
000070 17 4a 82 3d 13 42 1b 3f 34 c8 3f 3e 91 2f 61 3f
       0.06361788 0.60647696 0.18728715 0.87963206
000080 9f ca 58 3e dc d2 e1 3e f4 4b fd 3d e3 6c 3c 3f
       0.21171044 0.44106185 0.123680025 0.7360365
000090 aa 5d fe 3e 92 83 3f 3e 13 b0 7d 3f 4f 50 a9 3e
       0.49680835 0.18702534 0.9909679 0.33069083
0000a0 0a d8 6a 3d d1 fa 6f 3f c5 43 7b 3f e2 e4 1d 3f
       0.057334937 0.9374209 0.98150283 0.6167737
0000b0 78 c1 88 3e 00 c3 e5 3e e4 26 12 3f b4 34 19 3f
       0.26710105 0.44875336 0.5709059 0.59846044
0000c0 31 e1 c1 3c 6d d6 32 3e 8f e3 42 3f 6a 50 8f 3d
       0.02366695 0.1746461 0.76128477 0.0699776
0000d0 58 07 83 be 2e ff d6 3e b8 12 15 3e f1 97 87 be
       -0.2559154 0.41991562 0.14557922 -0.2648311
0000e0 09 8f 70 3e e0 c0 e9 be d7 65 22 bf 96 07 e0 be
       0.23492064 -0.45654964 -0.63436645 -0.43755788
0000f0 0c 75 b3 3e cd f9 29 3f 16 44 ef bd bc ec c1 be
       0.35050237 0.6639679 -0.11682908 -0.37875926
000100 74 65 fa be 1f 5b 4c 3e cd 38 45 3f 4a 02 1c be
       -0.48905528 0.19956635 0.77039796 -0.15235248
000110 58 5c 14 3e b5 77 9d be 1b 2c 13 3f 9b 36 c3 3e
       0.14488351 -0.30755392 0.57489175 0.38127598
000120 13 e8 8d 3d a0 c4 bf 3e 78 06 3a be 94 03 ad 3e
       0.0692903 0.374547 -0.1816653 0.33791792
000130 5b ed 0d bf 87 99 ec be 81 2c 3b be 73 7c 79 3a
       -0.554403 -0.46210882 -0.18278696 0.00095171406
000140 22 f1 64 3c 74 86 7c 3e d3 fa 93 3e 65 09 44 be
       0.013973506 0.24660665 0.289023 -0.19144209
000150 55 8d ff bd 90 7e b3 be 54 89 09 3e bf 5a ab be
       -0.12478129 -0.35057497 0.13431293 -0.3346767
000160 a0 71 43 be d3 a5 ab be d1 74 8a 3e d6 2e f2 be
       -0.19086313 -0.3352495 0.2704225 -0.47301358
000170 a8 e9 07 bf 3e b3 d6 3e 9a 32 58 be df d3 a8 be
       -0.53090906 0.41933626 -0.21113053 -0.32974145
000180 5c 9c e8 3e f0 32 b4 be 4b ad 9a be 3a 50 23 3e
       0.45431793 -0.35195112 -0.30210337 0.15948573
000190 5c 4e 28 3f 21 23 10 3f f3 7b 89 3e 4b c4 0e 3f
       0.65744567 0.563036 0.26852378 0.5576827
0001a0 03 ea 10 bf 66 53 65 3e bd a6 21 bf 42 92 a8 3d
       -0.56607074 0.22395095 -0.6314505 0.082310215
0001b0 4e f4 b5 3d fd 77 2c bf c0 b8 0d bf bc 07 76 3f
       0.08884488 -0.6737059 -0.5536003 0.9610555
0001c0 e6 1a 3d bf 4a a2 37 bf 7e 95 1d bf 60 3b 82 be
       -0.7386917 -0.7173201 -0.6155623 -0.25435925
0001d0 4f 5a 90 3e 70 a1 aa 3e 03 94 c2 3d 19 ca 98 3e
       0.281939 0.33326292 0.09500887 0.29841688
0001e0 8e 1e 85 3e c1 98 f4 3e dc ff 84 bd d8 b6 1c 3f
       0.25999874 0.47772792 -0.06494114 0.612165
0001f0 8d 20 11 3c 45 a0 93 3f 0f 3f ec be c5 4f 69 bf
       0.008857858 1.1533285 -0.4614186 -0.91137344
000200 33 a5 37 3e e3 e5 2b bf 3b 99 77 3f 96 ae 31 3f
       0.17934112 -0.67147654 0.96718186 0.6940702
000210 0b af 17 3e b9 16 4a 3f 06 54 ec 3d 10 59 39 bf
       0.14812867 0.7894092 0.11539464 -0.72401524
000220 fa 7e b8 be c0 ea e5 bc 42 ba c0 be fc bf fc 3e
       -0.36034375 -0.02806604 -0.37642103 0.49365222
000230 12 e7 d0 3e 16 79 62 3e 89 1a 33 3d 90 fc 53 be
       0.40801293 0.22116503 0.043726478 -0.20701814
000240 40 3c 17 be d0 92 80 bf bc ca 64 be 9d 34 16 bf
       -0.14769077 -1.0044804 -0.22342962 -0.5867403
000250 6f 96 18 3f cc 08 87 3d 4a 12 25 3d d2 08 35 bd
       0.59604543 0.06593475 0.040300645 -0.044197865
000260 dc db b7 be c9 e4 f5 3e 13 72 00 be 27 b0 3f be
       -0.35909927 0.48026112 -0.12543516 -0.1871954
000270 f5 84 dd 3e a7 fd b2 be f2 a4 bc 3d 6f f6 30 3d
       0.432655 -0.34959146 0.09211148 0.043203767
000280 e1 42 12 3e ba e0 15 3f da 9b b1 3e 34 1b e8 be
       0.14283325 0.5854603 0.34689218 -0.45333254
000290 21 6e de be 4d 7c 87 be 58 9b 79 be aa 8f 36 3e
       -0.43443397 -0.2646202 -0.24375665 0.17828241
0002a0 2b ad c9 3e 55 4d cd bb 2a c9 d6 3e 77 0d c9 3e
       0.3938993 -0.006265322 0.4195035 0.39268085
0002b0 05 65 b8 be 85 16 0c 3f 23 c4 a7 be 96 8d b6 3d
       -0.36014572 0.5472186 -0.32766828 0.08913724
0002c0 f5 08 90 bd c4 20 ec bd 3f 41 7c be 48 e9 ea be
       -0.070329584 -0.11529687 -0.24634264 -0.45881104
0002d0 8e 79 1d be c6 bd b4 3e d7 21 29 3f 95 3f 49 be
       -0.153784 0.35301036 0.6606726 -0.19653161
0002e0 b8 ad 0e 3f 42 36 84 be a5 5d 6f 3d b2 e4 b4 3e
       0.55733824 -0.25822645 0.058438916 0.3533073
0002f0 e2 15 b3 be 36 4f a1 3d e5 74 91 3e 32 d2 36 3e
       -0.34977633 0.078764364 0.28409496 0.1785362
000300 3b 6d a5 3e 21 d6 8d 3e 84 5c 02 bf 85 32 d8 bd
       0.323099 0.2770243 -0.5092242 -0.10556511
000310 d2 99 a7 be 86 fb 04 3c d1 85 8d 3d 2a 14 15 3f
       -0.32734543 0.0081166085 0.06910289 0.5823389
000320 65 e8 9b 3c 29 a0 31 3f 89 ca 2c 3f 71 a4 24 be
       0.019031713 0.6938501 0.67496544 -0.16078354
000330 92 0c ca be b8 06 17 3f 24 34 a8 be 0c af 36 bf
       -0.39462715 0.58994627 -0.3285228 -0.7136085
000340 10 eb b0 bd 97 da a2 bc 57 b6 b6 be c0 36 8c 3e
       -0.086385846 -0.019879622 -0.3568599 0.2738552
000350 c2 d2 03 bd 9f cc bd 3d fc 6d ee be d0 d6 f3 3e
       -0.032183416 0.09267544 -0.46568286 0.47624826
000360 68 f8 4c 3f 24 a9 11 be 3b c3 7c be 05 8b c0 3e
       0.8006654 -0.14224678 -0.2468385 0.37606063
000370 fb 7f ab bd 9f a2 92 bb 7d ee ff be ec 7e a6 3d
       -0.0837402 -0.0044749524 -0.4998664 0.08129677
000380 44 ad af 3e 2c a0 53 3f 6c 35 c7 bd 18 1e 9f bd
       0.3431188 0.8266628 -0.09726986 -0.07769412
000390 77 c8 9f be 62 0c 21 bf 3f bb e6 3e b5 4e f7 bd
       -0.3120763 -0.6290952 0.45064732 -0.12075559
0003a0 ac 84 d6 be fa cb 69 3f 33 bd 55 bf 51 52 f3 3c
       -0.41898096 0.9132687 -0.8349182 0.029702337
0003b0 e1 b0 b3 3e 52 8f 86 be c1 b2 02 3f 84 de 0a bd
       0.35095885 -0.2628122 0.51054007 -0.033903614
0003c0 0b cd 36 bd 0f 0d b0 be d6 73 24 bf 6d b8 b6 be
       -0.044629138 -0.34384963 -0.6423925 -0.3568758
0003d0 e3 8c c2 3e f9 32 97 bf 2f 40 30 be d1 c0 88 be
       0.37998113 -1.1812431 -0.17211984 -0.26709607
0003e0 b6 82 15 3f 17 cc 25 bf 3e 04 09 be 2d 58 89 3d
       0.58402574 -0.6476454 -0.13380525 0.06706271
0003f0 6e 0e aa be d2 c5 87 be 2c ae 4a be 5c 4a e8 bc
       -0.33214134 -0.26518112 -0.19793004 -0.02835577

weight_ih_l0 f4 [384, 50]
000000 f9 05 57 be 85 b3 1f be a2 24 2e bd 52 09 5e be
       -0.20998372 -0.15595825 -0.042515405 -0.21683243
000010 ea 81 a6 3e 9b 01 c2 3c f7 6e 1f 3e bd e2 9e 3c
       0.32520992 0.023682406 0.15569673 0.019395227
000020 e9 35 dd 3d aa 78 82 3e 58 df 2b 3e 1c da 72 be
       0.10801298 0.25482684 0.16784418 -0.23716015
000030 fe 38 69 3e fe 33 5a 3e 55 a6 28 3e 90 30 0b be
       0.22775647 0.21308896 0.164697 -0.13592744
000040 f7 ff 3c be 5c 8a ea 3d aa aa a2 bc cc 87 c7 bd
       -0.18457018 0.11452171 -0.01985677 -0.09742698
000050 18 a1 03 be 0b 15 b2 bd 6e 76 3b bd 67 6b 55 be
       -0.12854421 -0.0869542 -0.04576724 -0.20841752
000060 52 31 80 bc c2 b5 4f be c4 f8 91 3d 49 81 ec 3d
       -0.015648518 -0.20284179 0.071275264 0.11548097
000070 c8 d7 6e bd ab 6a 24 3d 33 12 55 be b6 22 49 be
       -0.058311254 0.04014079 -0.20807724 -0.19642147
000080 fa ba d2 3c 27 77 3f be 0b a1 a1 3d 32 65 51 3e
       0.025723923 -0.18697797 0.07892045 0.20448759
000090 38 34 a6 3d 28 19 28 3d 6d 66 8b bc c2 da a5 3c
       0.08115429 0.041039616 -0.017016614 0.020245913
0000a0 b9 55 e3 bd 8c cb f5 3c 4f b6 6c 3d 51 b0 09 3e
       -0.11100335 0.030004285 0.05779105 0.13446166
0000b0 43 8a ea 3d 48 44 25 3d 1b 3c 37 bc 60 86 29 3d
       0.114521526 0.04034832 -0.011183764 0.041387916
0000c0 e6 14 44 be 2e 6c bf 3d 7d 40 92 be 3e 95 66 be
       -0.19148597 0.093468055 -0.28564826 -0.22517869
0000d0 8d 2b 04 be e1 f7 20 be cf 51 0a 3e 10 36 0f bb
       -0.12907238 -0.15719558 0.1350777 -0.0021852292
0000e0 cb 35 77 3e df 98 b3 ba 89 1c 06 bd 3c 04 1e 3e
       0.24141614 -0.0013702175 -0.032742057 0.15431303
0000f0 12 65 8c 3d 23 be 32 be 64 d7 f3 3d 8c 91 c5 3d
       0.06855215 -0.17455344 0.11906317 0.096469015
000100 99 e6 2a 3e b9 3c 76 3e c2 74 28 be bf 1d 33 bd
       0.16689529 0.24046601 -0.1645079 -0.04372954
000110 d6 8f 02 3e 41 e8 3f 3c 58 0c 47 be 84 bd 92 bd
       0.12750182 0.0117130885 -0.19438303 -0.071650535
000120 a6 90 db bd c1 b2 bb bd a6 92 b6 be 51 91 57 be
       -0.10720949 -0.09164954 -0.3565876 -0.21051528
000130 9c 3f 03 3e c7 d6 07 3e b5 f2 3e be 7a d2 1c 3e
       0.12817234 0.13265525 -0.18647273 0.15314665
000140 b2 4e ce bd 21 dd e0 3b 7d 97 e3 3d 5b ac d7 bd
       -0.10073604 0.006862298 0.111128785 -0.10530921
000150 be c7 fb 3d 33 1a 12 3e 69 1f a2 3e 88 3d 07 3e
       0.12293957 0.14267807 0.3166459 0.13207066
000160 3b bb 63 bd 90 e4 4d be e8 3e 7b 3d ea 61 98 bd
       -0.05559848 -0.20106721 0.06133929 -0.074405506
000170 b8 e4 fd 3d 0d 97 16 3c cf ce 4e 3d e7 d0 19 3e
       0.1239714 0.009191287 0.050490197 0.15021096
000180 de 5e 76 bc 9c e9 2c 3e 55 aa 28 bd 02 68 52 3e
       -0.015037267 0.1688599 -0.041178066 0.20547488
000190 d0 31 18 3e 76 41 54 3d 5e d5 14 3c 54 57 9c 3e
       0.14862752 0.05182024 0.009084074 0.30535376
0001a0 94 b7 cf 3c 09 2e f0 3d 27 7c bc bd 53 17 27 bd
       0.025356092 0.117275305 -0.09203368 -0.040793728
0001b0 54 c8 37 bd 92 e3 35 be ad 26 ed bc a8 fe 74 3e
       -0.044868782 -0.17762592 -0.028949106 0.23925269
0001c0 c1 07 0c be 54 d7 0d bd dc 06 fc bc b3 30 6a 3c
       -0.13674833 -0.03462918 -0.03076499 0.014293837
0001d0 3c ee fb bc 8a 50 b0 3d c6 66 8a 3d 5e 7d 49 3e
       -0.030753247 0.086091116 0.06757884 0.1967673
0001e0 ae 9f 03 3e f7 38 7c 3d 5f 91 e4 bd 27 8f bc bb
       0.12853882 0.061577763 -0.1116054 -0.00575437
0001f0 44 45 e1 bd aa 0f 18 3d a8 ce c3 bd 88 ed 0b be
       -0.109995395 0.037124313 -0.09560901 -0.1366483
000200 25 c9 f7 3d e9 a7 7a be 80 a9 1d 3d 56 4d 43 3e
       0.12098912 -0.24478115 0.038491726 0.1907247
000210 6f 96 df 3d e9 3f 93 bc ed 14 02 3c 00 e7 d1 bd
       0.10917365 -0.01797481 0.007939559 -0.10249138
000220 05 f6 03 be 01 56 b5 3b 36 3a db bd aa bc 57 3e
       -0.12886818 0.005533934 -0.10704462 0.21068063
000230 5c c7 11 3d 49 6e 22 bd 79 8a 3b bc b2 2e 16 3d
       0.035590515 -0.039655957 -0.011446589 0.036665626
000240 cf b5 82 bd c2 94 c7 bc 2f 0d d0 bc 24 ca 01 be
       -0.063823335 -0.024362925 -0.025396911 -0.12674767
000250 e1 6f 1e bd d0 d4 b1 3d 8c e6 ca bc ef 12 7a be
       -0.038680915 0.08683169 -0.024768136 -0.24421285
000260 e4 6f 07 3e 93 a5 45 bc 4b 1e 3d 3d 6f fb 34 be
       0.13226277 -0.012063402 0.046171468 -0.1767404
000270 0e e8 81 be 37 84 49 3e 57 0f d6 3d 30 26 31 bd
       -0.25372356 0.19679342 0.104521446 -0.04324931
000280 a9 4a ba bd aa a3 26 be ec 54 04 be c8 ca f8 3c
       -0.090962715 -0.1627337 -0.1292302 0.030370131
000290 57 57 7e 3e ff 5a 50 be 5a 1c 64 bd e8 02 e5 bb
       0.24838005 -0.20347212 -0.0556911 -0.006988872
0002a0 48 e0 64 be c5 ac c7 3d c6 50 6f 3c a2 40 80 be
       -0.22351182 0.0974975 0.01460666 -0.2504931
0002b0 72 6d 9c 3e 40 d3 88 bc 11 f5 1c 3e 31 f2 13 be
       0.3055225 -0.016702294 0.1532786 -0.14447857
0002c0 71 36 30 3e 7e 19 44 bd b8 28 c6 3e ef 38 0d 3e
       0.17208268 -0.047875874 0.3870294 0.1379125
0002d0 0f 18 bb 3d 31 1a 77 bc 8b 5b 90 bd 4a 3e 7b 3d
       0.09135448 -0.015081928 -0.070487104 0.0613387
0002e0 5e e8 d0 3d 26 91 82 3d 96 70 14 bf 96 1d c7 3d
       0.102005705 0.06375341 -0.5798429 0.0972244
0002f0 67 00 b8 bd 85 30 86 3e 09 0f 74 be df bf eb 3d
       -0.08984452 0.26208892 -0.2383386 0.11511206
000300 53 ef 01 3e ea 5f fe bc 6d 5a 5b 3d 65 a5 13 3e
       0.12688951 -0.031051595 0.053553034 0.14418562
000310 bf 0e 63 3d bf 36 0d bd 3d c9 92 bd 25 33 12 be
       0.055433985 -0.034476038 -0.071672894 -0.14277323
000320 de 04 d8 be 9b 05 24 be a5 e1 a9 be b4 04 79 be
       -0.42191213 -0.16017763 -0.33179966 -0.243182
000330 7b 16 5d 3d 1e 0e a1 bd 15 a1 c2 3e 6e 25 38 3e
       0.053976517 -0.07864021 0.3801352 0.17983028
000340 b1 d7 cc bc 09 bf 1b 3f 8f 44 44 3e a0 b2 c2 be
       -0.025005193 0.6083837 0.19166778 -0.38026905
000350 17 a2 e7 3d 46 76 a2 3e 83 c1 b0 3d dc c3 f2 3e
       0.11310213 0.3173086 0.086306594 0.47415054
000360 2d 3b 54 bd 8b a6 3a 3e 73 b9 a7 3e 56 2e d5 bd
       -0.051814247 0.18227594 0.32758674 -0.104092285
000370 ff 8d 5f be 11 f7 fe 3d 61 73 40 bb b2 c2 2b bd
       -0.21831511 0.12449468 -0.0029365646 -0.041933723
000380 28 a1 e2 be 77 e1 8a be 0d 32 3f 3e a0 0c 08 3e
       -0.44263577 -0.2712514 0.18671437 0.13286066
000390 c0 73 63 be f9 df b9 3e 81 f7 dd be 07 d1 62 be
       -0.22212124 0.3630369 -0.43352893 -0.2215005
0003a0 69 2b 00 3e 86 06 90 be 73 7b 31 bd 70 e3 b6 b8
       0.1251656 -0.28129977 -0.04333062 -8.7208e-05
0003b0 c2 eb eb 3e b4 0d 20 3e 78 35 d4 bc ac 8c 99 be
       0.46078306 0.15630227 -0.025904402 -0.29990137
0003c0 56 a3 66 3e 78 0f 85 bd 7d 32 14 3e 46 f3 c8 bd
       0.22523245 -0.06497091 0.14472385 -0.09812026
0003d0 76 cf 5d 3e 02 8a 53 3e af 99 58 3d c8 14 0a 3f
       0.21661171 0.20658115 0.05288094 0.5393796
0003e0 09 fe eb bd 0f 6e 7a bc aa 2e 53 be b8 b7 e0 bb
       -0.11523063 -0.015285029 -0.2062327 -0.0068578385
0003f0 ca 29 d8 3d cb 45 b9 be d4 b0 a3 3e 80 ee 32 3e
       0.10554846 -0.3618606 0.31970847 0.17473793

weight_hh_l0 f4 [384, 128]
000000 0a 88 11 be c3 fa 7a 3e f6 e6 3d 3d 40 b4 54 bd
       -0.14212051 0.2450972 0.04636284 -0.051929712
000010 0d d4 1c 3e c0 9d 90 3b 85 0a 26 3d 6e e7 be bd
       0.15315266 0.0044133365 0.040537376 -0.093214855
000020 0a 6b b5 be 95 e8 3f 3d 02 ee 12 3c 99 29 b6 3c
       -0.35433227 0.046852667 0.008967878 0.022236632
000030 ec b8 fc 3d b6 35 2a bd 3a e7 35 3e 68 72 92 be
       0.123399585 -0.04155513 0.17763987 -0.2860291
000040 d7 0a 2e 3e 2f f6 6c 3e a3 bd 2f be 6d b9 2d 3e
       0.16996323 0.23140787 -0.17162184 0.16965266
000050 61 48 3e be 1a 24 bc bd ba 63 e6 bc 37 b2 e8 3d
       -0.18582298 -0.09186573 -0.028123725 0.11362117
000060 84 e5 2f 3e 6d bb 0a 3e fa f8 cf 3a 76 61 4d be
       0.17177397 0.1354806 0.0015867047 -0.2005671
000070 7a cd e6 39 d9 52 c8 3d d1 02 ee 3c 7d 41 3f bd
       0.0004402211 0.09781427 0.029054077 -0.046693314
000080 3e 33 ae 3d d7 a4 e0 bb d2 e9 25 3c 3e a8 f1 bd
       0.085058674 -0.006855588 0.010126548 -0.11799668
000090 5b 15 06 be 62 15 98 3d 3b 2d cb bd 6d da 6d bd
       -0.13094084 0.074259534 -0.099207364 -0.058069635
0000a0 3d 97 0c bd 2c 6d 25 3e 89 a0 b0 3e 71 48 a7 bd
       -0.03432392 0.16154927 0.3449748 -0.08168114
0000b0 b8 1c 1b 3e e2 c2 a2 3e 28 dd d5 bc 7c 8c 28 be
       0.15147674 0.3178931 -0.026106432 -0.1645984
0000c0 cb 8f 0a 3d 42 c5 aa bd c1 15 fd bc e6 14 7a 3d
       0.033828538 -0.08338405 -0.030894162 0.061055087
0000d0 a5 82 2c 3e 09 d8 10 be 6a bf 1e 3d cb 3c 36 bb
       0.16846712 -0.14144911 0.038756765 -0.0027807232
0000e0 59 dc 77 bd aa b3 80 be 47 c5 cc bd 4c cb 84 bc
       -0.060512874 -0.25137073 -0.09998565 -0.01621022
0000f0 3a f7 17 3d 9e 81 ec bd 41 d2 02 3e 7c dd d9 bc
       0.037101008 -0.1154816 0.12775518 -0.02659487
000100 47 b8 f7 3c 73 e8 d4 3c 0e ad 38 3c e3 66 61 be
       0.030239237 0.025989747 0.011271728 -0.22011904
000110 db 34 2e 3d f0 54 d3 3d 68 90 c5 bd 4c e1 5e 3e
       0.042530876 0.10318935 -0.09646684 0.21765631
000120 4b 2c da 3d 6e b5 5e 3d 50 bf cd 3d 15 39 5b 3e
       0.106529795 0.054372244 0.100462556 0.21408494
000130 82 83 0f 3c f6 1a 0f be ed 9b 95 3e 5e 92 8b bd
       0.008759381 -0.13975129 0.29220524 -0.06815027
000140 a2 85 0c 3e ee e2 35 bd 65 9f 0c 3e 7d d9 88 3d
       0.13722852 -0.04440587 0.13732679 0.066821076
000150 a4 5c b0 bd f6 68 9f bd e5 ed 04 3d 84 6d c4 bd
       -0.0861142 -0.077836916 0.032453436 -0.09591201
000160 6d 72 83 bc 31 be f1 bd da 8a e0 3d e3 1b 92 3d
       -0.016045773 -0.11803854 0.10963984 0.07134225
000170 56 0a 32 bd 99 7a dd 3d e6 8e 58 3e a7 be 0a bd
       -0.04346689 0.10814399 0.21148261 -0.033873226
000180 81 ee 63 3d 6f 15 a9 bd b1 cd f8 3c 98 fd ad 3d
       0.055647377 -0.08256041 0.030371519 0.08495635
000190 e8 87 86 be 1d 76 98 bb 27 ff 02 be e7 11 eb bd
       -0.26275563 -0.004652752 -0.12792645 -0.11478024
0001a0 86 a9 5c 3d bb c6 bf bd 3d a6 11 be e8 1f 40 bd
       0.053872608 -0.09364077 -0.14223571 -0.04690543
0001b0 c9 57 35 be 08 4a 5f ba ef 71 b2 3d 59 5c a5 3e
       -0.17709269 -0.00085178064 0.08713137 0.32297018
0001c0 79 d9 82 3e 58 6a f0 bc 56 6b 05 3e 07 0f c5 3d
       0.25556543 -0.029347584 0.13029227 0.09622007
0001d0 ff 11 49 bd 10 9f ac 3d 3a 22 58 3d 1a 8e 8e bd
       -0.049089428 0.08428776 0.052767016 -0.069606975
0001e0 91 08 19 3e 0d 3a 5e be e1 d8 2e be 5d e6 82 bd
       0.14944674 -0.21701832 -0.1707492 -0.063915946
0001f0 66 dc 17 bc 3d 67 9c bc d3 92 ab 3d ee e8 9d 3e
       -0.009268856 -0.019092197 0.08377614 0.30841774
000200 0b c8 30 3e 2f 70 57 3e 35 d7 27 3e 9d e9 7f 3d
       0.1726381 0.21038888 0.16390689 0.06247865
000210 35 7e fd bd 12 6b e7 bd 35 3c 85 be e3 aa e8 3c
       -0.12377588 -0.11299719 -0.26022497 0.028401798
000220 50 ce 8e 3e 93 ef 38 3e 15 dd ee 3d 8e c6 6e bd
       0.2789178 0.1806014 0.11663262 -0.058294825
000230 75 76 13 be 57 38 01 be 03 bf 09 be 9c ca 8c be
       -0.14400657 -0.12619148 -0.13451771 -0.2749833
000240 ef eb 02 3d b4 ed fa bd ad 48 4c be 7f 44 87 3b
       0.031963285 -0.122523695 -0.19949599 0.0041280384
000250 93 3c 97 bd 35 db 44 3d 5c 7b 19 be 7c ad 74 bd
       -0.073846005 0.048060615 -0.14988464 -0.05973576
000260 4a 2b af 3d 64 7b eb bc a1 67 d9 bd 3a 1b 21 be
       0.085531786 -0.02874536 -0.10615469 -0.15733042
000270 87 88 75 bd 30 1b 4c 3e f4 32 b2 bc a0 01 2f bd
       -0.059944656 0.19932246 -0.021752812 -0.04272616
000280 94 82 00 bc 74 d1 75 3e 58 a2 67 3d a0 63 29 3d
       -0.007843632 0.24005681 0.056551307 0.041354775
000290 98 e6 74 be 84 32 27 bd 8b 6a 80 be 52 64 e0 3c
       -0.2391609 -0.04081966 -0.25081286 0.027391586
0002a0 f4 ed 7d be 4f 1d 0b be 88 c1 7f bd 3f 4b 41 3d
       -0.24797803 -0.13585399 -0.062440425 0.0471909
0002b0 22 ea e4 bc 54 55 4d 3e 47 48 98 be 05 05 6d 3e
       -0.027943674 0.20052081 -0.29742643 0.23146446
0002c0 8e 91 0d be 32 86 9a 3d c7 c2 ab 3d 09 8f 9c be
       -0.13825056 0.07545127 0.0838676 -0.30577877
0002d0 2f 1a 27 be 9a e4 21 be 24 48 91 3d b0 2c 1e be
       -0.16318582 -0.15809861 0.07093838 -0.15446734
0002e0 bd bc 8e 3e 76 86 2f bd e3 02 d8 bd b7 16 93 3d
       0.2787837 -0.04285284 -0.105474256 0.07182067
0002f0 e0 65 5f be 5c d4 01 3e 94 de 96 3e 0a 5c 7e 3e
       -0.21816206 0.12678665 0.2946669 0.24839798
000300 a9 2b ee bd 45 87 7f 3d d9 79 d9 bd f5 cd 50 be
       -0.11629421 0.062384862 -0.10618944 -0.20391066
000310 21 f8 79 3d 57 30 80 bd c6 7a b9 bd 73 c4 1d 3e
       0.06102765 -0.0625922 -0.0905662 0.1540697
000320 db 39 2c 3d 0c f6 91 3c 0c 94 23 3e b4 70 83 3e
       0.042047363 0.01781752 0.15974444 0.25671923
000330 5a d9 2b 3e c7 07 25 3d 3d e6 de 3d c9 6d b5 3d
       0.16782132 0.04029062 0.10883758 0.088588305
000340 f4 e9 d1 3d f8 ca 57 3e 60 ac a3 be 77 1c 99 3d
       0.10249701 0.2107352 -0.3196745 0.07476132
000350 bc 9c 2e 3e 38 13 de 3d d6 c3 39 3e 90 00 e8 bd
       0.17051977 0.108435094 0.18141112 -0.11328232
000360 64 64 b9 bc ea 38 49 3e 47 b2 9a bd 25 68 50 be
       -0.022630878 0.19650617 -0.07553535 -0.20352228
000370 ed ad 8e bd 4e 5f 8a bd c5 68 9f bd 38 14 a2 bd
       -0.069667675 -0.06756459 -0.07783655 -0.07914013
000380 97 96 67 bc 28 29 11 3e 27 97 a3 bc 2b cc 21 be
       -0.0141350245 0.14175856 -0.019969536 -0.1580054
000390 bf ce 84 be 94 70 6c be e2 fc c7 3d 5e 15 55 3e
       -0.25938985 -0.2308982 0.097650304 0.20808932
0003a0 2b 8d e7 bb 3c 66 07 be 6a 0f 07 3d fb c3 13 3e
       -0.007066389 -0.13222593 0.032973684 0.1443023
0003b0 6f 11 c5 be 6b 26 f4 3d 24 c7 5a bc bd fe 0f 3b
       -0.38489863 0.1192139 -0.013353143 0.0021971904
0003c0 26 33 f4 3d 95 45 eb 3c 35 81 98 be e4 ea 9f bd
       0.11923818 0.028719703 -0.29786077 -0.07808474
0003d0 b3 4d 4f bd 1e f9 42 3e 0e 6f 23 be ba 13 69 3e
       -0.05061121 0.19040343 -0.15960333 0.22761431
0003e0 21 66 68 bc 4f 32 18 3d b8 df 30 be 50 32 2b 3d
       -0.014184506 0.037157353 -0.17272842 0.04179603
0003f0 b8 17 26 bd 78 d8 4d 3d ea e7 18 be 3d f5 58 be
       -0.040549964 0.05025527 -0.14932218 -0.21187301

bias_ih_l0 f4 [384]
000000 85 77 8a 3d a5 c4 df 3c 62 3c 25 3e 62 36 18 bb
       0.06761078 0.027315447 0.16136315 -0.0023225774
000010 a3 a3 4f 3d cc 9d 17 3e 4e 94 d1 3d 28 c4 2f 3e
       0.050693166 0.14806288 0.10233365 0.17164671
000020 34 d1 49 3e c0 d0 42 3c 22 e1 aa bd a2 07 87 3d
       0.19708711 0.01189059 -0.08343722 0.06593253
000030 a6 f8 ac bc 83 18 cc 3c f4 d9 4d 3e f0 25 bf 3c
       -0.021114659 0.024914032 0.20102674 0.02333352
000040 e2 58 2f 3e 68 bc 67 b9 ec 90 08 3d ae 72 7c bd
       0.1712375 -0.00022100064 0.033341333 -0.061632805
000050 82 49 a5 3d 87 ef 9d bc d8 0b ca 3d 22 6a a2 bd
       0.08070661 -0.019279255 0.0986554 -0.079303995
000060 b7 66 b8 3b 6d 55 2b 3e 0b 6b 0b 3e 94 ac cd 3d
       0.005627479 0.16731806 0.13615052 0.10042682
000070 2b e8 9d 3d 8b ed 12 3c 94 3f 1b 3d 35 85 47 3e
       0.07710298 0.0089677675 0.03790243 0.19484408
000080 d3 7f 5b 3d d4 69 e3 3d 0a 0c 01 3e 07 a4 1f 3e
       0.0535887 0.111041695 0.12602249 0.15589915
000090 4b 1d c4 3d e1 af 63 3d 74 d9 ac 3d 07 80 f0 3d
       0.095759 0.055587653 0.084399134 0.11743169
0000a0 51 d2 40 3e 8f 37 2e 3e db 84 4b 3d 4a 07 a4 3c
       0.1883023 0.17013381 0.049687248 0.020023007
0000b0 9d 9f 9f 3d 61 14 88 3e 68 2e 18 3d e8 d0 0a 3e
       0.07794116 0.26578048 0.03715363 0.13556254
0000c0 ae 2b 51 3e cc 76 d9 3d 5a b6 fa 3c 3f d4 dc bd
       0.20426819 0.10618362 0.03060453 -0.1078267
0000d0 c9 a5 37 bc d0 33 3d 3e 5a 19 bd 3d 2f 10 61 3d
       -0.01120896 0.18476796 0.09233351 0.054947075
0000e0 84 ac 79 3e e7 56 2c 3e f9 25 c1 3c bf 75 b8 3d
       0.24382216 0.16830026 0.023577677 0.09006833
0000f0 9a ea 37 3e 37 fa 6e 3d bd c1 5c 3d 03 a7 79 3c
       0.17960587 0.058344092 0.0538957 0.015237573
000100 c5 5d 4a 3e 23 1b 97 bd a1 1f 8f bd 3a 54 ff 3d
       0.19762333 -0.07378223 -0.069884546 0.12467237
000110 7c 4b 02 3d 81 78 40 3e ef 6a 08 3e 59 cc c9 bd
       0.03181027 0.18795969 0.13322042 -0.09853429
000120 13 5f 03 3e 75 02 27 3e db be a1 bd e1 28 bb 3d
       0.12829237 0.16309531 -0.07897731 0.091386564
000130 9b 84 22 3e 28 dd 84 3c 37 8e 7c 3e d7 53 6e bd
       0.15870897 0.016218737 0.24663626 -0.058185425
000140 a9 02 85 3c 9d d4 45 3d 96 b0 18 3d 47 4f 40 3e
       0.01623662 0.048298467 0.03727778 0.18780242
000150 c9 2c ea 3d a9 88 b0 bc 19 8c 18 3d de ba d4 3d
       0.11434323 -0.02154954 0.037242983 0.103872046
000160 af 56 e5 3c 2b 6d 49 3e 3b c2 4d bc c9 24 19 bd
       0.027995436 0.1967055 -0.012558515 -0.037388597
000170 a8 7b 35 3c 33 f3 e1 3c 45 89 cb bc 4c c4 49 3d
       0.011076845 0.027581787 -0.024845729 0.04925947
000180 86 ff 29 3e c6 f6 15 bd 14 76 12 3e 82 7d 18 3e
       0.1660138 -0.036612295 0.14302856 0.14891627
000190 3e 41 85 bc 9e b2 0f 3e 8c 72 83 3c a3 88 71 bd
       -0.016266461 0.14032981 0.016045831 -0.058968198
0001a0 f4 e7 24 3e 50 f7 f4 3d 93 86 ff bc ee 7c c4 3c
       0.16104108 0.119612336 -0.0311921 0.023985352
0001b0 73 49 3f 3e b5 ce d0 3c 99 79 80 3d 57 5c d6 3d
       0.18680362 0.02548919 0.06273193 0.10466831
0001c0 04 7b 0a 3d e2 87 9c 3c 81 0f 05 3e a4 35 a5 3d
       0.033808723 0.019107763 0.12994196 0.08066872
0001d0 0e 4b b9 3d 61 0c 36 3e 7e bc b6 3d 8e 57 59 3a
       0.09047519 0.1777816 0.08922671 0.000829094
0001e0 5b cb 4e 3e 37 02 cd 3d f1 ce a7 3c 9f 7b 1a 3e
       0.20194761 0.10010188 0.02048442 0.1508622
0001f0 9d eb 84 3d a6 8e 03 3e 21 a7 96 3d bf 03 71 3e
       0.06490252 0.12847385 0.07356096 0.23536585
000200 90 f0 f7 3d 78 f3 84 bd da 92 ce bd 36 9e 1d bd
       0.121064305 -0.064917505 -0.100866035 -0.03848096
000210 14 29 c1 be 60 c9 d2 be 0f 9b 62 be 74 24 03 be
       -0.37726653 -0.41169262 -0.22129463 -0.12806875
000220 5e 7d 9f bc ca d4 a9 be e0 34 2a be b0 fb 0c 3d
       -0.01946896 -0.33170158 -0.16621733 0.034419715
000230 69 95 9f be 40 a8 09 be f4 a1 db be 9f 8a 17 3e
       -0.31168678 -0.13443089 -0.42896998 0.14798974
000240 8b bf 1f be be e2 86 be 02 a2 22 be 4e bd 95 bd
       -0.15600412 -0.26344866 -0.15882114 -0.07311498
000250 7d fe 57 3d 3b 25 ba be d6 bc 66 3e 9b 34 67 bd
       0.052732933 -0.3635653 0.22532973 -0.056446653
000260 b8 d8 13 3e a2 22 8f 3c 5d 5a 02 be 47 df 1e be
       0.1443814 0.017472569 -0.12729783 -0.15514861
000270 53 49 22 be 03 94 bb bc e0 d3 ac be 69 9c 0d bd
       -0.15848283 -0.022897726 -0.33755398 -0.034572992
000280 22 4b a5 3d 27 08 a9 be 17 cb 54 bd ff 68 1f bc
       0.08070971 -0.33014032 -0.051951494 -0.009729623
000290 10 4d 8e be 70 9c 04 bd ce 8b 28 be d5 95 a3 be
       -0.2779317 -0.032375753 -0.16459581 -0.3195025
0002a0 86 2e c2 be 67 f5 69 be d6 76 c9 bd fb fe 2c 3d
       -0.3792612 -0.2284752 -0.09837119 0.042235356
0002b0 58 d1 5a 3c 8b 3f e5 be f5 37 fb bd 22 29 83 be
       0.0133555755 -0.44775042 -0.12266532 -0.2561732
0002c0 39 de 9f be 78 cc 80 3d 09 8d e4 3d 84 af 06 be
       -0.3122423 0.06288999 0.11159713 -0.13152891
0002d0 e8 5a 81 be 00 92 5f bd 6b 24 3f 3e bb c8 c0 3d
       -0.25264668 -0.054582596 0.18666236 0.09413286
0002e0 0c f6 16 3e f9 0b be 3c 67 4d a1 3d d2 6f 1e be
       0.14742297 0.023199068 0.078760915 -0.15472344
0002f0 8a 37 9a be df 9b 4b be 5c 0a fc bc 52 14 ae bd
       -0.30120498 -0.19883679 -0.030766658 -0.084999695
000300 12 65 0c be 21 ec 18 be 70 4c 7a 3c c6 07 bb be
       -0.1371043 -0.14933826 0.015277013 -0.36529368
000310 af aa a5 be 49 3e 34 be c5 d0 04 3e 9a ee a4 bc
       -0.32356784 -0.17601885 0.12970264 -0.020133305
000320 05 d7 3b be 29 99 f0 bd e8 61 c7 be cd ef 06 be
       -0.18343742 -0.11747963 -0.38941884 -0.13177414
000330 0e a0 82 be 2b 91 03 3c 25 c0 38 3e 94 05 c9 be
       -0.25512737 0.008030216 0.18042047 -0.39262068
000340 11 d0 94 bd 35 d3 be be c1 97 4d 3e ec e8 c1 bd
       -0.07266248 -0.37270513 0.20077421 -0.094682544
000350 f7 7f 94 3e a5 f5 01 be d3 43 0e 3e bc 68 2a 3e
       0.2900388 -0.12691362 0.1389306 0.16641515
000360 fa 54 43 be e9 90 a9 3d 5d dc 4e be e5 9d 93 be
       -0.19075385 0.082795925 -0.2020125 -0.288314
000370 cb 31 0e bd d5 6c eb bc 88 82 44 3e 0e 78 1d 3d
       -0.034715455 -0.028738419 0.19190419 0.03844457
000380 81 53 dd bc 74 6b b5 3d d6 5d 9d 3b 05 39 04 be
       -0.027017357 0.08858386 0.004802446 -0.12912376
000390 af 5d 2c 3d ae 51 3a be cd 0a a3 be 03 32 83 3e
       0.04208153 -0.18195221 -0.31844178 0.25624093
0003a0 37 25 af bb 80 d8 aa bd 9e ef 8f 3d 18 b4 d6 bd
       -0.0053450125 -0.08342075 0.07028125 -0.10483569
0003b0 60 af 08 bf 57 2d c9 bd 85 a5 af 3d 8c a4 f6 bd
       -0.533926 -0.09823101 0.08576492 -0.120431036
0003c0 e3 c3 c5 3b ea 62 9d bd b5 1d 41 be 9d 91 fc 3a
       0.0060353144 -0.07684882 -0.18858989 0.001926947
0003d0 88 27 53 be 22 57 d5 3d b4 75 b9 bd 4d 3f a8 be
       -0.20620549 0.1041701 -0.09055653 -0.32860795
0003e0 60 97 8f bd e2 c8 80 3e ae 74 29 3e 55 b3 95 be
       -0.07011294 0.2515326 0.16548416 -0.29238382
0003f0 3b d8 9a be 22 7b 0b bf 98 3b 36 be 5d 18 b3 3e
       -0.30243096 -0.5448476 -0.1779617 0.34979525

bias_hh_l0 f4 [384]
000000 c9 d6 30 3d 98 ab 10 bd 63 80 b6 3b 56 33 d7 3d
       0.043173585 -0.035319895 0.005569504 0.105078384
000010 3d bb 1c bd f7 99 cb 3d 66 a1 9d 3d 76 34 fc 3c
       -0.0382645 0.09941476 0.076968 0.030786734
000020 f7 3c 6a 3e 46 3c 08 3e 59 53 32 3c 9d da d3 3d
       0.22874819 0.13304242 0.010884129 0.103444315
000030 d4 8e 50 bd 8b ce a3 3d ac be 49 3e 39 f9 86 3d
       -0.05091746 0.07998379 0.19701642 0.06590504
000040 a2 56 1e 3e 1c e6 b8 3d b5 a5 38 bb 59 a7 9a 3d
       0.15462735 0.09028265 -0.002817494 0.0755145
000050 09 71 9c 3b 95 59 73 bd cf 05 2d 3e 47 1d 39 3c
       0.004774217 -0.059411604 0.16896747 0.011298484
000060 00 7f 13 3e 5f e0 59 3d 23 7f 9d b9 ee cb 22 3e
       0.14403915 0.053192493 -0.00030040098 0.15898106
000070 70 71 38 3d 51 d3 ac bd 7e 1a 94 3c 95 e3 46 3e
       0.045030057 -0.08438743 0.018079039 0.19422753
000080 f7 24 19 3e 56 67 03 3e 91 3e fd 3c e5 15 1d 3e
       0.14955507 0.12832388 0.030913623 0.15340383
000090 e8 a9 0c 3e d1 70 b1 3d 07 0b 85 3d d3 8c 3b 3c
       0.13736689 0.08664096 0.06496244 0.011447149
0000a0 25 67 2d 3e fa 15 7f 3d b4 4d 01 3e 07 cc c3 3d
       0.16933878 0.062276818 0.12627298 0.095603995
0000b0 7f 57 db bc ae ea a0 3e 46 07 38 3d c2 c3 f0 3d
       -0.02677512 0.31429046 0.04492881 0.11756088
0000c0 b2 d1 8e 3e 14 4a 8c 3b d8 f0 30 3d 35 4a d0 bd
       0.2789436 0.0042812917 0.043198436 -0.10170404
0000d0 ff 37 bf 3d 8b 3c ed 3d e4 eb 6d 3e d5 6a 19 3e
       0.09336852 0.11583813 0.23234516 0.1498216
0000e0 34 9b 48 3e 21 2c 09 3e 69 6f 58 bc af 7d 6b 3d
       0.19590455 0.1339574 -0.013210156 0.057492908
0000f0 5c 73 d1 3d 25 80 e4 3d 5c b4 cc 3d 25 c2 ca bc
       0.10227081 0.11157254 0.09995338 -0.024750778
000100 f3 86 19 3e 24 a7 07 bd df f3 09 bd 39 5d 00 3d
       0.14992885 -0.033118382 -0.03367984 0.031338904
000110 c8 43 e8 3a db 64 54 3e 96 e9 29 3e ba b4 95 bd
       0.0017720396 0.20741598 0.16593012 -0.073098615
000120 3f 6e fb 3d 5c b4 0f 3e 20 72 37 3d 15 84 51 3e
       0.12276887 0.14033645 0.044786572 0.20460542
000130 b5 cc 9c 3d e4 7e 69 3d d3 a4 97 3e 78 a2 ec 3d
       0.07656232 0.057005778 0.29617938 0.11554426
000140 61 00 07 3d 4f 58 56 bd 1a 99 6e bd 62 31 6b 3d
       0.032959346 -0.05233031 -0.058251478 0.057420142
000150 95 18 cf 3d 6d 8c f5 3b 9b 4f 29 3d d7 83 22 3e
       0.101121105 0.0074935467 0.041335683 0.15870605
000160 fc 93 f0 3d 63 e1 d1 3d ff 3a 42 bc 4a 09 b3 ba
       0.11746976 0.10248067 -0.011854886 -0.0013659385
000170 bf 15 8f bb d7 dd 44 3c 93 6c ef 3d f0 3c 8e 3d
       -0.004366606 0.012015781 0.11690631 0.06945217
000180 fe 30 dd 3d d2 6a c7 bd ca ef 4d 3e 0e b9 1e 3e
       0.1080036 -0.09737171 0.20111004 0.1550028
000190 8b 6b 38 3d 81 4a c9 3d d0 b9 21 bd 31 92 e1 3c
       0.045024436 0.098286636 -0.039483845 0.02753553
0001a0 0e ad 20 3d 3e d6 b5 3d 69 96 93 3c 2f ed 85 3d
       0.039227538 0.08878754 0.018016057 0.0653938
0001b0 ef 52 36 3e 16 c2 3b bc 02 4c 01 3e 37 f8 0b 3e
       0.17805074 -0.011459848 0.12626651 0.13668905
0001c0 63 7c 14 3a c1 2a c9 3b 44 1d bb 3c 67 20 d4 3c
       0.0005664287 0.00613913 0.022841103 0.025894357
0001d0 c4 cc ca 3d e7 4a 2a 3e 41 49 04 3e cf 52 0b 3e
       0.09902337 0.16630135 0.12918569 0.13605808
0001e0 0f 82 71 3e 77 03 e1 3d 9b 9b 73 bc 81 02 b2 3d
       0.2358477 0.10986989 -0.014868642 0.08691884
0001f0 c5 e4 8e 3d 98 ba 07 3e c7 80 b6 3d 9f eb 41 3e
       0.06977228 0.13254774 0.08911281 0.18937539
000200 67 3e 2f 3e 9f 2b a6 bc cf 5a 4b be b0 17 29 be
       0.17113648 -0.020284472 -0.1985886 -0.16512942
000210 78 70 b6 be bd f6 9e be 07 7f 56 be c0 3f 3b be
       -0.35632682 -0.3104762 -0.20946895 -0.18286037
000220 3c 6a 02 3d fc 5f b2 be 76 48 15 be 62 de 12 3b
       0.031839594 -0.34838855 -0.14578423 0.0022410383
000230 9e 10 94 be 5d 30 19 be 4c 14 b1 be 16 73 cb 3d
       -0.28918928 -0.14959855 -0.34585798 0.0993406
000240 f1 20 76 be 5e b4 bc be 56 c5 3d be 07 02 a4 bd
       -0.24036004 -0.3685636 -0.18532309 -0.08008199
000250 3c c3 e0 3d 2e 37 8e be 7c 33 94 3e 4c c7 fe bc
       0.10974738 -0.27776474 0.2894553 -0.031100892
000260 18 88 6f 3e 46 3f dc bd 60 0e 74 be 80 91 97 be
       0.2339176 -0.10754256 -0.23833609 -0.29603195
000270 a3 6e 6c bc 8e ab a6 3a fe 45 b1 be 85 30 5d 3d
       -0.014430675 0.0012715922 -0.34623712 0.05400135
000280 2b 02 4a bd ad b9 be be 39 96 67 3d 5d aa 4b 3d
       -0.049318474 -0.37251034 0.056539748 0.049723018
000290 8f e1 5b be ae 93 2d be ce e8 23 be d7 ec 89 be
       -0.21472763 -0.16950867 -0.16006777 -0.26938507
0002a0 c5 4d be be 2f 11 6b be 78 27 d2 bd 20 1d 81 bc
       -0.37168708 -0.22955774 -0.10261434 -0.015760958
0002b0 5e 75 4a 3d 07 ad d9 be 0a 50 fc bb ba aa b7 be
       0.049428336 -0.42514822 -0.007699971 -0.35872442
0002c0 89 bf 9c be 61 89 34 3d 44 86 85 3e 4a 04 9b bc
       -0.3061488 0.044076327 0.26079 -0.018922944
0002d0 d7 03 07 be fe 01 b8 bd cf 7f 67 3e a8 bc 03 3d
       -0.13185059 -0.08984755 0.22607349 0.03216234
0002e0 bd ca c5 3d 78 09 b7 3d c5 72 65 3e 17 2b 80 be
       0.0965781 0.08937353 0.22407062 -0.25032875
0002f0 f8 ae c1 be 71 3a 3f be c8 18 50 bd 01 1d e9 bc
       -0.37828803 -0.18674637 -0.050804883 -0.028456213
000300 07 9e d8 bc b1 93 b6 bd 3b 69 9d 3c ce 0e af be
       -0.02644254 -0.08914889 0.019215217 -0.34190983
000310 f3 c9 c9 be 67 ce 2e be 60 ff da 3d 2b c7 fe bb
       -0.39411888 -0.17070924 0.1069324 -0.0077752075
000320 53 e7 2c be 93 58 3f 3d 08 d2 82 be fb bd 3d be
       -0.16885118 0.04671533 -0.25550866 -0.18529503
000330 5b 4d b4 be 0b d1 5d bd 37 4c b6 3d 54 c7 ab be
       -0.35215268 -0.054154437 0.089012556 -0.33550513
000340 fc 8b 0f be 8f 05 af be 5e 83 8c 3e 34 10 02 be
       -0.14018244 -0.34183928 0.27443975 -0.12701494
000350 30 09 7b 3e e1 fd 66 be 9f cc 69 3d 10 8e d8 3d
       0.24515224 -0.22557785 0.057079908 0.10573971
000360 c0 e9 79 be 5a 1c 8a 3a d3 56 64 be 8c d2 58 be
       -0.24405575 0.0010537014 -0.22298746 -0.21174067
000370 f8 96 f5 bd b1 e9 a1 3d 1e b4 50 3e 52 12 5c bb
       -0.11991686 0.07905901 0.20381209 -0.0033580256
000380 71 fb d6 bd 7a 37 f8 3c 57 d9 7a 3d 75 98 4c be
       -0.104971774 0.03029989 0.061242428 -0.19980033
000390 d3 04 01 3d cc b5 42 be 31 c7 cc be cd 7f 88 3e
       0.03149874 -0.19014663 -0.3999572 0.26660004
0003a0 38 c6 32 bd 9c 79 9f 3c 8f 4e 3b 3d 2c 62 e4 bc
       -0.043646067 0.019467168 0.045729216 -0.027878843
0003b0 cf b1 13 bf d9 81 fd bd cb 20 13 3e fb 5f 6c be
       -0.5769319 -0.12378282 0.14367978 -0.23083489
0003c0 c4 4d 39 3d c8 fb a2 bd d2 a6 7e be 10 b5 8a bc
       0.04524018 -0.0795818 -0.24868324 -0.01693204
0003d0 18 bf ae be d4 ff 71 3c 61 eb 12 be cb 31 7b be
       -0.34130168 0.014770467 -0.14347602 -0.24530713
0003e0 cf 28 3e be b4 48 91 3e 94 06 39 3e 5c e0 45 be
       -0.18570255 0.2837578 0.18068916 -0.19323868
0003f0 43 64 a7 be 51 38 29 bf 48 09 96 be 5d 44 96 3e
       -0.3269368 -0.66101557 -0.29303956 0.29349032

weight f4 [16, 128]
000000 fc 61 5d 3e fa ef 9b 3e b7 67 b4 3e 50 db 85 be
       0.2161941 0.30456525 0.35235378 -0.26143885
000010 94 41 69 be a0 da 11 bb 78 df e7 bd 15 7e e4 bc
       -0.22778922 -0.0022255555 -0.1132192 -0.027892152
000020 e6 64 18 bc 7e 90 2c bd 30 4a f3 bd da ba 31 be
       -0.0093014 -0.042129986 -0.118793845 -0.17356434
000030 1d 57 15 3e 47 c1 24 3c 47 b2 2d 3d 97 02 7c 3d
       0.14584012 0.010055847 0.042406347 0.061525907
000040 ff c7 aa bc 78 36 9b be 28 e1 c1 bd a3 13 74 3e
       -0.020847319 -0.30314994 -0.09466773 0.23835616
000050 ed 8b 53 be 24 10 be 3e 96 e5 05 bd a0 4e 1e bd
       -0.20658846 0.3712169 -0.032689653 -0.0386492
000060 15 46 1b be 79 b0 22 bf aa 44 2c 3c 18 3a ba be
       -0.15163453 -0.63550526 0.010514418 -0.36372447
000070 39 ed ab be b9 89 8f be 38 7e 8e 3e ec 6f c2 3c
       -0.33579424 -0.28034762 0.27830672 0.02373501
000080 03 c5 23 bc 30 3b 3c 3d fd 73 1c 3e dd b8 22 bc
       -0.009995702 0.045954883 0.15278621 -0.00993177
000090 93 60 55 be 4a ad 3e 3e e8 34 c6 bd 00 20 84 be
       -0.20837621 0.18620792 -0.0967806 -0.25805664
0000a0 54 06 01 3f b8 ba 76 3e ab 1d 72 be ca 8d 48 3e
       0.5040028 0.24094665 -0.2364413 0.19585338
0000b0 ee 0a 0c be f2 5b 15 3e f7 92 a7 3e 81 95 9a 3e
       -0.13676044 0.14585856 0.32729313 0.30192187
0000c0 a3 01 95 3d 4b 07 06 3e e5 cd f8 bd 84 6f 01 3d
       0.07275703 0.1308872 -0.12148646 0.03160049
0000d0 a8 5e 3b 3e e5 9d 4c 3e 0f 61 99 3e 58 d5 d3 3c
       0.18297827 0.19982107 0.29956862 0.025858566
0000e0 51 14 d0 3c 28 a3 d7 3e e2 9b ae 3d 5c 9c 2f be
       0.025400313 0.42116666 0.08525826 -0.1714949
0000f0 e5 6d 6a be 8c 4e 9b bd f5 5c 1c 3e d8 b4 9f be
       -0.22893484 -0.07583341 0.15269835 -0.3119266
000100 f3 3a 0b be 5f de 7f bd fc 2e 21 3c cf ae 9f be
       -0.13596706 -0.06246793 0.009837862 -0.31188056
000110 10 cf d3 3d 69 0b 95 be c8 3d 1a 3e 4e e5 dd be
       0.103422284 -0.29110268 0.1506263 -0.43339008
000120 e6 d2 32 3d c5 58 ca 3e 34 c2 13 3f 8c 54 9c bd
       0.04365816 0.3952085 0.57718205 -0.076333135
000130 7d 1d 0f 3e f3 16 8e 3e db cc c6 be 96 98 51 bd
       0.13976093 0.27751884 -0.38828167 -0.051170908
000140 6b 14 9d 3e b1 ce 41 be ee ea 82 3e 60 eb 9a bc
       0.3067964 -0.18926503 0.25569862 -0.018911064
000150 a1 4f 40 be ea 49 15 be f4 66 d4 bd 12 98 88 bc
       -0.18780376 -0.14578977 -0.10371199 -0.016674075
000160 51 b4 a3 be d3 78 66 3e 54 32 05 3e c3 60 9d bd
       -0.31973508 0.22507028 0.1300748 -0.076844715
000170 e2 cf eb be 6c 46 06 3f 47 90 e9 bc 36 81 56 be
       -0.4605704 0.52451205 -0.02851118 -0.20947728
000180 70 dc 11 3f be ee 14 3e 2e 20 3e be 73 51 d6 3b
       0.56976986 0.14544198 -0.18566963 0.006540471
000190 f7 c7 d8 bd 02 a3 ee 3c b4 a7 e4 bd c9 38 30 3e
       -0.10585015 0.029130463 -0.11164799 0.17209162
0001a0 30 c3 7a be 2a c4 d0 3d 2e d1 90 3e ee bf b7 3e
       -0.2448852 0.10193665 0.2828459 0.35888618
0001b0 d4 8c a4 be f0 2f 43 bd e2 d2 e9 3e 96 b7 5e be
       -0.32138693 -0.04765314 0.45668703 -0.2174972
0001c0 3f 6d 96 bd 98 d3 a2 be 6a 37 26 3e af 44 84 bc
       -0.07345056 -0.31802058 0.16232076 -0.016146032
0001d0 56 ed ce 3e 31 08 f6 bd 2a b4 c0 3d 9d de bb 3e
       0.40415448 -0.12013281 0.094093636 0.36693278
0001e0 9a ae dd be a8 a0 cc 3d a8 28 52 bd 27 cf 28 3f
       -0.43297273 0.0999158 -0.051308304 0.6594109
0001f0 39 e0 45 be cd 09 1b be 8a b8 69 be 67 d0 0d bf
       -0.19323815 -0.15140457 -0.22824302 -0.5539612
000200 07 2e 30 be 3e a6 2c bc ca 39 67 be ca 15 04 be
       -0.17205058 -0.010537682 -0.22580639 -0.12898937
000210 6d 0c 80 3d ed f8 3b bd 0a 42 3d 3d 83 10 05 3e
       0.0625237 -0.04589169 0.046205558 0.1299458
000220 90 25 bd 3d 5d 6f 53 3e 1a 32 a7 3e 69 82 47 3e
       0.0923568 0.2064795 0.32655412 0.19483341
000230 4f 54 c2 3e 06 de 99 be f0 91 94 3e 3f 17 1c bd
       0.37954947 -0.30052203 0.2901759 -0.038108107
000240 93 83 38 3e c4 2b 6f bc 32 86 21 bc f6 0f 88 3e
       0.18018942 -0.014597837 -0.009858655 0.26574677
000250 fc 43 9c 3e b1 f8 4c 3e 04 0d 43 be 47 94 51 3e
       0.30520618 0.20016743 -0.19047934 0.2046672
000260 4c 6f 13 3e c9 5f 9c bd d7 b4 02 3f b7 06 1c 3e
       0.14397925 -0.07635457 0.5105719 0.15236937
000270 4a 64 66 bd 9f 16 0f 3e 51 8b da bb 18 b6 9d be
       -0.056247987 0.13973473 -0.00666944 -0.3080299
000280 e0 4f 3c 3e 63 90 bc be b1 4f e3 bd e4 79 b4 bb
       0.18389845 -0.36828908 -0.11099184 -0.0055076946
000290 c1 1b b6 3d 1e dc 30 be b9 05 5d be 1f c7 f6 bc
       0.088920124 -0.17271468 -0.21584214 -0.030124245
0002a0 f5 ec 35 3e 09 1c 02 3e 27 55 98 3e 71 20 ca bb
       0.17766173 0.12706007 0.29752466 -0.006168418
0002b0 82 f9 70 be 65 5d 57 bd ef 57 bd be df 51 57 be
       -0.2353268 -0.052579302 -0.3698115 -0.21027325
0002c0 8f d6 16 be c3 8e ee bd 82 9a be 3d 61 9e f7 3c
       -0.14730285 -0.116483234 0.09306814 0.030226888
0002d0 67 86 21 be 33 23 5d be c9 44 81 3d af 05 80 bd
       -0.15773927 -0.21595459 0.06311948 -0.06251084
0002e0 9c b0 02 be bd aa 0a be 1b 3c 71 3e 3a f4 68 3e
       -0.12762684 -0.13541694 0.23558085 0.22749415
0002f0 d4 e3 ae 3e ab cf 7a 3c ac 68 77 3e 59 e7 48 3d
       0.34158194 0.015308301 0.24161023 0.049048755
000300 53 76 3c 3e 20 ae c8 3e ee 1d 75 bd ca 42 aa be
       0.18404512 0.39195347 -0.059842996 -0.3325408
000310 af 67 68 be 58 79 5c be 3b 83 f1 3d ee 94 33 3c
       -0.22695802 -0.21530664 0.11792608 0.010960801
000320 c8 48 32 be 8b 34 6f 3c 04 aa 3b be 59 99 b3 be
       -0.17410576 0.01459993 -0.18326575 -0.35077932
000330 e6 c2 1f 3d 31 b3 c0 bd 30 11 ba bd b6 6f 70 3e
       0.03900423 -0.09409178 -0.090853095 0.23480114
000340 fe 57 0d be c0 8b cb 3d a5 2f ba be 21 71 09 be
       -0.13803098 0.099387646 -0.36364475 -0.13422062
000350 24 8a 69 bd 8c 6a 89 be 12 68 cd bd be 99 c2 bd
       -0.057016507 -0.268391 -0.100296155 -0.0950198
000360 8d f3 5e 3e 08 b8 b6 bd 16 63 bb be de 4b a4 3e
       0.21772595 -0.0892182 -0.36599034 0.32089132
000370 93 04 eb bd 57 a1 9a be 23 f5 95 be 8b 9a 16 3e
       -0.11475482 -0.30201218 -0.29288587 0.14707391
000380 2f 49 0e be a1 47 f2 3c 44 09 b9 3c 02 24 bb be
       -0.13895105 0.029575171 0.022587426 -0.3655091
000390 da 6b 0b bc ea 88 23 bc d4 db 43 3e c0 b1 7a be
       -0.008509601 -0.009981373 0.19126827 -0.24481869
0003a0 2e 59 51 3e 40 84 3c be 0c 7e 81 be d6 3f 3d be
       0.20444176 -0.18409824 -0.2529148 -0.18481383
0003b0 b0 20 2b 3e 19 20 5b 3e ad b6 f1 bc 3d c6 2e 3e
       0.16711688 0.21398963 -0.029506052 0.1706781
0003c0 71 66 cd 3e 87 b1 df 3d 35 bd 8c 3d 06 cd b9 be
       0.4011722 0.109225325 0.06872026 -0.36289233
0003d0 8d 56 b0 3e 1c d8 36 3e a7 c8 c8 3d 82 3a 31 be
       0.34441033 0.17855877 0.098038964 -0.17307475
0003e0 e3 15 29 3e b3 34 aa bd f0 d2 66 3e d0 62 ad 3e
       0.16512255 -0.08310833 0.22541404 0.3386445
0003f0 ae 2a 4b be 67 36 c9 3e 34 80 e7 be 0d f3 1f be
       -0.198405 0.39299318 -0.45215 -0.1562006

bias f4 [16]
000000 ca 7a fa be 5d fb c3 3d 63 37 8a bd 10 86 ae 3d
       -0.48921806 0.09569428 -0.067488454 0.08521664
000010 da 7b 44 3d 95 23 54 3d e9 58 be 3b bd ff 28 be
       0.047969677 0.051791746 0.0058089388 -0.16503806
000020 82 4a bf bd 7b 89 fc bc f7 91 09 bd 13 b9 a9 be
       -0.09340383 -0.030827275 -0.03358647 -0.33149013
000030 5a 5b d5 bd 28 3c 2a be 3b 4b 27 3d ad 37 94 3c
       -0.104178146 -0.1662451 0.04084323 0.018092955
