checkpoints/ln_encoder.pth (torch_old, 308661 bytes, 4 tensors)

weight_ih_l0 f4 [384, 64]
0	0xbe1408e4	-0.14456517
1	0xbdb1f70f	-0.08689701
2	0x3c6ccd39	0.014453226
3	0xbe31ba68	-0.17356265
4	0xbcb5529e	-0.022134122
5	0xbc31e58f	-0.010857954
6	0x3e232662	0.1593261
7	0x3d6cdfe1	0.057830695
8	0xbcdbfe5b	-0.026854685
9	0x3df4eea2	0.11959578
10	0x3e1ccd70	0.15312743
11	0xbd3a3289	-0.04545835
12	0x3dbde747	0.09272628
13	0x3d89178c	0.06693944
14	0x3d3036eb	0.043021124
15	0xbd3c0566	-0.045903586
16	0x3d8361a3	0.06415107
17	0xbd8870f5	-0.0666217
18	0x3d278d02	0.04090596
19	0xbd7c1f95	-0.061553556
20	0x3d8d7afb	0.06908222
21	0x3cef2883	0.029194122
22	0x3cccefdb	0.025016716
23	0x3e15b1f0	0.14618659
24	0x3d23d7f5	0.040000875
25	0x3d01e7e5	0.031715292
26	0x3e4dc459	0.20094432
27	0xbd7909d4	-0.06080039
28	0xbd9770ee	-0.073945865
29	0xbdf1ecc4	-0.118127376
30	0x3d12acb6	0.03580924
31	0x3cdeb92f	0.027187912
32	0xbd55e6f5	-0.05222221
33	0xbcb452dc	-0.022012167
34	0x3cbf2add	0.023335868
35	0xbe012aee	-0.12614033
36	0xbdb6a2e3	-0.08917787
37	0xbd25e1dd	-0.040498603
38	0x3c807ff1	0.015686007
39	0xbd891809	-0.066940375
40	0x3d3e47e1	0.046455268
41	0x3cb1e701	0.021716597
42	0x3dccd5e3	0.10001733
43	0x3dd5c844	0.10438588
44	0x3d60cd48	0.05488327
45	0x3be39803	0.0069456114
46	0xbb534b38	-0.0032240879
47	0x3e0222f6	0.12708649
48	0x3dbaaf3c	0.091154546
49	0xbbd31854	-0.006442109
50	0xbdb2c535	-0.087290205
51	0xbd48bde2	-0.04900921
52	0x3e3646af	0.17800401
53	0x3df5a706	0.11994748
54	0xbd54f37e	-0.051990025
55	0xbe01b154	-0.12665302
56	0xbda26947	-0.07930236
57	0xbd330bfa	-0.043712594
58	0xbcc76046	-0.024337899
59	0x3ddd3862	0.1080177
60	0xbd766af1	-0.06016058
61	0x3d419c7c	0.047268376
62	0x3caa8119	0.020813512
63	0xbdac6038	-0.0841679
64	0x3cb2a6ab	0.02180799
65	0xbd909508	-0.070596755
66	0x3d182867	0.037147906
67	0x3dd722f4	0.10504714
68	0x3c1d24bd	0.009591279
69	0x3cb15fd6	0.021652143
70	0x3e4dae18	0.20085943
71	0x3e1f6e81	0.15569498
72	0xbc94832b	-0.018128952
73	0x3ddbca7b	0.107319795
74	0x3e3bfd35	0.1835831
75	0x3d031a77	0.03200766
76	0x3cd4b781	0.025966408
77	0xbe4ef273	-0.20209675
78	0x3dde75e2	0.10862328
79	0x3c4afa52	0.012388783
80	0xbd31d519	-0.043416116
81	0x3e4701e6	0.19434318
82	0x3dc95eae	0.09832512
83	0x3dbfff10	0.09374821
84	0xbd1b46a5	-0.03790917
85	0x3dd02fa3	0.10165336
86	0x3daba778	0.083815515
87	0x3cf80c4e	0.030279305
88	0x3d0ad2a9	0.033892307
89	0xbe39ca63	-0.1814361
90	0x3d8e62d8	0.06952447
91	0x3d510f2e	0.051039867
92	0x3d6e9347	0.058245923
93	0x3dfc858b	0.12330159
94	0xbd1c2208	-0.038118392
95	0x3cb5c31d	0.022187764
96	0xbd309660	-0.04311216
97	0x3cdc83ef	0.02691838
98	0x3d8d25da	0.06891985
99	0x3d20361c	0.039114103
100	0x3e228cf0	0.15874076
101	0x3e1753a3	0.14777999
102	0x3e5b7d48	0.2143451
103	0x3d84a456	0.06476657
104	0x3bf35748	0.007426176
105	0x3d5b4824	0.053535596
106	0x3e5b8812	0.21438625
107	0x3e705187	0.234686
108	0x3cea8d01	0.028631689
109	0xbd72c40c	-0.059268996
110	0xbd5f91f3	-0.054582547
111	0x3e2e21fb	0.1700515
112	0xbdb3aa24	-0.08772686
113	0x3d440c8d	0.04786353
114	0x3e17bbc8	0.14817727
115	0x3e26f55e	0.16304538
116	0xbc5ff158	-0.013668381
117	0x3d7dfd7d	0.062009323
118	0x3c83de06	0.01609708
119	0x3d991cc3	0.07476189
120	0x3e18a81c	0.14907879
121	0xbc16581d	-0.009176281
122	0x3e3bc767	0.18337785
123	0x3dc996ea	0.09843238
124	0x3e5bde16	0.21471438
125	0x3e285185	0.16437347
126	0xbd33fcaa	-0.04394213
127	0xbdc58b94	-0.09645763
128	0x3ca95095	0.020668307
129	0xbd94d83d	-0.07267807
130	0xbd2a343a	-0.041553713
131	0xbdb86c16	-0.09004991
132	0xbdce1ba6	-0.10063867
133	0xbdd6216c	-0.104555935
134	0xbd8957ba	-0.06706186
135	0x3d48460f	0.048894938
136	0x3dfd1c4f	0.12358915
137	0xbcbc3197	-0.022972865
138	0x3da298e1	0.079393156
139	0x3d7dd685	0.06197216
140	0xbdcd5f66	-0.100279614
141	0x3df45c1f	0.11931633
142	0x3c8d9ce6	0.017286729
143	0x3dd50d8c	0.104029745
144	0x3e535184	0.20636564
145	0x3e2afe84	0.16698653
146	0x3c694f4b	0.014240096
147	0xbe2d0845	-0.16897686
148	0x3c725644	0.014791075
149	0xbd846a8f	-0.06465637
150	0x3b8d8253	0.0043185144
151	0xbcb28113	-0.021790063
152	0x3dceacf0	0.10091579
153	0x3d44c125	0.04803576
154	0xbd92b383	-0.071631454
155	0xbcfd546f	-0.03092405
156	0xbd4e45f5	-0.050359685
157	0xbd87e7c2	-0.06636001
158	0x3df0df82	0.11761381
159	0x3d03f399	0.032214735
160	0x3dea7fe8	0.114501774
161	0xbce30854	-0.027713932
162	0xbe031069	-0.12799229
163	0xbdc61d0b	-0.09673508
164	0xbd5d22aa	-0.053988136
165	0xbdf70b4a	-0.120627
166	0xbd2dcd1f	-0.042431947
167	0x3ded1e35	0.11578027
168	0x3d020040	0.03173852
169	0xbd108d3b	-0.035290938
170	0x3c61f18d	0.0137905
171	0xbddf1711	-0.108930714
172	0xbd9a1d70	-0.07525146
173	0x3c86cc4e	0.016454842
174	0x3da0784a	0.07835443
175	0xbc7aedb2	-0.01531546
176	0x3e0d1254	0.13776523
177	0x3d7e80c1	0.062134508
178	0xbac9a252	-0.0015383458
179	0xbe1fb420	-0.15596056
180	0xbd835ad9	-0.06413812
181	0x3d808277	0.06274884
182	0x3ddee277	0.108830385
183	0xbc31416d	-0.010818821
184	0x3e37106a	0.17877355
185	0xbcce084d	-0.025150442
186	0xbdd93cb3	-0.106072806
187	0xbe3823ea	-0.1798245
188	0x3c22351b	0.009900357
189	0xbd6ea5d1	-0.058263604
190	0xbd2d2324	-0.04226984
191	0xbd456d89	-0.048200164
192	0xbc386f13	-0.011256951
193	0x3dfe50e9	0.12417776
194	0x3dbb1a14	0.091358334
195	0x3df20086	0.11816506
196	0xbdd49543	-0.10380032
197	0x3d0f6178	0.035005063
198	0xbd9b8e98	-0.07595557
199	0x3c4d42a9	0.0125281
200	0xbdca353a	-0.098734334
201	0x3d9e1843	0.07719471
202	0xbc81c55c	-0.015841179
203	0xbd6c4002	-0.05767823
204	0xbd0b9141	-0.03407407
205	0xbc8db7a6	-0.017299484
206	0x3d87a11a	0.066225246
207	0xbd250d6e	-0.04029601
208	0xbe15f6f6	-0.1464499
209	0xbc641d39	-0.013922983
210	0xbdd72a2a	-0.10506089
211	0xbd198b8a	-0.03748659
212	0xbdada8dc	-0.08479473
213	0xbd27ea48	-0.040994912
214	0x3cd6d80d	0.026226068
215	0x3dc77fc6	0.09741168
216	0xbc10086a	-0.008791069
217	0x3cf18f25	0.029487202
218	0xbd874a67	-0.06605988
219	0x3bd48003	0.0064849867
220	0x3d78907a	0.06068466
221	0x3d59862c	0.053106472
222	0x3e28e37f	0.16493033
223	0xbc289131	-0.010288523
224	0xbe166c75	-0.1468981
225	0x3da4a214	0.080387264
226	0x3dc918e2	0.09819199
227	0xbd59686f	-0.05307811
228	0x3da35ebb	0.07977053
229	0x3dab0a56	0.08351581
230	0x3c3eb5a8	0.01163999
231	0x3db77a1f	0.089588396
232	0xbce408d7	-0.027836246
233	0x3dc2ecb1	0.095178016
234	0xbddcaa72	-0.10774697
235	0xbbe0c832	-0.0068598026
236	0xbd234dab	-0.03986899
237	0x3dac7ead	0.08422599
238	0xbd935713	-0.071943425
239	0x3c070081	0.008239866
240	0xbd936e33	-0.07198753
241	0x3d36afad	0.04460113
242	0xbd0e1cf0	-0.034695566
243	0x3b5c8300	0.0033647418
244	0xbd6bda8b	-0.057581466
245	0xbda5dba5	-0.080985345
246	0xbd6cd214	-0.057817534
247	0x3d1a2514	0.037633017
248	0xbc83b50b	-0.016077539
249	0xb90d80b2	-0.0001349475
250	0xbde63fdc	-0.11242649
251	0xbd009cdb	-0.03139959
252	0xbcbd6b65	-0.023122499
253	0x3e3008af	0.17190813
254	0x3cf3a32b	0.02974089
255	0xbdb01ed2	-0.085996285

weight_hh_l0 f4 [384, 128]
0	0xbdfd379d	-0.12364123
1	0xbbe81ee3	-0.00708376
2	0xbdb782b0	-0.089604735
3	0x3e0acd26	0.1355482
4	0xbbc50655	-0.0060127177
5	0x3d46f9b3	0.048577975
6	0x3d9b0e3e	0.07571076
7	0x3d08f281	0.033434395
8	0x3d59917e	0.053117268
9	0x3bf2248d	0.007389611
10	0x3d2ed3bd	0.042682398
11	0x3dfe0398	0.12403029
12	0x3cc048e8	0.023472264
13	0xbd9b1e4a	-0.075741366
14	0xbd86650b	-0.06562241
15	0x3d178116	0.03698834
16	0x3cc28c26	0.023748469
17	0xbd024ee5	-0.03181352
18	0xbdc388dd	-0.09547589
19	0xbcb630df	-0.0222401
20	0x3dc36edc	0.09542629
21	0xbdeafc1d	-0.11473868
22	0x3c6ff699	0.014646196
23	0x3dcbcdeb	0.09951385
24	0xbd4ff985	-0.05077507
25	0x3aa52d09	0.0012601922
26	0xbd9becc5	-0.076135196
27	0xbc799f60	-0.015235752
28	0x3e23971d	0.15975614
29	0x3d834641	0.06409884
30	0xbb10d1d3	-0.0022097721
31	0x3c1bdc57	0.009512982
32	0xbcc80e16	-0.02442078
33	0x3e1f07e7	0.15530358
34	0xbdb4e858	-0.088333786
35	0xbb9de4ee	-0.0048185503
36	0xbe105a56	-0.1409696
37	0x3e2a37c1	0.16622831
38	0xbd48e38a	-0.049045123
39	0xbc60d59a	-0.013722802
40	0xbd38f1a5	-0.045152325
41	0x3cb65524	0.022257395
42	0x3e036f91	0.12835528
43	0xbc6e1917	-0.014532349
44	0xbe0fd2ab	-0.14045207
45	0x3df7b1de	0.12094472
46	0x3e0bb63a	0.13643733
47	0xbde83b11	-0.11339391
48	0xbd78880e	-0.060676627
49	0xbc8da1c6	-0.017289054
50	0x3e334b55	0.17509206
51	0xbcc3f47e	-0.023920294
52	0xbd92d0f5	-0.07168762
53	0x3e02264a	0.12709919
54	0xbe055cb7	-0.13023649
55	0x3dfe9ff0	0.124328494
56	0xbde6b43b	-0.11264845
57	0x3d2fa2cb	0.04287986
58	0xbda46fcb	-0.08029135
59	0x3c738423	0.014863047
60	0xbdf78dd2	-0.12087597
61	0xbd2c9515	-0.042134363
62	0xbcf24041	-0.029571654
63	0x3d1697e0	0.036765933
64	0x3d84b102	0.06479074
65	0xbd203b1d	-0.039118875
66	0xbc67994c	-0.01413567
67	0x3d407628	0.046987683
68	0xbdefa5c5	-0.1170154
69	0xbd481bf6	-0.04885479
70	0xbe1097e6	-0.14120445
71	0xbd66fc3a	-0.056392886
72	0x3cfd403e	0.030914422
73	0xbde66cd0	-0.11251223
74	0x3cb16dac	0.021658741
75	0x3d88b40d	0.06674967
76	0x3deda610	0.116039395
77	0xbcb3d621	-0.02195269
78	0xbe202046	-0.15637311
79	0xbde06f16	-0.10958688
80	0xbdc620d7	-0.096742325
81	0xbd294087	-0.041321304
82	0x3d7d7009	0.061874423
83	0x3d341604	0.04396631
84	0xbdf8bb12	-0.12145056
85	0xbb2f373e	-0.0026735808
86	0xbd3827b1	-0.044959728
87	0x3d7755cb	0.060384553
88	0x3b9313d3	0.004488447
89	0x3df21b16	0.118215725
90	0x3d39610a	0.04525856
91	0xbe1421d1	-0.14466025
92	0xbd8cee4c	-0.06881389
93	0x3d49adf6	0.049238168
94	0x3d031c67	0.03200951
95	0x3cfb3341	0.030664088
96	0x3c2508ca	0.010072896
97	0xbd865be9	-0.06560499
98	0xbd982c87	-0.07430368
99	0x3dbb6eff	0.0915203
100	0xbd82c619	-0.063854404
101	0xbc7e8dad	-0.015536708
102	0xbca87ebe	-0.020568248
103	0x3d84b56f	0.06479918
104	0x3ce5cbbc	0.02805125
105	0xbd788ebb	-0.060682993
106	0xbd57b7fa	-0.052665688
107	0x3da28960	0.079363585
108	0x3e24a226	0.1607748
109	0x3da7098f	0.0815612
110	0xbe10e7d4	-0.14150935
111	0x3c8b1825	0.016979286
112	0x3dc80978	0.09767431
113	0xbc92625d	-0.017869169
114	0xbdaf36de	-0.08555387
115	0x3de593a9	0.112098046
116	0xbdd37215	-0.10324494
117	0x3c52a863	0.012857529
118	0x3d690c85	0.056896705
119	0xbe10aa76	-0.14127526
120	0x3d6c75a3	0.057729375
121	0xbd226138	-0.039643496
122	0x3cc835fb	0.024439802
123	0xbd513cd0	-0.051083386
124	0xbd8bf5f5	-0.06834022
125	0x3d8ef008	0.06979376
126	0xbdbac07d	-0.091187455
127	0xbe0c8d8d	-0.13725872
128	0x3cb48114	0.022034205
129	0xbdbdfe67	-0.09277039
130	0x3d65ea33	0.056131553
131	0xbe352e4a	-0.17693439
132	0xbce27a50	-0.027646214
133	0xbd1d938c	-0.03847079
134	0xbd93f978	-0.07225317
135	0xbcca8126	-0.024719786
136	0xbdbcbc33	-0.09215584
137	0x3e275559	0.16341151
138	0xbdaee7ef	-0.085403316
139	0x3dce6f65	0.100798406
140	0xbe23445b	-0.15944044
141	0x3dc3b82f	0.095566146
142	0x3d3b7cd5	0.045773346
143	0x3d14ef0a	0.036360778
144	0x3d719a5d	0.058985103
145	0x3d299e39	0.04141066
146	0xbd884db8	-0.06655449
147	0xbdc2de10	-0.09515011
148	0xbd99450c	-0.07483873
149	0xbdf4e616	-0.11957948
150	0x3e439bed	0.1910245
151	0xbe83d120	-0.25745487
152	0xbc374ff1	-0.011188493
153	0xbcb3ba36	-0.021939378
154	0xbd8f1f0d	-0.06988344
155	0xbd81a4b3	-0.06330242
156	0xbd2eff25	-0.042723794
157	0x3d6a8147	0.057252195
158	0x3d42d3b3	0.047565173
159	0x3c9192b4	0.017770149
160	0xbd681fdd	-0.056671012
161	0x3dc01332	0.09378661
162	0x3cc62b13	0.024190461
163	0xbe055371	-0.13020112
164	0xbcf72a3b	-0.030171504
165	0xbd34858d	-0.044072676
166	0x3d89cc5d	0.06728432
167	0xbe27046d	-0.16310282
168	0xbdfab94a	-0.12242372
169	0xbbeacd0e	-0.0071655577
170	0xbc200fbf	-0.009769379
171	0xbe8826ed	-0.26592198
172	0x3ba368da	0.0049868645
173	0x3c8a10bc	0.016853683
174	0x3d7242c2	0.059145696
175	0x3dac1266	0.08401947
176	0x3cb4bd89	0.022063034
177	0xbdd876eb	-0.10569557
178	0xbd69f532	-0.057118602
179	0x3d829f3c	0.06378028
180	0x3e11c28b	0.14234369
181	0x3d4bbbee	0.04973977
182	0x3ce360c5	0.027756104
183	0xbd203b4a	-0.039119042
184	0xbdd86542	-0.105661884
185	0x3db96ce4	0.09053972
186	0x3c232160	0.009956688
187	0xbd11bb15	-0.035578806
188	0x3e11e4a3	0.14247374
189	0xbdec30ac	-0.11532721
190	0x3d9829d9	0.07429857
191	0x3ac29dc6	0.0014848046
192	0x3dea7aca	0.114492014
193	0x3dd60fd3	0.10452237
194	0x3e6fc4e0	0.23414946
195	0x3dc01c17	0.09380358
196	0xbd68ff1b	-0.056883913
197	0x3e3bd973	0.18344669
198	0xbdfcb458	-0.12339085
199	0x3da6d9c8	0.08147007
200	0xbd75c5a6	-0.060002945
201	0xbd49b412	-0.049243994
202	0x3cecb482	0.028894667
203	0x3c7d33a9	0.015454211
204	0x3df2757f	0.11838817
205	0x3de4852c	0.11158213
206	0xbd90b416	-0.07065599
207	0x3d7647bd	0.06012701
208	0xbcac073c	-0.020999543
209	0xbd2adc5f	-0.04171407
210	0x3cb987ef	0.022647826
211	0x3d09d1cd	0.033647347
212	0xbe6e1c68	-0.23253024
213	0xbdc900ad	-0.09814582
214	0xbcfaf720	-0.030635417
215	0x3cf2c0a0	0.029632866
216	0xbe1aecc1	-0.15129377
217	0x3dfa5994	0.12224117
218	0x3d6410bf	0.055680033
219	0x3e960135	0.29297796
220	0x3cac2f6e	0.02101871
221	0x3e10386b	0.14084022
222	0xbbfdf2e0	-0.0077499
223	0xbd661097	-0.056168165
224	0x3d48c587	0.0490165
225	0xbd83a948	-0.06428772
226	0x3cfed939	0.03110944
227	0xbdaf10d6	-0.08548133
228	0x3e018c9c	0.12651294
229	0xbcddc0aa	-0.027069408
230	0x3d5eec6a	0.05442468
231	0xbce10be0	-0.027471483
232	0xbd3c797b	-0.04601429
233	0xbc82e583	-0.01597858
234	0xbd9f2e94	-0.07772556
235	0xbbc60b1e	-0.0060438057
236	0xbc2e2dd4	-0.010631043
237	0x3b26b5bc	0.0025437912
238	0xbdf3ef31	-0.119108565
239	0x3e4171a0	0.18891001
240	0x3c0a3882	0.008436324
241	0x3ddc34e3	0.10752275
242	0x3d25e0ea	0.040497698
243	0x3dab2f1a	0.08358593
244	0x3e3ec8e3	0.1863132
245	0xbd84882f	-0.064712875
246	0xbd8430ad	-0.06454597
247	0xbd5a8019	-0.05334482
248	0x3da7a8a2	0.08186461
249	0x3cd287ca	0.025699515
250	0xbd3904b3	-0.045170497
251	0x3cc71a79	0.024304615
252	0xbdb6daee	-0.08928476
253	0xbe359cc8	-0.17735589
254	0x3da856be	0.0821967
255	0x3dca73f6	0.09885399

bias_ih_l0 f4 [384]
0	0x3cdc101f	0.026863156
1	0xbde986e0	-0.114026785
2	0xbdd0a806	-0.10188298
3	0x3ca3b212	0.019982371
4	0xbe3a487f	-0.18191718
5	0xbdcc258d	-0.099681
6	0xbd818f71	-0.063261874
7	0x3c062d69	0.008189538
8	0x3baf8d1c	0.0053573977
9	0xbd9226a1	-0.07136274
10	0x3cf59d08	0.029982105
11	0xbd031e63	-0.0320114
12	0x3bbdaa23	0.005788104
13	0x3d7f44a4	0.06232132
14	0x3ddd6528	0.1081031
15	0xbc285557	-0.010274253
16	0xbe0073b6	-0.1254414
17	0xbd2c082e	-0.04199999
18	0xbde84a14	-0.11342254
19	0x3e37204a	0.17883411
20	0x3d55e531	0.052220527
21	0x3cab5782	0.02091575
22	0x3bcfd476	0.006342466
23	0x3d825773	0.06364336
24	0xbca4deb1	-0.020125719
25	0xbe2a3c48	-0.16624558
26	0xbbaa9a80	-0.005206406
27	0xbd986e0f	-0.07442867
28	0xbd871c95	-0.065972485
29	0x3e215ad9	0.15757312
30	0x3d4d3a70	0.05010456
31	0x3d73f3a5	0.05955853
32	0xbcea5ccf	-0.028608708
33	0xbd8b38cf	-0.06797945
34	0xbd9e3d00	-0.077264786
35	0xbd6a503c	-0.057205424
36	0xbdb003e8	-0.08594495
37	0xbd8aca8c	-0.06776914
38	0x3cad8ce9	0.021185355
39	0x3d8f8b74	0.070090204
40	0x3d929d60	0.07158923
41	0x3d11b81e	0.03557598
42	0xbca1e557	-0.019762678
43	0x3d6c3e2c	0.05767648
44	0x3cf5337b	0.029931774
45	0xbe2f5180	-0.17120934
46	0xbc716b95	-0.014735122
47	0xbd2098bd	-0.039208163
48	0x3db3c187	0.08777147
49	0xbdaec761	-0.08534122
50	0xbdaf1a4d	-0.08549938
51	0x3dbd836a	0.09253581
52	0x3dda33c6	0.10654406
53	0xbd4b3946	-0.049615167
54	0xbd613179	-0.05497882
55	0xbc58c48a	-0.013230452
56	0x3cdedbe2	0.027204458
57	0x3dcc4825	0.09974698
58	0xbd99220e	-0.074771985
59	0x3cb5d324	0.022195406
60	0x3dcee905	0.10103039
61	0x3e14477e	0.14480397
62	0x3c2762f6	0.010216465
63	0xbdae46e7	-0.08509617
64	0xbd4533d6	-0.048145138
65	0xbd476d42	-0.04868818
66	0xbc165453	-0.009175378
67	0x3cc4292c	0.023945414
68	0xbdcfdea6	-0.10149889
69	0xbd3db22f	-0.046312507
70	0x3db74ff7	0.08950799
71	0x3cfe4b83	0.031041866
72	0x3e279e97	0.16369091
73	0x3d8fad94	0.07015529
74	0xbb3452c9	-0.0027515164
75	0x3d9d8967	0.07692223
76	0x3da95edb	0.08270045
77	0x3d09dbb0	0.033656776
78	0x3d8860b8	0.06659073
79	0x3c6afc0a	0.014342317
80	0x3b7c0777	0.0038456598
81	0x3da64afd	0.08119772
82	0xbdc2dcc9	-0.09514768
83	0xbbe58221	-0.007004038
84	0x3d1d2c92	0.038372584
85	0x3e3b70d7	0.18304764
86	0xbdffc9b9	-0.124896474
87	0x3d8e6b97	0.06954115
88	0x3bcfe9c9	0.006345008
89	0x3dc1ae0c	0.09457025
90	0xbc9a6836	-0.01884852
91	0x3e24ce06	0.16094217
92	0xbd9d05bf	-0.076671116
93	0x3dd6f264	0.10495451
94	0x3ddff731	0.1093582
95	0xbdeaf18d	-0.114718534
96	0x3df8bc66	0.12145309
97	0xbd310f57	-0.04322752
98	0x3dd38708	0.103284895
99	0xbcb9cce5	-0.02268071
100	0xbde0dff4	-0.10980216
101	0x3da02061	0.07818676
102	0x3cb77b33	0.022397613
103	0x3d3edcc4	0.046597257
104	0xbcf8c318	-0.030366465
105	0xbe1073ff	-0.14106749
106	0xbcdd33a4	-0.027002163
107	0x3d8f63d5	0.07001463
108	0xbdf6f06d	-0.12057576
109	0x3dd218e7	0.10258656
110	0xbc4d64a3	-0.012536201
111	0xbd4e35f9	-0.05034444
112	0x3d073655	0.0330108
113	0x3dba436a	0.090948895
114	0x3c7fd01a	0.01561358
115	0x3c2e1f4e	0.010627581
116	0x3d59763b	0.05309127
117	0xbd8e94d0	-0.069619775
118	0x3de931b3	0.113864325
119	0x3c2ddb5a	0.0106113795
120	0xbcad1576	-0.021128397
121	0xbd473deb	-0.048643034
122	0xbdaccd1f	-0.08437561
123	0x3e202578	0.15639293
124	0x3de74aff	0.11293601
125	0xbdff5b12	-0.12468542
126	0x3d38dd68	0.045133024
127	0xbd333245	-0.043749113
128	0x3d92621b	0.071476184
129	0x3c09c547	0.008408851
130	0xbdf947d5	-0.12171904
131	0x3c4bbfa5	0.012435828
132	0x3da6651e	0.08124755
133	0x3d99ae68	0.075039685
134	0xbcc19a87	-0.023633255
135	0x3dca6682	0.09882833
136	0x3de0ed43	0.10982754
137	0xbd46b696	-0.04851397
138	0xbd72c313	-0.05926807
139	0x3da7960a	0.081829146
140	0x3d947660	0.07249141
141	0xbd337295	-0.043810446
142	0x3d3219cb	0.04348163
143	0xbe292b28	-0.16520369
144	0x3ce20f7c	0.027595274
145	0x3da0ee2b	0.07857927
146	0xbe2b7785	-0.16744812
147	0xbd260ff8	-0.040542573
148	0x3da7956a	0.08182795
149	0xbca3da00	-0.020001411
150	0x3cab0ec5	0.020881066
151	0xbd9a794b	-0.07542666
152	0x3b681133	0.0035410642
153	0x3b0becca	0.0021350854
154	0xbb2e53bb	-0.00266002
155	0xbd959ce6	-0.073053166
156	0xbe002bdb	-0.1251673
157	0xbd9c94de	-0.07645582
158	0xbd57f0e7	-0.052719977
159	0xbdf059be	-0.11735867
160	0xbcabb07f	-0.020958183
161	0xbadaf190	-0.0016704071
162	0xbdd2bd46	-0.10290007
163	0xbcfb5518	-0.030680224
164	0xbd5aa06f	-0.053375658
165	0x399f7cd2	0.00030419842
166	0x3d2e5294	0.04255922
167	0x37ec1a20	2.8145558e-05
168	0x3b48f005	0.003066064
169	0xbd70856d	-0.058720995
170	0xbc9eb399	-0.019372748
171	0x3c22b28f	0.009930267
172	0xbaa6cf20	-0.0012726523
173	0x3d0b77eb	0.03404991
174	0xbd0d75fd	-0.03453635
175	0xbd13db7f	-0.036098
176	0xbdb90646	-0.090344
177	0x3c92e160	0.017929733
178	0xbcf9ebca	-0.03050794
179	0xbdc29b5a	-0.09502287
180	0xbe158a51	-0.14603545
181	0xbc97173b	-0.018443694
182	0x3ccd902a	0.025093157
183	0xbd3bc50e	-0.045842223
184	0xbdc60ed0	-0.09670794
185	0xbc98dfb7	-0.018661363
186	0x3ca96a3c	0.02068054
187	0x3c232d37	0.0099595105
188	0xbd96a2df	-0.07355284
189	0xbc7cbb44	-0.015425507
190	0x39ea085d	0.0004463819
191	0x3d085e1c	0.033292875
192	0xbdf2ad35	-0.11849443
193	0x3d04c432	0.03241367
194	0x3e0590f2	0.13043573
195	0xbd0fb536	-0.035084926
196	0xbd8750a0	-0.06607175
197	0xbde2b5b1	-0.11069811
198	0x3de3e81f	0.11128258
199	0x3c1e1610	0.009648815
200	0xbd388d21	-0.045056466
201	0xbd2aa6e4	-0.041663066
202	0xbdd442a8	-0.10364276
203	0xbda86eec	-0.08224282
204	0xbd5df915	-0.05419262
205	0x3d9ac3ac	0.07556853
206	0x3c7152d3	0.0147292195
207	0xbc0442fd	-0.008072612
208	0xbe100731	-0.14065243
209	0xbcb130de	-0.021629747
210	0x3cdc7998	0.02691345
211	0xbcc6ae72	-0.024253104
212	0xbdc50201	-0.09619523
213	0xbdf10aa7	-0.1176961
214	0xbe3315e7	-0.17488824
215	0xbd186e50	-0.037214577
216	0x3ca93b6d	0.02065822
217	0x3c37aaff	0.011210202
218	0xbdd7e650	-0.105419755
219	0x3c8cd47b	0.017191162
220	0xbe27c639	-0.1638421
221	0x3c66a974	0.014078487
222	0xbd911207	-0.070835166
223	0x3d90d4ea	0.0707186
224	0xbc2f214f	-0.010689094
225	0x3d088312	0.033328123
226	0xbd17f992	-0.037103243
227	0x3dafb671	0.0857972
228	0xbcea6e82	-0.028617147
229	0x3d6495d4	0.05580695
230	0x3ddbe65f	0.10737299
231	0xbce4ab5d	-0.027913744
232	0xbe235363	-0.15949778
233	0xbdfa4099	-0.12219352
234	0xbd56a37a	-0.052401997
235	0x3d50a3f3	0.050937604
236	0xbde1b1a8	-0.11020213
237	0xbd655f6f	-0.055999216
238	0x3d080bd4	0.033214405
239	0xb9210195	-0.00015354746
240	0xbd3a0c36	-0.0454218
241	0xbde8809d	-0.11352656
242	0xbd19dc90	-0.03756386
243	0xbd99505f	-0.07486033
244	0x3ad1d91e	0.001601014
245	0xbd5686a1	-0.052374486
246	0xbda468b8	-0.08027786
247	0xbdacbd44	-0.08434537
248	0xbc857d7f	-0.016295193
249	0x3c6f35cd	0.014600229
250	0xbdd8e609	-0.10590751
251	0xbdd7d66a	-0.10538943
252	0xbccafefb	-0.024779787
253	0xbcf148bb	-0.029453626
254	0x3db67035	0.089081205
255	0x3d82fa03	0.06395342

bias_hh_l0 f4 [384]
0	0xbdbdb72d	-0.09263454
1	0xbde8b8bd	-0.11363361
2	0xbd1ac71b	-0.037787538
3	0x3d58aff4	0.052902177
4	0xbda175aa	-0.07883771
5	0xbdb5d8d9	-0.08879251
6	0x3d53078b	0.051520865
7	0xbd136cb1	-0.035992328
8	0x3d10c214	0.035341337
9	0x3da9eecd	0.08297501
10	0xbbe2758a	-0.0069109844
11	0xbd0cf965	-0.03441753
12	0xbcc2baa4	-0.023770638
13	0x3bb99b15	0.005664239
14	0x3dcdcd88	0.100489676
15	0x3cc3b84f	0.023891596
16	0xbda52cac	-0.08065161
17	0xbd5a5c0f	-0.05331045
18	0xbd8b072c	-0.06788477
19	0x3cb03dd6	0.02151386
20	0xbd3887d1	-0.0450514
21	0x3dc40b74	0.09572497
22	0xbc69f4d3	-0.014279562
23	0x3cae0f70	0.021247596
24	0xbc6cd651	-0.014455394
25	0xbd9ea851	-0.077469476
26	0x3cf3e900	0.029774189
27	0x3c8da82e	0.017292108
28	0xbdc2d23f	-0.095127575
29	0x3c48e7c2	0.012262287
30	0xbc376a8a	-0.0111948345
31	0x3d66605b	0.056244235
32	0xbe26ab0f	-0.16276191
33	0x3d63ba15	0.055597384
34	0x3c0eab89	0.008707889
35	0xbcdf7a0a	-0.027279872
36	0x3d9a3c4e	0.075310335
37	0xbdcaecf1	-0.09908474
38	0x3e04e4a9	0.12977852
39	0x3d87b7d0	0.06626856
40	0x3ddcbad5	0.10777823
41	0xbd4c1046	-0.049820207
42	0x3cbbd544	0.022928841
43	0xbd92fb71	-0.07176865
44	0xbd73723d	-0.059435118
45	0xbaa1f6ec	-0.0012356914
46	0x3d934753	0.071913384
47	0xbd9cbac8	-0.07652813
48	0x3d13e21d	0.03610431
49	0xb926fc81	-0.00015925059
50	0xbe1d44fe	-0.1535835
51	0x3c98535d	0.018594438
52	0xbd13d368	-0.036090285
53	0x3d664806	0.05622103
54	0x3b3c71ff	0.002875447
55	0xbd7418c2	-0.059593923
56	0xbc9e55f8	-0.019328102
57	0x3d9fd572	0.07804383
58	0xbe082e11	-0.13298823
59	0x3d971229	0.07376511
60	0x3becb4e6	0.007223713
61	0x3dd29743	0.10282757
62	0x3c66cafa	0.014086479
63	0xbc8ae61a	-0.016955424
64	0x3bcabc1b	0.0061869747
65	0x3d934ba9	0.071921654
66	0xbd4c3d5c	-0.049863204
67	0xbcac4949	-0.021031039
68	0xbdcad54e	-0.09903966
69	0xbd56dc51	-0.052456204
70	0x3d045575	0.03230806
71	0xbd4a3eb4	-0.049376205
72	0x3df99907	0.12187391
73	0x3d5d06a3	0.053961407
74	0x3c9d592f	0.019207565
75	0x3db7b5c1	0.08970214
76	0xbd44f1cf	-0.04808217
77	0x3d95d105	0.07315258
78	0x3e339151	0.17535903
79	0xbd7ab12a	-0.061204113
80	0x3e131014	0.14361602
81	0x3d57c8d6	0.052681766
82	0xbae6b3e9	-0.0017601225
83	0xbd18869a	-0.03723774
84	0xbc969f8b	-0.018386623
85	0x3e0449cb	0.12918775
86	0xbe01cdcd	-0.12676163
87	0x3df399b9	0.11894555
88	0xbb53fa1d	-0.0032345124
89	0x3d62aa5d	0.055338252
90	0xbd8e3c9e	-0.069451556
91	0x3e35c4ab	0.17750804
92	0xbe133f43	-0.14379601
93	0x3dc52572	0.09626283
94	0x3e08e49c	0.13368458
95	0xbd921308	-0.07132536
96	0x3d991aca	0.07475813
97	0x3b350a31	0.0027624483
98	0x3b07dde3	0.002073162
99	0x3cae439d	0.021272475
100	0x3d59aa78	0.053141087
101	0x3d1d5e71	0.038420144
102	0xbbc9a469	-0.0061536324
103	0x3d0734f5	0.033009488
104	0xbdae1f8c	-0.08502111
105	0xbdabffea	-0.08398421
106	0xbcb787ca	-0.022403616
107	0x3dfa46cd	0.122205354
108	0xbddce197	-0.10785215
109	0x3d508baf	0.050914463
110	0xbdc97cc3	-0.098382495
111	0xbd05e43b	-0.03268836
112	0x3e2acf3a	0.16680613
113	0x3df503d0	0.11963618
114	0xbb9cca84	-0.004784884
115	0x3cac5cec	0.021040402
116	0x3d4ee87f	0.050514694
117	0xbd29a9c1	-0.041421656
118	0x3d97340d	0.07382975
119	0x3c9563e0	0.0182361
120	0x3dc0e92f	0.09419476
121	0x3d5ad90c	0.05342965
122	0xbe0406f9	-0.12893285
123	0x3d8a46ea	0.06751807
124	0x3e389c6e	0.18028423
125	0xbe24cab5	-0.16092952
126	0xbd368898	-0.04456386
127	0x3df36290	0.11884034
128	0x3d82e478	0.06391233
129	0x3d85753e	0.06516503
130	0xbd8209fd	-0.06349561
131	0xbd01c307	-0.031680133
132	0x3d0f4189	0.03497461
133	0x3d5a15ef	0.053243574
134	0x3dac4b86	0.084128425
135	0xba844702	-0.0010091963
136	0x3d7d75ee	0.061880045
137	0xbd2b9dcf	-0.041898545
138	0x3cc2ef8d	0.023795867
139	0x3ddfc5c3	0.10926392
140	0x3d80898c	0.06276235
141	0xbc9b1faf	-0.018936006
142	0xbd73c797	-0.059516516
143	0xbdf2d2ee	-0.11856638
144	0x3ccf552e	0.025309172
145	0x3c27a35b	0.010231818
146	0xbdcd745d	-0.1003196
147	0x3d3faeea	0.04679767
148	0x3dcbce7a	0.09951492
149	0xbd97728b	-0.07394894
150	0x3d618ff5	0.05506893
151	0x3b47174c	0.0030378876
152	0x3dc4580e	0.095871076
153	0xbdbdacf4	-0.09261504
154	0xbd81201a	-0.06304951
155	0xbda2c04f	-0.07946836
156	0xbe3b661b	-0.18300669
157	0xbda1e92c	-0.07905802
158	0xbdb038d4	-0.08604589
159	0xbd9e6649	-0.07734353
160	0xba1366af	-0.0005622906
161	0x3ba2e5a6	0.004971224
162	0xbc444bef	-0.011980995
163	0xbdd09c1e	-0.10186027
164	0xbd4d0ac7	-0.050059106
165	0x3ca9083f	0.020633815
166	0x3dba5fe6	0.091003224
167	0xbda1dc91	-0.07903398
168	0x3cb7b827	0.022426678
169	0xbcba3105	-0.022728452
170	0x3d8e05e5	0.06934718
171	0x3d99fc28	0.07518798
172	0xbc8dc377	-0.017305119
173	0xbd99d254	-0.0751082
174	0x3b801032	0.0039081806
175	0xbdae0d3e	-0.084986195
176	0xbc3ca1bf	-0.011513173
177	0xbd84a18a	-0.06476124
178	0xbd2eb327	-0.04265132
179	0xbdc8763a	-0.09788175
180	0xbde97590	-0.113993764
181	0xbdb5d7ba	-0.08879037
182	0xbd896ab4	-0.06709805
183	0xbdf48a69	-0.11940462
184	0xbd6b09a4	-0.05738224
185	0xbbf3983b	-0.007433919
186	0xbb51f3f8	-0.0032036286
187	0xbdfb410f	-0.12268268
188	0xbcd62f05	-0.026145468
189	0xbdf1bb84	-0.11803344
190	0x3d1354bf	0.035969492
191	0x3d1c09c7	0.038095262
192	0xbd417db3	-0.047239017
193	0xbbebc602	-0.007195235
194	0xbce14905	-0.027500639
195	0xbd4c918e	-0.0499435
196	0xbdbce1e7	-0.09222775
197	0xbdf8e3d3	-0.12152829
198	0x3d00a6cd	0.031409074
199	0x3ced1775	0.02894185
200	0xbd05b11f	-0.03263962
201	0x3cedca1c	0.029027037
202	0xbd9801da	-0.07422228
203	0x3d66b884	0.05632831
204	0x3d5d82ef	0.054079946
205	0x3c933c75	0.017973164
206	0x3d551ad2	0.05202753
207	0x3c89a1bd	0.016800756
208	0xbe13a157	-0.14417015
209	0x3c861212	0.016366038
210	0xbd835205	-0.06412128
211	0xbc8259fb	-0.015912047
212	0xbd360244	-0.044435754
213	0xbd14c456	-0.036320053
214	0xbe0d0b59	-0.1377386
215	0x3d6f1a35	0.058374602
216	0xbc1721d0	-0.00922437
217	0x3d82e550	0.06391394
218	0x3c67654d	0.014123273
219	0x3d8e33c0	0.06943464
220	0xbe47250a	-0.19447723
221	0x3af74c86	0.001886741
222	0xbd401313	-0.04689319
223	0xbd1ced82	-0.038312443
224	0x3bfe1d26	0.0077549396
225	0x3cfa5676	0.030558806
226	0xbd8d5b1e	-0.06902145
227	0x3dbcc0f1	0.09216488
228	0xbd00cca1	-0.03144515
229	0x3d8cab05	0.06868557
230	0x3d4f9a0e	0.050684027
231	0x3d221859	0.039574
232	0xbda2e960	-0.07954669
233	0xbe099b2a	-0.13438097
234	0xbe148b4c	-0.14506263
235	0x3d216a31	0.039407913
236	0xbdb3ebe8	-0.0878523
237	0x3d5b21a2	0.05349887
238	0x3bff3e8c	0.0077894386
239	0x3ad32f5f	0.001611214
240	0x3c80c436	0.01571856
241	0xbe125577	-0.14290415
242	0xbd4a5724	-0.04939951
243	0xbd19b5fd	-0.037527073
244	0x3d03e686	0.032202266
245	0xbdf7647b	-0.12079712
246	0x3c51711d	0.012783316
247	0xbc4bbb26	-0.012434756
248	0xbdbc053a	-0.091806844
249	0x3ba69523	0.0050836965
250	0xbc8fa314	-0.017533816
251	0xbdbf07d8	-0.09327668
252	0xbda6818c	-0.08130178
253	0xbc3f3966	-0.0116714
254	0x3da87be4	0.08226755
255	0x3cdbced0	0.026832014
